autoencoder_data_parallel/autoencoder_DDP/autoencoder_ddp.pth (torch, 843837 bytes, 8 tensors)

encoder.0.weight f4 [128, 784]
0	0xbcb6786a	-0.022274215
1	0xbce2ae4e	-0.027671006
2	0xbcdc934c	-0.026925705
3	0x3ce56343	0.028001433
4	0x3cbc27d3	0.022968208
5	0xbc3b29e1	-0.011423559
6	0x3c45a797	0.012063882
7	0xbc6582c1	-0.014008225
8	0x3c629c18	0.013831161
9	0x3ce319c3	0.027722245
10	0x3cf5ed03	0.030020243
11	0xbc854a47	-0.01627077
12	0x3adae697	0.0016700801
13	0x3ca5d657	0.020243807
14	0x3cd3efab	0.025871119
15	0xbcff249a	-0.031145383
16	0x3cf69148	0.030098572
17	0x3b970ee5	0.00460993
18	0xbc808867	-0.015690042
19	0xbcd2d835	-0.025737861
20	0xbc965c97	-0.018354697
21	0xbb09fb93	-0.002105449
22	0xbc2e4c73	-0.010638344
23	0xbc124f2e	-0.008930011
24	0xbce6265a	-0.02809446
25	0x3ca65ad5	0.020306984
26	0x3c99c93e	0.018772718
27	0x3b7170a5	0.0036840823
28	0x3cfd4738	0.030917749
29	0xbd05aed5	-0.032637436
30	0x3ccd457e	0.02505755
31	0x3cbcf6a1	0.02306682
32	0x3c975e03	0.018477445
33	0x3c7d3fb5	0.0154570835
34	0x3cca3fda	0.02468865
35	0x3c885800	0.016643524
36	0x3d68ce4c	0.056837365
37	0x3d3b5d27	0.045743134
38	0x3d49a169	0.0492262
39	0x3d88470d	0.06654177
40	0x3db839f2	0.08995427
41	0x3d2972f5	0.041369397
42	0x3d2ea75b	0.04264007
43	0x3d6cdad0	0.057825863
44	0x3db75507	0.089517646
45	0x3d368d21	0.044568185
46	0x3d01896d	0.0316252
47	0x3d443355	0.047900517
48	0x3c9bd512	0.019022498
49	0xbce7dfeb	-0.028305015
50	0xbcb85fd6	-0.022506636
51	0x3b90e003	0.0044212355
52	0x3c05266a	0.008126834
53	0x3c142465	0.00904188
54	0x3c7b9fbc	0.015357908
55	0xbd0d179f	-0.034446355
56	0xbc97b41e	-0.018518504
57	0xbca0bd35	-0.019621471
58	0x3ccd9b89	0.025098579
59	0x3c14d2a7	0.009083427
60	0xbc469e6b	-0.012122731
61	0x3d17ed90	0.03709179
62	0xbb847d26	-0.004043239
63	0x3d8ed1f4	0.06973639
64	0x3da9fe32	0.08300437
65	0x3d5af06a	0.053451933
66	0x3d8776ff	0.066144936
67	0x3dd83769	0.10557444
68	0x3e0f775e	0.14010379
69	0x3dcd5522	0.100260034
70	0x3d97ac67	0.0740593
71	0x3d7a5409	0.0611153
72	0x3da3ef76	0.08004658
73	0x3e06b5a4	0.13155228
74	0x3de668e6	0.112504765
75	0x3de165d4	0.1100575
76	0x3d42a913	0.047524523
77	0x3d16880f	0.03675085
78	0x3c33a696	0.01096501
79	0x3cae4e1e	0.021277484
80	0x3b1c2672	0.0023826626
81	0x3c34f2c2	0.011044206
82	0x3ac2516e	0.0014825293
83	0xbc9e23fa	-0.019304264
84	0x3d05c2c7	0.032656457
85	0xbbcf67ee	-0.006329528
86	0x3bdbb4f0	0.006704919
87	0x3bd00b82	0.006349028
88	0x3a45dbc6	0.00075477024
89	0x3d0080ed	0.031372953
90	0x3c9a198a	0.018811006
91	0x3d110424	0.03540434
92	0x3d18f40c	0.037342116
93	0x3d8e9399	0.06961746
94	0x3d9b9541	0.07596827
95	0x3d832b7d	0.06404779
96	0x3db4069e	0.08790325
97	0x3d7aa923	0.061196458
98	0x3da3f94d	0.08006535
99	0x3db9440c	0.09046182
100	0x3dba3c78	0.09093565
101	0x3dc9ea59	0.098591514
102	0x3d871797	0.06596296
103	0x3dcf09f7	0.101093225
104	0x3cd31c0f	0.025770215
105	0x3c8bd115	0.017067472
106	0x3d3392e1	0.043841247
107	0xbb8590d5	-0.004076103
108	0xb809231a	-3.2696036e-05
109	0x3c300674	0.010743726
110	0xbcaab339	-0.020837413
111	0x3cbd1ac7	0.023084057
112	0x3b8a5f80	0.0042228103
113	0xbccc3178	-0.024925932
114	0x3c7bbdee	0.015365107
115	0xbd188b8c	-0.037242457
116	0x3ba0a65d	0.0049026445
117	0x3d02b7c7	0.031913545
118	0x3d36ce69	0.04463044
119	0x3bfbec6e	0.0076880967
120	0x3c1241a4	0.008926783
121	0x3caf8e01	0.021430017
122	0x3c74a263	0.014931294
123	0x3db0190c	0.08598527
124	0x3db5d287	0.088780455
125	0x3dda94ed	0.106729366
126	0x3d81d72c	0.06339869
127	0x3dc5c0b1	0.096558936
128	0x3dca0568	0.098643124
129	0x3d9edb64	0.07756689
130	0xbc52ed1c	-0.012873914
131	0xbcd805ad	-0.026369894
132	0x3d151693	0.03639848
133	0x3ca0e06d	0.019638265
134	0x3ccdb1f7	0.025109274
135	0x3d10eda3	0.035382878
136	0x3b9d9ba4	0.0048098136
137	0xbab02e7c	-0.0013441588
138	0x3cfb37da	0.03066628
139	0xbcbac3aa	-0.022798378
140	0xbbf016f8	-0.007326957
141	0xbbfcb253	-0.0077116876
142	0x3c00a820	0.007852584
143	0xbc8b6a10	-0.017018348
144	0x3d66ccfb	0.05634783
145	0xbc5ce646	-0.013482636
146	0xbcd70f14	-0.026252307
147	0x3ca4d18a	0.020119447
148	0xbb4c0547	-0.0031131075
149	0xbc4ca2c4	-0.012489978
150	0x3d87d35f	0.06632113
151	0x3d197eab	0.037474316
152	0x3d9da7a0	0.076979876
153	0x3d88865d	0.06666253
154	0x3d99cf34	0.07510224
155	0x3d9bc961	0.07606769
156	0x3cb788c2	0.022404078
157	0x3ca0d177	0.01963113
158	0xbd90cb75	-0.07070056
159	0xbcaaec5b	-0.020864656
160	0xbc980e53	-0.018561518
161	0xbd4e4695	-0.05036028
162	0x3cef80a5	0.029236147
163	0x3c34723c	0.011013564
164	0x3d275ddc	0.040860996
165	0x3d0c6582	0.034276493
166	0x3d2b9190	0.041886866
167	0x3ccb791d	0.024838025
168	0x3c8ec98a	0.017430086
169	0xbcb79b65	-0.022412965
170	0xbc99d122	-0.01877648
171	0xbbdd2bc4	-0.006749602
172	0xbce4508a	-0.027870435
173	0xbb92a37b	-0.004475055
174	0xbd384668	-0.04498902
175	0xbbab97ec	-0.0052366164
176	0x3cfcab0a	0.030843277
177	0x3d8f05c9	0.06983525
178	0x3d8f46b0	0.069959044
179	0x3d9d6d94	0.07686916
180	0x3d8b0c22	0.067894235
181	0x3dbefe6b	0.0932587
182	0x3dbdc453	0.092659615
183	0x3d0905fd	0.033452976
184	0x3c582608	0.013192661
185	0xbd2fe2d2	-0.042940922
186	0xbd0cc220	-0.03436482
187	0xbd2b3da8	-0.041806847
188	0xbdaf02dd	-0.08545468
189	0xbdd13458	-0.10215062
190	0xbd91d93a	-0.07121511
191	0xbcc25132	-0.023720358
192	0x39a3f860	0.00031274837
193	0xbc09988e	-0.008398188
194	0xbd13a3ba	-0.036044814
195	0x3c8867b5	0.016651014
196	0xbc441239	-0.011967235
197	0xbc0c2b83	-0.008555296
198	0xbc4c4973	-0.0124686835
199	0x3c2b44ca	0.010453412
200	0xbcf785be	-0.03021514
201	0xbb1b6ec5	-0.0023717147
202	0xbd0b3863	-0.03398932
203	0x3c4438c9	0.011976429
204	0xb82ed0c0	-4.1679246e-05
205	0x3d8b1755	0.067915596
206	0x3d6bd347	0.057574537
207	0x3d5c148a	0.053730525
208	0x3d8fa5dc	0.07014057
209	0x3c14db34	0.009085465
210	0x3c9948f6	0.018711548
211	0xbb25c697	-0.002529537
212	0x3ca6012a	0.020264227
213	0xbd2d9605	-0.042379398
214	0xbcfdcae2	-0.030980531
215	0xbd43e453	-0.04782517
216	0xbdb7aaf2	-0.08968152
217	0xbdb57e6a	-0.08862002
218	0xbd4f9978	-0.05068347
219	0xbd0de582	-0.034642704
220	0x3c892b60	0.016744316
221	0xba47123f	-0.00075939664
222	0x3ba47460	0.005018756
223	0xbd0af5d0	-0.03392583
224	0xbc8d0dc4	-0.017218478
225	0xbba7f232	-0.0051253075
226	0x3d2d453b	0.04230235
227	0x3ae58bee	0.0017513016
228	0xbc5c3cf5	-0.013442268
229	0x3c9815a7	0.018565012
230	0xbc08a947	-0.00834114
231	0xbc8f0b29	-0.017461376
232	0x3d208009	0.039184604
233	0x3cfb645b	0.030687502
234	0x3dadd2fa	0.08487506
235	0x3d9d9907	0.07695203
236	0x3d4a6b7e	0.04941892
237	0xbbd4fc46	-0.0064998
238	0xbc6eed59	-0.014582955
239	0xbd03a9db	-0.03214441
240	0xbcd50f8f	-0.026008395
241	0xbc4f44ec	-0.01265071
242	0xbbbb1885	-0.00570971
243	0x3b5bccda	0.003353885
244	0xbd4c42e5	-0.049868483
245	0xbd61a6ed	-0.055090833
246	0xbdab3370	-0.0835942
247	0x3c43e04b	0.011955331
248	0x3b5759c7	0.0032859908
249	0x3d47c524	0.048771992
250	0xbb51619e	-0.0031949054
251	0x3c62164a	0.013799259
252	0x3d2bf922	0.04198564
253	0x3d411b56	0.04714521
254	0x3cc92ad0	0.024556547
255	0xbbc76617	-0.006085168

encoder.0.bias f4 [128]
0	0x3e117e23	0.14208274
1	0x3dce0520	0.10059571
2	0x3c264b76	0.010149827
3	0x3c201f8c	0.009773146
4	0xbd2a62ad	-0.04159801
5	0x3e072919	0.13199271
6	0xbcf2e4be	-0.029650088
7	0x3c145132	0.009052562
8	0x3e4c49f7	0.1995009
9	0xbcac0470	-0.02099821
10	0x39a67545	0.0003174936
11	0xbc970e3b	-0.018439403
12	0xbd35216d	-0.04422133
13	0x3d300cd3	0.04298098
14	0x3cef9eaf	0.02925047
15	0x3d297285	0.04136898
16	0x3d294307	0.041323688
17	0x3ced3ff4	0.02896116
18	0x3bb9b8ea	0.0056677954
19	0x3dbb97d4	0.09159818
20	0x3d61d23d	0.05513214
21	0xbd64be82	-0.055845745
22	0x3c8c6b9e	0.01714116
23	0xbdbb136b	-0.09134563
24	0xbc8bb1e0	-0.01705259
25	0xbc8d3d4b	-0.01724114
26	0xbc320dfc	-0.010867592
27	0xbb748496	-0.0037310473
28	0xbc921c19	-0.017835664
29	0xbb43c04d	-0.002986926
30	0x3cb8f331	0.0225769
31	0x3d53d933	0.05172081
32	0x3d0bb9ff	0.034112927
33	0x3c805f0a	0.015670318
34	0xbbf69d0f	-0.007526047
35	0x3d8325fc	0.06403729
36	0x3c9a2c2c	0.01881989
37	0x3e1ad8f1	0.15121819
38	0x3b77dc68	0.0037820581
39	0x3c80ff94	0.01574687
40	0x3d99cd4a	0.07509859
41	0x3d3351dc	0.04377924
42	0x3d077466	0.03306999
43	0x3d76fd02	0.06029988
44	0x3d01076d	0.031501222
45	0x3daa5998	0.0831787
46	0x3dad6743	0.08466961
47	0x3b200e96	0.0024422756
48	0x3d852a2c	0.06502184
49	0x3ac982f8	0.0015374115
50	0xbd115d52	-0.035489388
51	0xbd0f2db9	-0.034955714
52	0x3c587985	0.013212566
53	0xba08b7f3	-0.0005215399
54	0x3d3b3e4a	0.0457137
55	0x3d2b1f4e	0.0417779
56	0xbd311264	-0.04323043
57	0xbcc2dc19	-0.023786591
58	0xbce7268d	-0.028216625
59	0x3ccf1b69	0.025281625
60	0xbd2f43be	-0.042789213
61	0xbcac6dda	-0.021048475
62	0x3cd33516	0.02578215
63	0x3d6539a0	0.05596316
64	0x3d2818a0	0.04103911
65	0x3e82ecfe	0.25571436
66	0x3d6a8a45	0.05726077
67	0xbccdf64c	-0.025141858
68	0x3d2d03d9	0.042239998
69	0x3c46c042	0.012130799
70	0x3d758ff9	0.059951756
71	0xbcbb6cb5	-0.022878984
72	0x3cafddab	0.021468004
73	0x3c54c622	0.012986692
74	0x3dc44c37	0.09584849
75	0x3e8b3846	0.2719137
76	0x3c1db133	0.009624767
77	0x3baa2ebd	0.00519356
78	0x3b9a6cce	0.0047126776
79	0xbd0c15f1	-0.034200612
80	0x3e9a8590	0.30180025
81	0x3d43a23f	0.04776215
82	0x3bbbb2c4	0.0057280976
83	0xbdcfaa4c	-0.101399034
84	0x3c005830	0.007833526
85	0x3c7a4c5f	0.015276997
86	0x3d2158b5	0.03939124
87	0x3d07f51a	0.03319273
88	0x3d61551a	0.0550128
89	0x3da3ff9f	0.0800774
90	0xbd1a1f5b	-0.03762756
91	0x3d8703c1	0.06592513
92	0xbd1fb5c9	-0.038991723
93	0x3c10b4ce	0.00883217
94	0x3d544cc8	0.051831037
95	0x3da4ec8b	0.080529295
96	0xbcc58835	-0.0241128
97	0x3b1d1172	0.0023966697
98	0x3c222b17	0.009897969
99	0x3d5e1ddd	0.0542277
100	0x3cc13773	0.02358601
101	0x3d1f4de4	0.03889264
102	0xbd1409c6	-0.036142133
103	0x3b395ef0	0.0028285347
104	0x3d4e7f72	0.05041451
105	0x3d5828de	0.05277335
106	0x3d1606fd	0.03662776
107	0x3b140478	0.0022585671
108	0x3cdf57c2	0.027263526
109	0x3d077798	0.033073038
110	0x3c5be69f	0.013421684
111	0xbbbcef49	-0.0057658297
112	0xbba8ec33	-0.0051551103
113	0x3cbd76eb	0.023127994
114	0x3cdf49e9	0.027256923
115	0x3d63b741	0.055594686
116	0x3b2c1c2c	0.002626191
117	0xbc666b5c	-0.014063682
118	0x3c125bf5	0.008933057
119	0x3ccd602f	0.025070278
120	0x3ce2d8de	0.027691301
121	0x3caa382c	0.020778738
122	0x3e1f65a9	0.15566124
123	0xbc909b11	-0.017652066
124	0x3d8b8bef	0.068137996
125	0xbc57803c	-0.013153132
126	0x3cf8d009	0.030372636
127	0x3d886209	0.06659324

encoder.2.weight f4 [32, 128]
0	0x3e033003	0.12811284
1	0x3dbfcdaf	0.09365403
2	0x3de0bc98	0.109734714
3	0x3c957271	0.018243046
4	0x3d16ea63	0.036844622
5	0x3d1110f9	0.035416577
6	0x3ce131af	0.027489511
7	0xbc95c5a4	-0.018282719
8	0xbdc906f3	-0.098157786
9	0x3ce73a8b	0.028226158
10	0xbd02f897	-0.031975355
11	0xbd1901df	-0.0373553
12	0x3c7c6fdc	0.015407529
13	0x3cea851c	0.028627925
14	0x3d67889f	0.056526776
15	0xbd770ec4	-0.060316816
16	0xbc12c1fb	-0.008957381
17	0x3c8aca2f	0.016942112
18	0xbd809894	-0.06279102
19	0x3d665e64	0.05624236
20	0x3dd193b5	0.10233251
21	0x3dd35616	0.10319154
22	0x3d93e1df	0.07220816
23	0x3e1026f2	0.14077356
24	0x3db01482	0.085976616
25	0x3db32acf	0.087483995
26	0xbd47aca9	-0.048748646
27	0x3dc2153b	0.09476706
28	0xbd393bdd	-0.045223106
29	0xbd529ab5	-0.05141707
30	0xbc5d3c3f	-0.013503133
31	0x3d591e02	0.053007133
32	0xbd7ed80e	-0.062217765
33	0xbb5d5df8	-0.0033777934
34	0x3d686ea7	0.05674615
35	0xbc83e809	-0.016101854
36	0x3e06bfc0	0.13159084
37	0xbcf03078	-0.029319987
38	0x3d9b34a1	0.075783975
39	0xbd8c7050	-0.068573594
40	0x3d569029	0.052383576
41	0x3dc799a1	0.09746099
42	0x3df4fdc4	0.119624645
43	0x3d9cb86d	0.07652364
44	0x3df33ac6	0.118764445
45	0x3c653d70	0.013991699
46	0xbd402da5	-0.04691853
47	0x3d22b6b3	0.039725017
48	0x3c219b87	0.009863741
49	0x3db5490e	0.08851825
50	0x3d58c5aa	0.052922882
51	0xbd8d0653	-0.06885972
52	0x3d3af73a	0.04564593
53	0x3d9c6b30	0.07637632
54	0x3de91bcc	0.11382255
55	0x3ddfa46e	0.10920034
56	0xbd2d22f2	-0.042269655
57	0x3db2d49f	0.087319605
58	0x3dce7c05	0.100822486
59	0x3dc7aa81	0.09749318
60	0x3ce3371c	0.02773624
61	0xbd017bd0	-0.031612217
62	0x3cb791e5	0.022408435
63	0xbcc486e4	-0.023990102
64	0x3d5d4cbd	0.05402826
65	0xbead0163	-0.3379012
66	0x3dae29d7	0.08504074
67	0x3bb41f8e	0.0054969257
68	0x3c1500c8	0.009094425
69	0x3d897e1c	0.067135066
70	0x3df5e97a	0.12007423
71	0x3d246a63	0.04014052
72	0xbd676c69	-0.056499872
73	0xbd1c4cc2	-0.03815914
74	0x3cc56dbd	0.024100179
75	0x3bbf23ea	0.0058331387
76	0x3bb89950	0.0056335106
77	0x3c4969aa	0.012293259
78	0x3dcbfcab	0.09960302
79	0x3d130866	0.03589668
80	0xbe5f0980	-0.21780968
81	0xbcca8fc5	-0.024726758
82	0x3dabae2d	0.08382831
83	0xbe12913c	-0.14313215
84	0x3caeba4e	0.021329071
85	0x3ddfae29	0.1092189
86	0xbc3b65a5	-0.011437808
87	0x3dab3637	0.0835995
88	0xbd1ced45	-0.038312215
89	0x3deed611	0.11661924
90	0x3b412520	0.002947159
91	0x3df75773	0.120772265
92	0xbd53d0a2	-0.05171264
93	0x3d14134e	0.036151223
94	0xbd8c5f98	-0.068541706
95	0xbca57af0	-0.020200223
96	0x3e1f53d9	0.15559329
97	0x3d363c56	0.044491135
98	0xbcf48269	-0.02984734
99	0xbd9d521d	-0.076816775
100	0x3c89e78b	0.016834041
101	0xbcce1737	-0.025157554
102	0x3b3bc63b	0.002865209
103	0x3c81fbb4	0.015867092
104	0x3d87f365	0.06638221
105	0x3dc31e16	0.09527223
106	0xbcb60b64	-0.022222228
107	0x3d0fa053	0.035065006
108	0x3c9f98b0	0.019481987
109	0x3db7708b	0.08957013
110	0xbd67c126	-0.056580685
111	0x3dccd277	0.100010805
112	0xbca3bbb3	-0.019986963
113	0x3d19a1dd	0.03750788
114	0x3d610476	0.054935895
115	0x3d95a4d0	0.07306826
116	0x3dbc6ba8	0.09200221
117	0xbd8adb91	-0.0678016
118	0x3d7b0ab6	0.06128951
119	0x3db4a18e	0.088198766
120	0x3c99f740	0.018794656
121	0x3d4774a2	0.048695214
122	0x3ccffad7	0.025388164
123	0xbd437328	-0.047717243
124	0x3d39acb5	0.045330722
125	0xbd1cfed6	-0.038328968
126	0x3c1eb938	0.009687714
127	0x3df5b59d	0.119975306
128	0xbb2287f7	-0.002480028
129	0x3ce7539c	0.02823811
130	0x3d63b384	0.05559112
131	0xbdc031e1	-0.09384514
132	0x3d02daf3	0.031947087
133	0xbdce49b4	-0.100726515
134	0x3d717a1f	0.058954354
135	0x3c135e11	0.008994595
136	0x3c5d0505	0.013489966
137	0xbc7d2cd8	-0.015452586
138	0xbd2e52c6	-0.042559408
139	0x3d21ff80	0.039550304
140	0xbd5fbeac	-0.0546252
141	0x3d90631e	0.07050155
142	0x3cc0c513	0.023531472
143	0xbca5fcb4	-0.0202621
144	0x3d192eab	0.03739802
145	0x3d1dbb04	0.03850843
146	0xbda90fc2	-0.08254959
147	0x3d86dee0	0.06585479
148	0x3d24ebfa	0.040264107
149	0x3bfae77f	0.007656991
150	0x3ca37b8e	0.019956376
151	0xbca66922	-0.020313803
152	0x3cfdafd3	0.030967629
153	0xbc997257	-0.01873128
154	0xbc0b24e0	-0.008492678
155	0x3ccb8458	0.02484338
156	0xbced8c06	-0.028997432
157	0xbd8cfba6	-0.06883936
158	0xbd5831bf	-0.052781817
159	0x3d0e0dc7	0.034681108
160	0x3d99ed47	0.0751596
161	0xbca0402d	-0.019561851
162	0x3d993cb0	0.07482278
163	0x3d0d32a7	0.034472134
164	0xbc13f23c	-0.009029921
165	0xbda0563d	-0.07828949
166	0xbd649ea4	-0.055815354
167	0xbda3156b	-0.079630695
168	0x3ca676e0	0.020320356
169	0x3cbebd4d	0.023283625
170	0xbc467cf8	-0.012114756
171	0xbdbfe6cb	-0.09370192
172	0xbdb98071	-0.090577014
173	0x3cc24f62	0.023719493
174	0xbb2ebeea	-0.0026664087
175	0x3d39e6ec	0.04538624
176	0x3c8b4328	0.016999796
177	0xbd0af1c7	-0.033921983
178	0xbd0ced07	-0.034405734
179	0xbd39283d	-0.04520439
180	0xbdb4d825	-0.08830289
181	0xbcfae56f	-0.03062698
182	0xbdd09a59	-0.101856895
183	0x3d36214c	0.044465348
184	0x3d7fba7e	0.062433712
185	0x3c5e7511	0.0135777155
186	0xbd6c47ae	-0.057685547
187	0xbd30cbbf	-0.043163057
188	0x3b2984fe	0.0025866623
189	0x3d98d6f4	0.07462874
190	0xbcef8c64	-0.029241748
191	0xbb94a9a3	-0.004536824
192	0xbc0b50af	-0.008503123
193	0x3d8d58d4	0.06901708
194	0xbd640b24	-0.055674687
195	0xbd88ac01	-0.06673432
196	0x3d137377	0.035998788
197	0xbd893bc8	-0.067008555
198	0xbddfb184	-0.1092253
199	0xbd114197	-0.035462942
200	0x3da0057c	0.07813546
201	0x3cf21d3d	0.029554958
202	0x3cd42c4f	0.025900034
203	0x3d77c3d0	0.060489476
204	0x3d8e962f	0.06962239
205	0xbd9e2d16	-0.07723443
206	0x3b81ad4d	0.0039574266
207	0x3d421d9f	0.04739153
208	0x3ccdeb41	0.025136592
209	0x3ce44c9f	0.027868567
210	0x3c43cd35	0.011950781
211	0xbd8fbcd1	-0.07018436
212	0xbd3bdafc	-0.045863137
213	0xbca28017	-0.019836469
214	0xbd587fd4	-0.05285628
215	0x3bc336e4	0.005957471
216	0xbd45d488	-0.04829839
217	0xbc4404a8	-0.011964001
218	0x3d0a0b54	0.03370221
219	0xbd375ca4	-0.044766083
220	0xbd43ca9d	-0.04780065
221	0x3b4ac245	0.0030938548
222	0x3b30ef52	0.0026998115
223	0xbdc3e466	-0.09565048
224	0x3c13bb88	0.009016879
225	0x3c914e20	0.017737448
226	0x3da06416	0.0783159
227	0x3d403b37	0.04693147
228	0xbdbce42f	-0.0922321
229	0x3d41524e	0.047197632
230	0xbdabca86	-0.08388238
231	0x3d282ca7	0.04105821
232	0x3d35f61f	0.044424172
233	0x3d764b14	0.060130194
234	0x3d2f92bd	0.04286455
235	0xbdcd86ef	-0.10035502
236	0x3b93e9c3	0.0045139506
237	0xbd44465f	-0.047918674
238	0xbd96c5da	-0.07361956
239	0x3d7fd6e4	0.062460795
240	0xbd8defe0	-0.06930518
241	0xbd23f920	-0.040032506
242	0xbab7f380	-0.0014034361
243	0xbd92606c	-0.07147297
244	0xbd8cec28	-0.06880981
245	0x3da3b4ed	0.07993493
246	0x3d8df3ae	0.06931244
247	0x390d3361	0.00013465948
248	0xbda20299	-0.07910652
249	0xbdc34066	-0.095337674
250	0xbd1d40c8	-0.03839186
251	0xbd8a4881	-0.0675211
252	0x3be5ca94	0.0070126746
253	0xbc3cda01	-0.011526586
254	0x3d622d28	0.055218846
255	0xbc2143f3	-0.0098428605

encoder.2.bias f4 [32]
0	0x3dd30258	0.103031814
1	0xbd3f0adf	-0.046641227
2	0x390b2601	0.0001327023
3	0x3dedf3b3	0.116187476
4	0xbd3014c6	-0.04298856
5	0x3c69b866	0.014265155
6	0x3cebef9a	0.028800774
7	0x3c54a560	0.012978882
8	0xbd937fc4	-0.07202104
9	0x3df381d1	0.11889995
10	0xbcebf9b2	-0.028805587
11	0xbd3efda6	-0.046628617
12	0xbd487b4b	-0.048945706
13	0xbc66c150	-0.014084175
14	0xbca6f199	-0.020378875
15	0x3d398fe0	0.045303226
16	0xbd516bd8	-0.05112824
17	0x3d83573e	0.064131245
18	0xbd8f11bd	-0.06985805
19	0x3d3f31b8	0.046678275
20	0x3ce1cedd	0.02756446
21	0xbd05f8e3	-0.03270806
22	0xbcbe334c	-0.02321782
23	0x3e1253d6	0.14289793
24	0xbc1c5b5e	-0.009543268
25	0x3d6af9d1	0.05736715
26	0xbdac9e66	-0.084286496
27	0xbca2bd4f	-0.01986566
28	0x3d77dcbc	0.060513243
29	0x3db9ba3e	0.09068726
30	0x3dd38b8a	0.10329349
31	0x3db240d9	0.08703775

decoder.0.weight f4 [128, 32]
0	0xbdb1e3f4	-0.08686057
1	0xbe1525f0	-0.14565253
2	0xbda39285	-0.07986931
3	0x3d2eceee	0.042677812
4	0x3e26fcbd	0.1630735
5	0x3cfa4785	0.030551681
6	0xbd93bf2d	-0.07214198
7	0xbe336f4c	-0.17522925
8	0xbe33657f	-0.17519186
9	0xbe2eb51e	-0.17061278
10	0x3caaf55b	0.020868948
11	0xbd9bc724	-0.076063424
12	0x3e149942	0.14511588
13	0xbd3c8b43	-0.046031248
14	0xbe00f947	-0.12595092
15	0x3e0474ba	0.12935153
16	0xbdd5de35	-0.10442773
17	0xbda8ab2d	-0.08235774
18	0xbd86abff	-0.065757744
19	0xbd53b482	-0.051685818
20	0xbe0d2c73	-0.13786487
21	0x3e2c35b7	0.16817366
22	0xbdb5a741	-0.08869792
23	0x3d318fc3	0.043349992
24	0x3e0a7d57	0.13524376
25	0xbdee321d	-0.11630652
26	0xbe288c05	-0.16459663
27	0xbc5d0107	-0.0134890145
28	0xbddca22d	-0.1077312
29	0xbcdd76b7	-0.027034147
30	0x3dffc10c	0.12487993
31	0xbe2568bc	-0.16153234
32	0x3df14d40	0.117823124
33	0x3caa358b	0.020777484
34	0x3cc5f5c3	0.02416504
35	0xbd29f8e9	-0.041497145
36	0xbc77d67c	-0.015126821
37	0x3d3aa160	0.045564055
38	0xbb417ee7	-0.0029525103
39	0x3da270f9	0.07931704
40	0xbe27413a	-0.16333476
41	0xbda28a14	-0.079364926
42	0x3da319c7	0.07963901
43	0xbc041863	-0.008062455
44	0x3ca22226	0.019791674
45	0x3e216211	0.15760066
46	0xbbcd6de9	-0.006269206
47	0xbd426d45	-0.04746749
48	0xbdb81fb2	-0.089904204
49	0x3e22ff23	0.1591764
50	0xbcc0c8c0	-0.023533225
51	0x3da633a0	0.081153154
52	0x3da16720	0.07880998
53	0xbe0d77ac	-0.13815182
54	0xbe132ec0	-0.14373302
55	0x3d662f16	0.05619725
56	0x3cf024d6	0.02931444
57	0xbe142fc2	-0.14471343
58	0x3da8fe87	0.08251672
59	0x3de55b17	0.11199015
60	0x3e2a8db8	0.16655624
61	0x3c5776a5	0.013150846
62	0x3e33cd0d	0.1755869
63	0x3e1c4248	0.1525966
64	0x3e3964cf	0.18104862
65	0xbde8a22b	-0.11359056
66	0x3dc4f6b1	0.09617365
67	0x3e2222c5	0.15833576
68	0x3c8a1483	0.016855484
69	0xbe2c06fb	-0.16799538
70	0x3b12ee52	0.0022419882
71	0x3dd473cd	0.1037365
72	0x3d5ad8ae	0.053429298
73	0xbe3a0c6c	-0.18168801
74	0xbe228ecf	-0.1587479
75	0x3d971c57	0.07378452
76	0xbe231aa2	-0.15928128
77	0xbe007103	-0.1254311
78	0x3de11879	0.10990996
79	0x3cc40323	0.023927277
80	0x3c9c3b0b	0.019071123
81	0x3e12cace	0.14335176
82	0x3dc55422	0.09635188
83	0x3dc25f6b	0.09490856
84	0x3de6507a	0.112458184
85	0xbd2bad4a	-0.04191331
86	0xbddc7479	-0.10764403
87	0x3dbd8181	0.092532165
88	0x3df00612	0.11719908
89	0x3d2d44e0	0.042302012
90	0xbdb95e30	-0.09051168
91	0x3e460502	0.19337848
92	0xbdb71e5e	-0.08941339
93	0xbe457d3b	-0.19286053
94	0x3dceea90	0.10103333
95	0xbd98f64f	-0.07468855
96	0xbe010abf	-0.12601756
97	0x3e02bd7d	0.12767597
98	0xbdcf9118	-0.10135096
99	0xbb5d4d28	-0.0033767913
100	0xbde1d5ea	-0.11027129
101	0xbde9f829	-0.11424286
102	0xbdaa3781	-0.08311368
103	0x3da79659	0.081829734
104	0xbd6a2ab6	-0.05716964
105	0x3cc93b10	0.024564296
106	0x3e22ff54	0.15917712
107	0x3d3e4d8e	0.04646068
108	0x3e049af3	0.12949733
109	0x3d4c3c00	0.049861908
110	0x3e1c2542	0.15248588
111	0x3d5cf46e	0.053944044
112	0xbccda945	-0.025105128
113	0xbe06e820	-0.13174486
114	0xbdc070aa	-0.09396489
115	0x3dd270a7	0.10275393
116	0x3e14790e	0.14499304
117	0xbd47c35e	-0.0487703
118	0x3e09d6d9	0.13460864
119	0xbdae820e	-0.085209
120	0xbd85601e	-0.065124735
121	0xbddc20a4	-0.10748413
122	0x3e06fca8	0.13182318
123	0x3e084709	0.13308348
124	0xbe0171fb	-0.12641136
125	0x3d5fcd51	0.054639164
126	0x3e03c18f	0.12866805
127	0xbe171695	-0.14754708
128	0x3e58e195	0.21179803
129	0xbde06f5b	-0.10958739
130	0xbdaf6da8	-0.08565837
131	0x3e430920	0.1904645
132	0x3e0d2684	0.13784224
133	0xbd887e55	-0.06664721
134	0xbd426520	-0.04745972
135	0xbcb0def9	-0.021590697
136	0xbdba58bd	-0.09098957
137	0x3dfff0d5	0.12497107
138	0xbe296cef	-0.16545461
139	0xbd4d9f59	-0.050200794
140	0xbd838c89	-0.06423289
141	0xbd04bd25	-0.032406945
142	0xbd023875	-0.031792123
143	0xbe00ec38	-0.1259011
144	0x3e1b0302	0.15137866
145	0xbc65d585	-0.014027958
146	0xbb40941f	-0.0029385162
147	0x3d82229b	0.06354257
148	0xbe2dcffd	-0.16973872
149	0xbd8ed4ca	-0.0697418
150	0xbe0f602d	-0.14001532
151	0xbe2efb72	-0.17088106
152	0xbd8a4d82	-0.06753065
153	0xbdb2a468	-0.08722764
154	0x3e098f2a	0.13433519
155	0x3d498cd4	0.04920657
156	0x3e35eb46	0.17765531
157	0xbdf63056	-0.12020938
158	0x3d839c64	0.064263135
159	0xbe08d240	-0.13361454
160	0x3d79bd42	0.060971506
161	0x3dde7df1	0.10863865
162	0x3dc552bb	0.0963492
163	0xbacdf36c	-0.0015712804
164	0xbdcef34f	-0.10105001
165	0x3df68b03	0.12038233
166	0xbd4f44e5	-0.050602812
167	0x3d8657c9	0.065597124
168	0xbd8a2f45	-0.06747297
169	0xbdec6de1	-0.11544395
170	0x3dd9157a	0.105997995
171	0xbb61b611	-0.0034440795
172	0xbca152b4	-0.019692756
173	0x3c941909	0.018078344
174	0x3ccb786f	0.0248377
175	0x3d57fdd5	0.052732307
176	0x3e2efb38	0.1708802
177	0x3dcbedd4	0.099574715
178	0x3dad1d29	0.084528275
179	0x3e0f7a75	0.14011557
180	0x3d9b8726	0.07594137
181	0x3d2042a5	0.039126057
182	0xbdac3479	-0.08408446
183	0xbe74b8fe	-0.23898694
184	0xbe063755	-0.13107045
185	0x3d658af6	0.056040727
186	0x3e1eefaa	0.15521112
187	0x3e4a4381	0.19752313
188	0x3dda5ff9	0.106628366
189	0xbddc28b3	-0.1074995
190	0x3e0c46b3	0.13698845
191	0x3d1218cc	0.03566818
192	0xbe1a106c	-0.15045327
193	0xbc7a0bfb	-0.015261645
194	0xbcbb8693	-0.022891318
195	0xbd8c6c8e	-0.06856643
196	0x3e0df7b3	0.13864021
197	0xbe19273a	-0.1495637
198	0xbe2b768a	-0.16744438
199	0x3ce0c4b3	0.027437543
200	0xbcd54451	-0.026033552
201	0xbe2f65b7	-0.17128645
202	0x3dc58435	0.09644357
203	0xbd96aeeb	-0.07357582
204	0xbdce350c	-0.10068712
205	0x3d9c64d0	0.07636416
206	0xbb2bf54d	-0.002623874
207	0x3de02e41	0.10946322
208	0x3e254fe5	0.16143759
209	0x3d38a9f4	0.045083955
210	0xbe37477a	-0.1789836
211	0x3e23171e	0.15926787
212	0xbd4b17e1	-0.04958332
213	0x3dbf0ff3	0.09329214
214	0xbe33c280	-0.17554665
215	0x3e043d0c	0.12913913
216	0x3cae78ec	0.021297894
217	0x3e09ed4d	0.1346943
218	0xbd2547be	-0.04035162
219	0x3d82e931	0.06392134
220	0x3ce2ada2	0.027670685
221	0x3d4214d3	0.04738314
222	0xbd314c71	-0.04328579
223	0xbe0221eb	-0.12708251
224	0xbd7e74d7	-0.062123146
225	0xbe30ca4d	-0.17264672
226	0xbd225d37	-0.039639678
227	0x3def8562	0.11695363
228	0xbd129a88	-0.035791904
229	0x3e076391	0.13221575
230	0xbda4db91	-0.080496915
231	0x3e05cefe	0.13067243
232	0x3dd1c402	0.10242464
233	0xbcc342f8	-0.023835644
234	0xbd95bbce	-0.073112115
235	0xbd68acf9	-0.056805585
236	0x3d182a9a	0.037150003
237	0x3e0d5916	0.13803515
238	0xbd1698c9	-0.0367668
239	0xbdde65f3	-0.10859289
240	0xbdcf9094	-0.10134998
241	0x3d2811d5	0.04103263
242	0xbe095111	-0.1340983
243	0x3e211640	0.15731144
244	0x3d7ac6a5	0.0612246
245	0x3d0b32ab	0.033983868
246	0x3d952279	0.07281966
247	0x3cb92d69	0.022604661
248	0xbc76792c	-0.015043538
249	0xbde50860	-0.11183238
250	0xbdd93ca2	-0.10607268
251	0xbdf6c576	-0.120493814
252	0x3dd066dd	0.101758696
253	0xbd8c7878	-0.06858915
254	0xbe156bfb	-0.14591973
255	0xbda2d591	-0.07950891

decoder.0.bias f4 [128]
0	0xbdc68016	-0.09692399
1	0x3d3aa7f0	0.045570314
2	0x3dc5bcf8	0.096551836
3	0x3d427b7a	0.047481038
4	0xbe6dc41b	-0.2321934
5	0xbdc85e51	-0.097836144
6	0x3cbce4f0	0.023058385
7	0xbddfeb86	-0.109335944
8	0x3de90dab	0.1137956
9	0xb9f5ffce	-0.0004692063
10	0xbd9df52f	-0.07712781
11	0x3db624bc	0.08893725
12	0x3dbee78a	0.09321506
13	0xbe3ba0ef	-0.1832311
14	0x3e5d1d3d	0.21593185
15	0x3e6af8dc	0.22946495
16	0x3e2692e3	0.1626697
17	0xbb5c5249	-0.0033618382
18	0xbe5abcde	-0.2136111
19	0xbdad4e0f	-0.08462154
20	0x3d9df429	0.077125855
21	0x3e5ba0cc	0.21448058
22	0xbdedb07f	-0.116059296
23	0x3e1c72d8	0.15278184
24	0x3e04af3c	0.12957472
25	0x3a692f98	0.00088953367
26	0xbd8b558a	-0.06803425
27	0x3e54a340	0.207654
28	0xbdeabf12	-0.11462225
29	0x3d34110f	0.04396158
30	0x3de23fa6	0.11047296
31	0xbd8fd6d7	-0.07023399
32	0x3d662f2d	0.056197334
33	0x3d50b73f	0.050956007
34	0x3e1a61b7	0.15076338
35	0x3df9c141	0.121950634
36	0x3ade667d	0.00169678
37	0x3d9cc315	0.076543964
38	0x3da39c55	0.07988802
39	0x3d88100a	0.06643684
40	0x3dd111d8	0.102084816
41	0x3e72f550	0.23726392
42	0xbd216aea	-0.0394086
43	0xbe0a860c	-0.13527697
44	0xbe92f925	-0.28705707
45	0xbd833cbb	-0.06408068
46	0xbd108d64	-0.03529109
47	0x3ddce7c5	0.10786394
48	0xbe474db0	-0.19463229
49	0xbc0f4450	-0.008744314
50	0x3e5a327e	0.21308324
51	0x3e502ca0	0.20329523
52	0xbc55f6d9	-0.013059341
53	0xbd20164c	-0.039083764
54	0xba9e8abb	-0.0012095788
55	0x3da54c90	0.08071244
56	0xbe1a1905	-0.15048607
57	0x3d805a41	0.062672146
58	0xbe25ab6d	-0.16178675
59	0x3db2967a	0.087201074
60	0x3dfa2684	0.122143775
61	0xbe481f57	-0.19543205
62	0xbd876cba	-0.06612535
63	0x3de2c053	0.11071839
64	0x3e1e4281	0.15455057
65	0x3d28b783	0.041190635
66	0x3bdc7b73	0.0067285835
67	0xbd9fec39	-0.07808728
68	0x3ad46a20	0.0016205944
69	0x3d30e768	0.043189436
70	0xbe06d9c6	-0.13169011
71	0xbd214a73	-0.03937764
72	0xbdaae0be	-0.083436474
73	0xbc371c19	-0.011176133
74	0x3e5882e2	0.21143678
75	0x3d09a272	0.033602186
76	0xbe31d6fc	-0.17367166
77	0xbdec025d	-0.11523888
78	0x3e1c138d	0.15241833
79	0x3e07ad30	0.1324966
80	0x3d3a1387	0.04542878
81	0x3ddef7c5	0.10887102
82	0x3dee48de	0.11634992
83	0xbd1bba97	-0.038019743
84	0x3d889b86	0.06670289
85	0xbdb1b1a2	-0.08676459
86	0x3dd9ca73	0.10634317
87	0xbccc2639	-0.02492057
88	0xbdbc257f	-0.09186839
89	0xbcd92ac8	-0.026509658
90	0xbe449f75	-0.19201453
91	0xbd5a5689	-0.053305183
92	0xbdadff3e	-0.08495949
93	0x3d74787c	0.059685215
94	0xbe2a9132	-0.1665695
95	0xbe3fe6a1	-0.18740322
96	0x3df97c04	0.12181857
97	0x3cc2cb8c	0.0237787
98	0x3cb3b327	0.021936012
99	0x3e08b9b4	0.1335209
100	0x3c906424	0.017625876
101	0x3e0a5263	0.1350799
102	0xbc9155fd	-0.017741198
103	0xbe1162df	-0.14197873
104	0x3bae05df	0.0053107585
105	0xbd987c83	-0.07445624
106	0xbe8b6e56	-0.27232617
107	0x3d414a05	0.04718973
108	0x3dd84bfc	0.10561368
109	0x3c69fe6e	0.014281852
110	0x3e4bcb08	0.19901669
111	0x3d3d4f65	0.046218295
112	0x3e452ca5	0.19255312
113	0x3e8b6401	0.27224734
114	0xbdd9fe70	-0.10644233
115	0x3d484882	0.048897274
116	0xbe0bc092	-0.13647678
117	0x3e50a7e8	0.20376551
118	0xbe49b576	-0.19698128
119	0x3dff7030	0.1247257
120	0x3e7e2f03	0.24822621
121	0x3e162a03	0.14664464
122	0x3e5cede1	0.21575119
123	0xbe4bd278	-0.19904506
124	0xbe4f60ae	-0.20251724
125	0x3e5b3476	0.21406731
126	0x3e00fc64	0.1259628
127	0x3e2a666c	0.16640633

decoder.2.weight f4 [784, 128]
0	0xbc647b90	-0.013945475
1	0x3cddd7ff	0.027080534
2	0xbc76d21f	-0.015064745
3	0xbd06b292	-0.03288514
4	0xbcd79deb	-0.026320418
5	0xbd857b88	-0.06517702
6	0x3d99cec7	0.07510143
7	0xbcb9fe9a	-0.022704411
8	0xbe0dc318	-0.13843954
9	0xbd827f7b	-0.06371971
10	0xbd82e35c	-0.063910216
11	0x3d955aa5	0.0729268
12	0xbd34c97c	-0.044137463
13	0xbd51bd8e	-0.051206164
14	0xbd9647f5	-0.073379435
15	0xbd4e6bd8	-0.050395817
16	0x3d2669e6	0.040628336
17	0x3ba8eecd	0.0051554204
18	0x3d50db7e	0.050990574
19	0x3c3c4742	0.011491599
20	0xbd883565	-0.06650809
21	0xbd5dc909	-0.0541468
22	0xbdd11e77	-0.10210889
23	0xbe0a1db4	-0.13487893
24	0x3c62204b	0.013801645
25	0xbdb767b1	-0.089553244
26	0x3d3c9cb9	0.0460479
27	0xbba0c91b	-0.004906786
28	0x3da15b07	0.0787869
29	0xbe27072e	-0.16311333
30	0xbd5dbcac	-0.05413501
31	0x3d3a32e2	0.045458682
32	0xbd55c579	-0.052190278
33	0xbd8b77bf	-0.06809949
34	0x3ce0f18b	0.027458927
35	0xbcc9f510	-0.024652988
36	0x3cccb756	0.024989765
37	0xbc7e1fbf	-0.015510499
38	0xbc0c6e1c	-0.008571174
39	0xbdab587a	-0.08366485
40	0x3d35c6f0	0.044379175
41	0x3d740eb7	0.059584346
42	0x3a826c4c	0.0009950488
43	0xbc1323ce	-0.0089807045
44	0xbe44a3b3	-0.19203071
45	0xbd26f1be	-0.040757887
46	0xbda65e69	-0.08123476
47	0xbd1eb22b	-0.038744133
48	0xbd8dd93b	-0.06926199
49	0xbde7d90c	-0.11320695
50	0x3c836063	0.016037172
51	0xbdd071aa	-0.1017793
52	0xbce9be5d	-0.028533155
53	0x3d09ddb6	0.033658706
54	0x3d86c942	0.06581356
55	0xbce495e6	-0.027903508
56	0xbcc16269	-0.023606496
57	0xbd7c5be9	-0.06161109
58	0x3d58c147	0.0529187
59	0xbb29bfde	-0.0025901715
60	0xbd32f316	-0.043688856
61	0xbd87dd6f	-0.06634032
62	0x3d58cd38	0.052930087
63	0xbcdd513f	-0.02701628
64	0x3d3eb91a	0.046563245
65	0xbdd9bc0d	-0.10631571
66	0x3cbe9226	0.023263048
67	0xbd846b35	-0.064657606
68	0x3d6145cd	0.054998208
69	0x3d9bca19	0.076069064
70	0xbd652458	-0.055942863
71	0x3d899cdb	0.06719371
72	0xbd3c2376	-0.045932256
73	0xbde5f28d	-0.112279035
74	0x3baaf9d0	0.0052177683
75	0xbca6a260	-0.020341098
76	0x3cac184b	0.021007678
77	0xbdd8aa3e	-0.10579346
78	0x3d4b34a1	0.049610738
79	0x3b56d10a	0.0032778406
80	0xbd80b2ac	-0.06284079
81	0x3cae1983	0.0212524
82	0x3c42a16c	0.011879306
83	0x3cfdff7d	0.031005615
84	0x3d6ddf18	0.058074087
85	0x3d905770	0.070479274
86	0x3c91fb60	0.01782006
87	0xbcd415d2	-0.025889311
88	0x3d14dcfd	0.036343563
89	0xbd12e929	-0.03586689
90	0xbd85c532	-0.06531753
91	0xbce398d3	-0.027782833
92	0x3d839ee0	0.064267874
93	0xbdb8997e	-0.09013651
94	0x3d6f426f	0.058412965
95	0xbd8e73e7	-0.069557
96	0xbd29bab0	-0.041437805
97	0xbdedfff1	-0.116210826
98	0xbdd8f685	-0.10593895
99	0xbd372e3c	-0.044721827
100	0xbdb7ad8e	-0.0896865
101	0xbd453b8c	-0.04815249
102	0xbcabddd6	-0.020979803
103	0xbd4c6a66	-0.049906157
104	0xbd504149	-0.05084351
105	0xbd650bec	-0.055919573
106	0x3d3abaf2	0.04558844
107	0x3c280d9a	0.010257149
108	0x3d4684e1	0.048466567
109	0xbd5e1385	-0.054217834
110	0xbdef32a2	-0.11679579
111	0xbdb9e1de	-0.09076284
112	0xbdada348	-0.08478409
113	0x3d8d09a6	0.06886606
114	0xbd84d8ad	-0.0648664
115	0xbddb148b	-0.10697278
116	0x3d79ce2b	0.060987633
117	0x3d537cc0	0.051632643
118	0x3b1525e2	0.0022758176
119	0xbd2010f1	-0.039078657
120	0x3d789000	0.060684204
121	0x3d400899	0.0468832
122	0xbd9de3e0	-0.07709479
123	0xbd3dcd76	-0.04633852
124	0xbcadbd1e	-0.021208342
125	0xbcd60eae	-0.026130047
126	0xbdab1496	-0.08353536
127	0xba754d07	-0.0009357486
128	0xbca311d1	-0.019905956
129	0x3b4d2fb1	0.0031308944
130	0xbd7941dd	-0.060853828
131	0x3d3dc0eb	0.04632656
132	0xbd142974	-0.036172345
133	0x3c63f8c0	0.013914287
134	0x3d8a9113	0.06765952
135	0xbbc8bd57	-0.0061260867
136	0xbddb0bcb	-0.10695609
137	0xbd977ac7	-0.07396465
138	0x3d893dac	0.06701216
139	0xbdbcaf08	-0.09213072
140	0x3cf74a3f	0.03018677
141	0xbcb17e3f	-0.021666644
142	0xbcddb069	-0.027061658
143	0x3bae1dd2	0.0053136135
144	0xbc31f737	-0.010862163
145	0xbdb36985	-0.08760361
146	0x3d01df27	0.031706955
147	0xbc7d3f61	-0.015457005
148	0xbd51e134	-0.05124016
149	0x3c9adb5e	0.01890343
150	0xbcf9775f	-0.030452428
151	0xbdbb6dec	-0.09151825
152	0x3c95f7e7	0.018306686
153	0xbd99b8ef	-0.075059764
154	0xbc82fd80	-0.015990019
155	0xbccb1cec	-0.024794064
156	0x3d2b7f63	0.041869532
157	0xbe0cb68c	-0.13741511
158	0x3d5e7939	0.054314826
159	0x3b9060c7	0.004406068
160	0xbd243efd	-0.040099133
161	0x3c0495af	0.008092328
162	0x3d2561d5	0.040376503
163	0xb8b46577	-8.601968e-05
164	0xbc8b340d	-0.016992593
165	0xbdeeb438	-0.11655468
166	0x3c116a0f	0.008875384
167	0x3d35cce5	0.044384856
168	0xbdf954c1	-0.12174369
169	0xbda1ece9	-0.07906515
170	0xbd9ba7ba	-0.07600351
171	0x3da5b71e	0.080915675
172	0xbe70d72c	-0.23519582
173	0x3d4d6139	0.050141547
174	0xbd801c66	-0.062554166
175	0x3be376e8	0.006941665
176	0xbde1af83	-0.11019804
177	0x3cd32a75	0.025777081
178	0xbdd3cf4b	-0.10342272
179	0xbc1da423	-0.009621653
180	0x3baff3da	0.0053696455
181	0xbce22099	-0.027603434
182	0xbcf8b199	-0.030358123
183	0xbd81798e	-0.06322013
184	0xbdb16829	-0.08662445
185	0xbdba4373	-0.09094896
186	0xbcb5ceda	-0.022193361
187	0xbd9ba142	-0.07599117
188	0xbc817290	-0.015801698
189	0x3d478d5e	0.048718803
190	0x3d086711	0.033301417
191	0xbe2fb764	-0.17159802
192	0x3cd20ace	0.025639918
193	0xbce0b7af	-0.027431337
194	0x3c9c360b	0.019068738
195	0x3d9b86e7	0.0759409
196	0x3cb0e402	0.021593098
197	0xbdb6d3ca	-0.08927114
198	0xbcd3f3fa	-0.025873173
199	0xbd02b438	-0.03191015
200	0x3d9782c2	0.07397987
201	0x3ca07ded	0.019591296
202	0xbc7b2490	-0.015328541
203	0xbdf019bb	-0.11723658
204	0x3d5b3677	0.05351874
205	0xbdc5b7f2	-0.096542254
206	0xbcfcae3c	-0.0308448
207	0xbd91e795	-0.07124249
208	0xbd51d5aa	-0.051229157
209	0x3cc6a13b	0.024246803
210	0xbd237207	-0.039903667
211	0xbda213a4	-0.079139024
212	0x3c9fc9c2	0.019505385
213	0x3cc293fb	0.023752203
214	0xbd6b9659	-0.05751643
215	0xbc6ff51f	-0.014645844
216	0x3d1791c0	0.037004232
217	0xbc0666c9	-0.008203217
218	0xbd5c50c2	-0.053787954
219	0xbd6386b4	-0.055548385
220	0xbb3848cf	-0.002811957
221	0xbda100df	-0.07861494
222	0xbdbedea7	-0.09319811
223	0xbd6b0fd4	-0.05738814
224	0xbd457498	-0.048206896
225	0x3ce67d9b	0.028136065
226	0x3c4ddf4e	0.012565447
227	0xbdc882d2	-0.09790577
228	0xbd228bcc	-0.039684102
229	0x3d321556	0.04347738
230	0xbd8285db	-0.06373187
231	0x3d08f901	0.033440594
232	0x3cba5558	0.022745773
233	0x3cf75460	0.0301916
234	0x3ca93c18	0.020658538
235	0xbdb21132	-0.08694686
236	0xbdf41c35	-0.119194426
237	0x3bf401e6	0.0074465154
238	0x3d095373	0.03352685
239	0x3cf2bf3a	0.0296322
240	0xbcbdc0bc	-0.023163192
241	0x3cc9bc89	0.024626033
242	0xbc9071d5	-0.017632404
243	0x3d5a394c	0.0532773
244	0xbcecc433	-0.028902149
245	0x3c8f8df8	0.01752375
246	0x3d3c3462	0.045948394
247	0x3a627c91	0.00086397777
248	0xbacec03e	-0.0015773845
249	0x3c82af9e	0.015952881
250	0x3c87dedd	0.016585762
251	0x3cf41386	0.029794466
252	0xbda9ef7d	-0.08297632
253	0x3c8dbde9	0.01730247
254	0xbddc716b	-0.1076382
255	0x3c669e6a	0.014075855

decoder.2.bias f4 [784]
0	0xbd58d01b	-0.05293284
1	0xbd82f8ea	-0.06395133
2	0xbda13606	-0.07871632
3	0x3c635fb8	0.013877802
4	0xbdadd737	-0.084883146
5	0xbc03ba72	-0.0080400575
6	0xbbf38da5	-0.007432657
7	0xbdca5946	-0.09880309
8	0xbdbef932	-0.09324874
9	0xbda4c7fc	-0.080459565
10	0x389b762e	7.4129886e-05
11	0x3b10ae6c	0.002207662
12	0xbba957ff	-0.0051679607
13	0x3c82519b	0.015908053
14	0xbdd07971	-0.10179413
15	0xbceef9df	-0.029171882
16	0xbd19498a	-0.037423648
17	0x3b92219c	0.004459573
18	0xbccad8fe	-0.024761673
19	0xbd04dace	-0.03243523
20	0xbd94109b	-0.0722973
21	0xbdaceb50	-0.0844332
22	0xbd8c24a4	-0.06842926
23	0xbd5d8c0e	-0.054088645
24	0xbd9ca019	-0.07647724
25	0xbdc4067b	-0.095715486
26	0xbdcdbfda	-0.100463584
27	0x3cd523ad	0.026017988
28	0x3c4b902c	0.01242451
29	0xbdac750a	-0.08420761
30	0xbdafd722	-0.08585955
31	0xbd191072	-0.0373692
32	0xbd0ca65c	-0.03433834
33	0xbd8f02d8	-0.06982964
34	0x3c075716	0.008260509
35	0x3c81e10a	0.015854377
36	0xbd8f6ba3	-0.07002952
37	0xbda066e3	-0.07832124
38	0xbda7757a	-0.08176704
39	0xbde17b7f	-0.11009883
40	0x3d0a23ec	0.033725664
41	0x3cc12cf0	0.023580998
42	0xbc377f9c	-0.011199858
43	0xbca155e2	-0.019694272
44	0xbd8903c8	-0.06690174
45	0xbd619b62	-0.055079825
46	0x3d1ac0a4	0.037781373
47	0xbdd1e75a	-0.10249205
48	0xbd8ff448	-0.07029015
49	0xbd5e07dc	-0.054206714
50	0x3d7b6c9f	0.061382886
51	0xbc92e3b1	-0.017930837
52	0xbd8f2fd6	-0.06991546
53	0xbd42c714	-0.047553137
54	0x3d1121fa	0.035432793
55	0x3cb7da7c	0.022443049
56	0x3c7d3338	0.015454106
57	0x3d13762b	0.036001366
58	0x3ce11bf5	0.027479151
59	0xbd6faaab	-0.05851237
60	0x3d14ab48	0.03629616
61	0xbdbfe807	-0.093704276
62	0xbd817d2e	-0.06322704
63	0x3d5fa7bb	0.05460332
64	0xbd0c2659	-0.03421626
65	0xbd928683	-0.07154562
66	0x3b8b3fe3	0.0042495592
67	0xbd7d8b9a	-0.061900713
68	0xbd63ac08	-0.055583984
69	0xbd82a6cd	-0.06379471
70	0x3ce9267d	0.028460735
71	0x3c35151d	0.011052397
72	0xbd251c11	-0.04030997
73	0x3d2b9e4b	0.041899007
74	0x3b886132	0.004161977
75	0xbd41a01f	-0.047271844
76	0xbdaf180d	-0.08549509
77	0xbdcae94e	-0.099077806
78	0x3ce5f0e4	0.028068967
79	0xbd892eac	-0.06698355
80	0xbdac4c9d	-0.0841305
81	0x3d1c9767	0.038230326
82	0x3d59ce92	0.053175516
83	0xbdcbf64d	-0.099590875
84	0xbd37e0fb	-0.044892292
85	0xbc17f17c	-0.009273883
86	0xbd89d109	-0.067293234
87	0xbdcd8d6f	-0.10036742
88	0x3ca1033f	0.019654868
89	0xbde326bf	-0.110913746
90	0x3bec05af	0.007202826
91	0xbd2bdeae	-0.04196041
92	0xbdd65055	-0.10464541
93	0x3d29c652	0.0414489
94	0xbd18e409	-0.037326846
95	0xbd1bf26d	-0.038072992
96	0xbc567403	-0.013089183
97	0xbd212ef6	-0.039351426
98	0xbc9a794a	-0.018856663
99	0x3d21fbec	0.039546892
100	0xbd79491d	-0.060860742
101	0x3d44453a	0.047917582
102	0xbd90d9e4	-0.07072809
103	0xbd7cd616	-0.061727606
104	0x3c9169b2	0.017750595
105	0xbd04465c	-0.032293662
106	0xbdc1ea55	-0.094685234
107	0xbdad79e3	-0.08470514
108	0xbd9897c2	-0.074508205
109	0x3c5af5c7	0.013364262
110	0xbc9ad50a	-0.018900413
111	0xbde15660	-0.11002803
112	0xbd8cdc70	-0.068779826
113	0xbd829a82	-0.06377126
114	0xbc8fc1fd	-0.017548556
115	0xbd89dfa7	-0.067321114
116	0xbcb5996e	-0.022167888
117	0x3d745f8c	0.059661433
118	0xbd5423f4	-0.0517921
119	0xbcb3a073	-0.021927094
120	0x3d4376d3	0.04772074
121	0xbd2b9a37	-0.041895118
122	0x3d83c04a	0.064331606
123	0x3d4b5b88	0.049647838
124	0xbd1e479a	-0.038642503
125	0xbdc4301f	-0.09579491
126	0xbd02c0b3	-0.031922054
127	0x3d11d86c	0.035606787
128	0x3c36f7cf	0.011167481
129	0xbcd3e9ff	-0.025868414
130	0xbdf409f4	-0.11915961
131	0xbccca5fe	-0.024981495
132	0x3d338acd	0.043833543
133	0x3cf48beb	0.029851874
134	0xbd0ebed5	-0.03484996
135	0xbd8a4a2d	-0.06752429
136	0x3c246a36	0.010035088
137	0xbd0e348e	-0.03471809
138	0x3bc81ef1	0.006107204
139	0xbcf1c082	-0.02951074
140	0x3d4852d7	0.048907127
141	0xbda08cc0	-0.07839346
142	0xbb434f1e	-0.0029801796
143	0xbd8994fb	-0.06717869
144	0x3cefe1ad	0.029282415
145	0x3d6e9322	0.058245786
146	0xbd8fd348	-0.070227206
147	0x3bfcf30a	0.007719402
148	0xbda84617	-0.082164936
149	0x3cc4923c	0.023995511
150	0xbdbdebe3	-0.092735074
151	0xbd6be3e0	-0.057590365
152	0xbe0f1e41	-0.13976385
153	0x3c92d34a	0.017923016
154	0xbddc5791	-0.107588895
155	0xbbffe3c8	-0.007809136
156	0xbde25a73	-0.11052408
157	0xbd4db7c3	-0.050224077
158	0xbdcc951b	-0.09989377
159	0xbe0c4de6	-0.13701591
160	0xbc51e0ff	-0.012809991
161	0x3abd666d	0.0014450081
162	0xbc8541ca	-0.016266722
163	0xbd365749	-0.044516835
164	0xbdaf8692	-0.08570589
165	0xbd9f0cf7	-0.07766145
166	0xbca3808a	-0.019958753
167	0xbd9c1d8f	-0.07622825
168	0xbd47a242	-0.048738725
169	0x3b2fb137	0.002680851
170	0xbc60f665	-0.01373062
171	0xbd931d1a	-0.07183285
172	0x3cbfdce5	0.02342076
173	0xbd2ade75	-0.041716058
174	0x3cbf1bb7	0.023328645
175	0x3d5277ec	0.051383898
176	0x3a922b6b	0.0011151856
177	0xbda470ea	-0.08029349
178	0xbcc3abf6	-0.023885708
179	0xbdbaf1db	-0.091281615
180	0xbd29c006	-0.041442893
181	0xbdc1f341	-0.09470225
182	0xbdd47417	-0.10373705
183	0xbe1b7b0a	-0.15183654
184	0xbd5d1360	-0.053973556
185	0xbe3b665a	-0.18300763
186	0xbd6c17a4	-0.057639733
187	0xbe2b8395	-0.16749413
188	0xbd9726ea	-0.07380469
189	0xbda9b5ee	-0.082866535
190	0xbcf4a402	-0.029863361
191	0xbdd370b6	-0.10324232
192	0x3c89bbbd	0.016813153
193	0xbd3d9e6d	-0.046293665
194	0x3cd48e1b	0.025946667
195	0xba30c67a	-0.00067434425
196	0xbc876805	-0.016529093
197	0x3d052485	0.03250553
198	0x3c195853	0.009359437
199	0xbc56bb8d	-0.013106239
200	0xbd67b07c	-0.056564793
201	0xbcc89517	-0.024485154
202	0xbd075854	-0.03304322
203	0xbdad0a82	-0.0844927
204	0xbd90a596	-0.07062833
205	0xbdebe96e	-0.115191326
206	0xbd0a446f	-0.03375667
207	0xbd7fa357	-0.062411632
208	0xbe236c78	-0.15959346
209	0xbdb6787a	-0.08909698
210	0xbdf70f49	-0.12063462
211	0xbdca775d	-0.09886048
212	0xbd910e1f	-0.070827715
213	0xbe30590b	-0.17221467
214	0xbe0bcadf	-0.13651608
215	0xbca5f92a	-0.020260412
216	0xbde173f0	-0.110084414
217	0xbc55ba8d	-0.013044965
218	0xbdfa67d6	-0.122268364
219	0x3d819c4c	0.063286394
220	0x3d6e45a6	0.05817189
221	0x3c895be4	0.01676745
222	0x3c16417d	0.009170887
223	0xbd3dbac7	-0.046320703
224	0xbd67c4dd	-0.056584228
225	0xbd302514	-0.04300411
226	0xbd607cb6	-0.054806434
227	0x3d62316c	0.055222914
228	0xbdd93ff5	-0.10607902
229	0xbc8e1e44	-0.017348416
230	0xbd2a674a	-0.04160241
231	0xbd8bb009	-0.068206854
232	0xbd965fb2	-0.07342471
233	0xbe039be6	-0.1285244
234	0xbdf5f6ae	-0.12009941
235	0xbd508034	-0.050903514
236	0xbe419a05	-0.1890641
237	0xbd623b4f	-0.055232342
238	0xbe4608a4	-0.19339234
239	0xbda5bc83	-0.080925964
240	0xbd4dafeb	-0.050216597
241	0xbd9aa500	-0.075510025
242	0xbe2532eb	-0.16132705
243	0xbdb4639b	-0.08808061
244	0xbe1dfded	-0.15428896
245	0xbe12cfb1	-0.1433704
246	0xbdc6406b	-0.096802555
247	0x3a9acf07	0.0011810967
248	0xbca4db95	-0.020124236
249	0x3d1d6261	0.0384239
250	0x3c443a32	0.0119767655
251	0xbd971fa6	-0.07379083
252	0xbcfd283a	-0.03090297
253	0xbd22f83c	-0.039787516
254	0xbdb2426a	-0.08704074
255	0xbd9c25db	-0.07624408
