autoencoder_mpi_pipelining/autoencoder_ddp.pth (torch, 404005 bytes, 2 tensors)

layer.0.weight f4 [128, 784]
0	0x3c94ecb7	0.01817928
1	0xbc19d293	-0.009388584
2	0xbc322c4e	-0.010874821
3	0x3c97021e	0.018433627
4	0xbbc5aba5	-0.0060324245
5	0xbc41b517	-0.01182296
6	0xbc524aea	-0.012835244
7	0xbb813c80	-0.0039439797
8	0xbcc916b5	-0.02454696
9	0x3c7991f8	0.015232556
10	0xbc78eb5c	-0.015192833
11	0x3cbf67ec	0.023364983
12	0xbba5db93	-0.0050615757
13	0xbca9edc0	-0.02074325
14	0xbd0465f3	-0.03232379
15	0x3c745805	0.014913564
16	0xbcaf023c	-0.02136337
17	0x3c7b8905	0.015352492
18	0xbc396ef7	-0.01131796
19	0xbcbce0b7	-0.023056371
20	0x3d0fea27	0.035135414
21	0xbcf6b351	-0.030114802
22	0x3c94b445	0.018152365
23	0x3a9fcc6e	0.0012191662
24	0xbcc02b3e	-0.02345812
25	0x3cd6ef81	0.026237251
26	0xbc02bcfc	-0.007979628
27	0x3c1697e0	0.009191483
28	0x3b3f60ee	0.0029202062
29	0x3d118733	0.035529327
30	0xbd112cba	-0.035443045
31	0xbcbd737e	-0.02312636
32	0xbcbfdf03	-0.02342177
33	0xbc3042b7	-0.010758094
34	0x3c42234a	0.011849234
35	0x3c75b9e5	0.014997934
36	0xbd02f6b3	-0.031973552
37	0x3affe5b8	0.0019523418
38	0x3c1fb913	0.009748715
39	0xbcdcc24c	-0.026948117
40	0x3cc4e6c1	0.024035813
41	0xbc5bcbdc	-0.013415303
42	0x3be2572e	0.0069073653
43	0x3cb5e0c5	0.022201905
44	0x3c767f33	0.015044975
45	0xbbac329c	-0.0052550565
46	0x3cd4332e	0.02590331
47	0xbd044beb	-0.032298964
48	0xbc516373	-0.012780058
49	0x3c71da78	0.01476156
50	0x3c364e53	0.011127072
51	0x3c2f0ed3	0.010684687
52	0x3b26966e	0.0025419253
53	0x3ce922ac	0.028458916
54	0xbc6e488e	-0.014543666
55	0x3cbfb621	0.023402276
56	0x39b84b6e	0.00035151414
57	0x3c63ddc1	0.013907851
58	0x3c20956a	0.009801248
59	0xbc009f60	-0.007850498
60	0xbbd2ec4a	-0.0064368593
61	0xbc0c8ba0	-0.008578211
62	0xbcbb7e5e	-0.022887405
63	0x3b3dc013	0.0028953596
64	0x3cd44d23	0.025915688
65	0x3c6f42e5	0.014603351
66	0xbc0ee880	-0.0087224245
67	0x3cdc334a	0.026879925
68	0x3bed59e5	0.0072433823
69	0xbc503593	-0.012708086
70	0x3c825af5	0.015912512
71	0x3c8e4260	0.017365634
72	0xbc9d9fae	-0.01924118
73	0xbc740461	-0.014893622
74	0xbcba8745	-0.02276958
75	0x3cee770e	0.029109504
76	0x3bdbcdd3	0.006707886
77	0xbce9bb2a	-0.02853163
78	0x3cb86fdc	0.022514276
79	0xbc9dc2a5	-0.019257853
80	0x3bfa8ee5	0.007646429
81	0xbc1f1bce	-0.009711219
82	0x3c2c125c	0.010502424
83	0x3c191873	0.009344208
84	0xbbe95bc1	-0.0071215336
85	0xbd0caf16	-0.034346662
86	0x3cad1eca	0.021132845
87	0xbd0849ae	-0.03327339
88	0x3b7e586e	0.0038810032
89	0x3ce32f15	0.027732411
90	0x3cd867d5	0.026416698
91	0x3ca5e427	0.020250393
92	0x3cfc6195	0.03080825
93	0x3ce45218	0.027871177
94	0x3c0fe037	0.008781484
95	0xbce2e80a	-0.027698535
96	0x3ca52f67	0.020164205
97	0xbc7fdf01	-0.015617133
98	0xbd119ef3	-0.035551976
99	0x3ccc3ece	0.024932291
100	0x3b182fb7	0.00232218
101	0x3c21b64e	0.009870125
102	0x3ce9d5e1	0.028544368
103	0xbc15c70a	-0.009141693
104	0x39e98401	0.00044539574
105	0x3c54beca	0.012984941
106	0xbcc90cb3	-0.024542188
107	0x3cc1e637	0.023669345
108	0xbc74cef3	-0.014941919
109	0x3cea693a	0.028614629
110	0x3cdeac18	0.02718167
111	0xbd094a4b	-0.033518117
112	0x3c506845	0.012720172
113	0x3cb96b0e	0.022634055
114	0xbbd261a5	-0.0064203315
115	0x3b22224a	0.0024739676
116	0x3d060713	0.03272159
117	0xbce9891c	-0.028507762
118	0xbc030ed7	-0.007999144
119	0xbced9f68	-0.029006675
120	0xb8d64493	-0.00010217088
121	0x3cd14145	0.025543818
122	0xbcf21338	-0.02955018
123	0x3bdb8c8a	0.006700103
124	0xbceb77f1	-0.028743716
125	0xbc9e335e	-0.019311603
126	0xbd01bfd8	-0.031677097
127	0xbc17b433	-0.009259271
128	0x3bdc2425	0.006718176
129	0x3cd4c083	0.025970703
130	0xbc952d47	-0.018210066
131	0xbc913a7a	-0.01772808
132	0xbbf58fae	-0.0074939346
133	0xbc5754bc	-0.013142761
134	0xbb11296e	-0.0022149938
135	0x3cfd0531	0.030886265
136	0x3c3ecf65	0.011646126
137	0x3c1f83ae	0.009735985
138	0xbca30fca	-0.01990499
139	0x3c8be507	0.017076982
140	0x3b246dca	0.0025089853
141	0xbcb5477e	-0.022128817
142	0xbcd59b6a	-0.026075084
143	0xbc9645e3	-0.018343871
144	0x3cb32bb3	0.021871423
145	0x3b1a85a5	0.0023578194
146	0xbcdd536e	-0.027017321
147	0x3c99f000	0.018791199
148	0xbbab5225	-0.0052282983
149	0x3cfcba8c	0.030850671
150	0xbc97abd5	-0.018514553
151	0x3cf24993	0.029576099
152	0x3cb511ea	0.022103269
153	0x3c73072a	0.014833251
154	0x3c55a817	0.013040564
155	0x3ca42595	0.020037452
156	0x3cb21cde	0.02174228
157	0xbca1eb9e	-0.019765671
158	0xbc83e1cc	-0.01609888
159	0xbcb724ec	-0.022356473
160	0x3ca12cae	0.019674625
161	0xbd0af282	-0.03392268
162	0x3cd45cf1	0.025923224
163	0xbd0c6f20	-0.034285665
164	0xbb70a801	-0.0036721232
165	0x3b21fda5	0.0024717834
166	0x3c5be6d3	0.013421732
167	0x3d0d11bb	0.034440737
168	0xbc1035e5	-0.008801912
169	0x3c821393	0.015878474
170	0x3c25882e	0.010103269
171	0xbc796a61	-0.015223117
172	0x3b4e476e	0.003147568
173	0xbbab884a	-0.005234753
174	0x3c568c81	0.013095022
175	0x3c830b87	0.015996708
176	0xbc665678	-0.014058702
177	0xbd0534d2	-0.032521077
178	0xbd052c70	-0.032513082
179	0x3cc1ffc1	0.023681523
180	0xbcfab98e	-0.030606057
181	0x3b562a13	0.0032678887
182	0xbc9f0ef0	-0.019416302
183	0xbc95e26e	-0.018296447
184	0x3b0576ca	0.0020364993
185	0x3c76c273	0.015061009
186	0xbc528e2e	-0.012851281
187	0x3c9925be	0.018694755
188	0x3c7c66ea	0.015405396
189	0xbc9c61c0	-0.01908958
190	0x3cbdcd75	0.023169259
191	0xbce438b8	-0.027859077
192	0xbca2aa33	-0.019856548
193	0xbcb70077	-0.022339089
194	0x3c26e75c	0.010186996
195	0xbcd261d1	-0.025681408
196	0xba58dcdc	-0.00082726567
197	0x3c7d786e	0.015470607
198	0xbc9b1a30	-0.018933386
199	0xba8e724a	-0.0010867801
200	0xbceb2615	-0.028704682
201	0xbd0988df	-0.033577796
202	0xbc88bd67	-0.016691877
203	0xbc65cf6a	-0.014026502
204	0xbc6475aa	-0.013944069
205	0x3c30deaa	0.010795275
206	0x3ca63e30	0.020293325
207	0xbc9661b5	-0.018357137
208	0x3cd99bf5	0.026563624
209	0x3c451cee	0.012030823
210	0xbcf28273	-0.029603219
211	0xbbc4d437	-0.0060067433
212	0xbc07d9d7	-0.008291683
213	0x3d0390a7	0.032120373
214	0xbc41a4bc	-0.011819061
215	0xbccb902a	-0.024849016
216	0xbc871b3e	-0.016492482
217	0xbcb6e4fa	-0.022325981
218	0xbc99da9c	-0.018780999
219	0xbd0ad968	-0.03389874
220	0xbc8ed2fe	-0.017434593
221	0x3be58d38	0.00700536
222	0xbb91b90a	-0.004447107
223	0x3c9f05f5	0.01941202
224	0xbc7f5c2e	-0.015585942
225	0xbcf4e268	-0.029893115
226	0xbcce61e3	-0.02519316
227	0x3c045185	0.008076076
228	0x3c89d0f0	0.016823262
229	0xbcf6daae	-0.030133571
230	0xbbf2e738	-0.0074128173
231	0x3cb84941	0.022495868
232	0x3cf3fdfc	0.029784195
233	0xbc7c0718	-0.015382551
234	0xbc8c9acc	-0.017163657
235	0xbc8b60b0	-0.017013878
236	0x3b6887ee	0.003548141
237	0xbcf926bc	-0.030413978
238	0xba6aacdc	-0.00089521497
239	0xbc8ac587	-0.016939892
240	0x3c27b3c0	0.010235727
241	0xbbb75bca	-0.005595659
242	0xbc49ec17	-0.012324355
243	0x3c6974b3	0.014249015
244	0xbb8684e5	-0.0041051977
245	0x3d078c44	0.033092752
246	0xbc487bf3	-0.012236583
247	0xbca7fc57	-0.020506067
248	0x3cbca5bc	0.023028247
249	0x3c1b978a	0.009496579
250	0xbccad015	-0.024757424
251	0xbd0e3040	-0.034713984
252	0xba8ada6e	-0.0010593662
253	0xbcc72c91	-0.024313243
254	0x3cfb35fe	0.030665394
255	0x3c3cd8a1	0.011526258

layer.0.bias f4 [128]
0	0x3c8ebeee	0.017425027
1	0x3d11b370	0.035571516
2	0xbc6a48a5	-0.014299546
3	0x3cffebba	0.031240333
4	0x3c7140fc	0.014724966
5	0x3c292b8e	0.010325326
6	0xbccce23e	-0.025010224
7	0xbc454ec1	-0.012042702
8	0x3b05ee4a	0.002043622
9	0x3c84a2ae	0.016190853
10	0xbcaa42c0	-0.020783782
11	0x3caa656a	0.020800311
12	0x3bc160ca	0.0059014307
13	0x3cca09a3	0.024662798
14	0xbcdb1e4c	-0.026747845
15	0x3bfcddf8	0.0077168904
16	0x3d1009a4	0.035165444
17	0x3ca4938e	0.02008989
18	0xbcdc698c	-0.026905797
19	0xbcdfc9ac	-0.027317844
20	0xbc225d65	-0.009909962
21	0x3ca6aa7c	0.020344965
22	0x3bfcd2c1	0.0077155535
23	0xbc36a4b7	-0.0111476695
24	0x3c0dfed7	0.008666716
25	0xbccec86e	-0.025242057
26	0xbb8e8bc0	-0.0043501556
27	0xbc37d1b7	-0.0112194335
28	0xbcb1b243	-0.021691447
29	0x39d256dc	0.00040119037
30	0x3d0e17f6	0.03469082
31	0xbcf30575	-0.029665688
32	0x3c333761	0.010938496
33	0xbd060dc4	-0.03272797
34	0xbc474cae	-0.012164278
35	0x3bb2c501	0.0054556136
36	0x3b44e35c	0.0030042743
37	0x3ce5e2ce	0.02806225
38	0xbc9ae11c	-0.018906169
39	0xbcf6afac	-0.030113064
40	0xbd08fbc5	-0.03344323
41	0xbabfbe4a	-0.0014628854
42	0x3c9c758a	0.019099016
43	0x3c5fc245	0.013657157
44	0xbd0b7994	-0.034051493
45	0xbcc1db21	-0.02366406
46	0x3bdaa0ca	0.0066719996
47	0x3a55196e	0.00081290945
48	0x3cd5af07	0.026084436
49	0xbc8d9200	-0.017281532
50	0xbd0afd54	-0.033933
51	0x3b1a3980	0.0023532808
52	0x3cc23b41	0.023709895
53	0xbc2706b7	-0.010194472
54	0xbca60d47	-0.020270003
55	0x3c3dd74e	0.011586977
56	0x3cbfebd1	0.023427876
57	0xbcd0ee41	-0.025504233
58	0x3cce5711	0.025188
59	0x3d0526db	0.03250776
60	0xbccd43d7	-0.025056763
61	0x3ca0151c	0.019541316
62	0x3cddc23e	0.027070161
63	0xbc695ff8	-0.014244072
64	0xbc98ac97	-0.018636985
65	0x3cc1ad8a	0.02364232
66	0x3c9a20de	0.0188145
67	0xbd039a5c	-0.03212963
68	0x3b7337b8	0.0037112068
69	0xbc21e5a0	-0.009881407
70	0xbd01380e	-0.0315476
71	0x3c98060e	0.018557575
72	0xbbde8db8	-0.0067917965
73	0x3d04275c	0.0322641
74	0xbcf9816a	-0.030457217
75	0x3c88ccd0	0.016699225
76	0xbc8047d0	-0.015659243
77	0xbc518a57	-0.01278933
78	0xba114800	-0.000554204
79	0xbb579f13	-0.0032901212
80	0xbc4eed05	-0.012629752
81	0x3a8b8f4a	0.0010647562
82	0xbcad7dcc	-0.021178149
83	0x3cc14ddc	0.023596697
84	0x3cbfc5f1	0.023409816
85	0x3c48f617	0.012265704
86	0xbce473fc	-0.027887337
87	0x3c1da1e0	0.009621114
88	0x3b3d7fca	0.002891528
89	0xbcca0b53	-0.024663603
90	0xbc8b4e43	-0.017005092
91	0x3d023ff4	0.03179927
92	0xbcf6e275	-0.03013728
93	0x3bd4fb01	0.0064996486
94	0xbc495f57	-0.012290797
95	0xbc00b620	-0.007855922
96	0x3c255f6a	0.010093549
97	0xbcc2f78e	-0.023799684
98	0x3cb8da3e	0.022565003
99	0xbd10322f	-0.03520411
100	0xbc458e8a	-0.01205791
101	0xbbb93241	-0.0056517427
102	0x39f7d893	0.00047272872
103	0x3b94e01c	0.0045433175
104	0xbab8dc01	-0.0014103652
105	0x3cd9f6ae	0.026606884
106	0x3cf03d35	0.02932606
107	0x3cd7bc03	0.026334768
108	0x3b9388a5	0.0045023733
109	0xbc4578ea	-0.012052754
110	0x3ca5840e	0.02020457
111	0xbd10a3af	-0.03531235
112	0x3d0721a4	0.032991067
113	0x3d03f36b	0.032214563
114	0xbb54b25c	-0.0032454943
115	0xbbbbbde5	-0.0057294243
116	0xbce3b5b1	-0.027796598
117	0x3ca3b0c7	0.019981755
118	0xbafc9a6e	-0.0019272098
119	0x3a3ba96e	0.0007158731
120	0xbcc2f553	-0.02379862
121	0x3c300aca	0.01074476
122	0x3d0918fe	0.0334711
123	0x3cf32aee	0.029683556
124	0xbc016e77	-0.007899872
125	0x3cc324fe	0.02382135
126	0xbc93b797	-0.018031878
127	0x3ca804fa	0.020510186
