autoencoder_mpi_pipelining/layer3.pth (torch, 406429 bytes, 2 tensors)

layer.0.weight f4 [784, 128]
0	0x3d1802d7	0.037112083
1	0xbf147a6c	-0.579993
2	0xbfbc5e77	-1.4716328
3	0xbf766cca	-0.9625975
4	0xbc485088	-0.012226231
5	0xbf9beac2	-1.2181017
6	0xbf582e59	-0.8444572
7	0xbfb4f1bb	-1.413627
8	0xbcb0d56b	-0.02158614
9	0xbf352906	-0.7076572
10	0xbfb55efa	-1.416961
11	0xbf4778f1	-0.77918917
12	0xbf91d658	-1.1393538
13	0xbfbca8c4	-1.4739003
14	0xbfb113e8	-1.38342
15	0xbdd926f0	-0.1060313
16	0xbfb9c44d	-1.4513031
17	0xbfa7aeb1	-1.3100187
18	0x3d3fa3bb	0.046787005
19	0xbf0fc55f	-0.5616054
20	0xbd2d24d0	-0.042271435
21	0x3c34890f	0.011019005
22	0xbf8be37f	-1.0928801
23	0xbfa50eca	-1.2895138
24	0xbfb41016	-1.4067409
25	0xbf2b888c	-0.6700523
26	0xbfb45a20	-1.4090004
27	0xbfc329f3	-1.5247177
28	0xbfc01890	-1.5007496
29	0xbfb155e7	-1.385434
30	0xbf052cca	-0.5202147
31	0xbfb09f0d	-1.3798538
32	0xbf8a608e	-1.0810716
33	0xbfb29bdc	-1.3953815
34	0xbfa5e61e	-1.2960851
35	0xbfa83cdd	-1.3143574
36	0xbf9f9e34	-1.2470155
37	0xbf6ae133	-0.91749877
38	0xbf7229ad	-0.9459484
39	0xbeca5c29	-0.39523438
40	0xbd9c9ca4	-0.07647064
41	0xbf36b2fd	-0.71366864
42	0x3d9017e9	0.070358105
43	0xbfa46480	-1.284317
44	0xbf0dd63c	-0.5540502
45	0xbfba8c57	-1.4574078
46	0xbfb9b3c8	-1.450799
47	0xbfb85d37	-1.4403447
48	0xbfa86393	-1.3155388
49	0xbf59e47a	-0.8511425
50	0x3d2b0177	0.041749444
51	0x3d8a0e95	0.067410626
52	0xbfb2640c	-1.3936782
53	0xbe20975c	-0.15682739
54	0xbfb7d706	-1.4362495
55	0xbf53003d	-0.8242224
56	0xbda4a671	-0.08039559
57	0xbf85778d	-1.0427109
58	0xbfa123f6	-1.25891
59	0xbfbc67d8	-1.4719191
60	0x3cc86455	0.024461905
61	0xbfa45f75	-1.2841631
62	0xbfafab8f	-1.372423
63	0xbe48b0ae	-0.19598648
64	0xbfbb46ea	-1.4631016
65	0xbe08a36a	-0.13343588
66	0x3d30fb0a	0.04320816
67	0xbf1a8bad	-0.6036938
68	0xbfa2d65a	-1.2721665
69	0xbe71396d	-0.23557062
70	0xbf918e07	-1.1371468
71	0xbfaaffff	-1.3359374
72	0xbfb675ed	-1.4254738
73	0xbfb0fae3	-1.3826565
74	0xbfaed737	-1.3659428
75	0xbf10d4fd	-0.56574994
76	0xbfb7103b	-1.4301828
77	0x3b88a338	0.004169848
78	0xbf9a99ca	-1.2078183
79	0xbf4f7825	-0.810427
80	0xbfac301b	-1.3452181
81	0xbfaa2e9f	-1.3295478
82	0xbcf45e42	-0.029830102
83	0xbf928d70	-1.1449413
84	0xbeac3ec4	-0.33641636
85	0xbf720a8b	-0.9454734
86	0xbfb62d1f	-1.423252
87	0xbfaec8e4	-1.3655057
88	0xbe4716f5	-0.19442351
89	0xbf9fdd49	-1.2489406
90	0xbfb49f78	-1.4111166
91	0xbfb7149e	-1.4303167
92	0xbf95ccf0	-1.1703167
93	0xbfba8ed2	-1.4574835
94	0xbfa6475e	-1.299053
95	0xbdb23d84	-0.087031394
96	0xbeabb1f3	-0.33534202
97	0xbfbec4b6	-1.4903781
98	0xbf6facf9	-0.9362331
99	0xbfbc651d	-1.4718357
100	0xbfa7da83	-1.311356
101	0x3c6740a8	0.014114536
102	0xbfb0e2c0	-1.3819199
103	0xbd4ff6e3	-0.05077256
104	0x3c0584f7	0.008149377
105	0xbfa8e301	-1.3194276
106	0xbfc2a593	-1.5206779
107	0xbfa34870	-1.2756481
108	0xbf470330	-0.7773924
109	0xbfb1a830	-1.3879452
110	0xbfaa3084	-1.3296056
111	0xbdad9466	-0.084755704
112	0xbfa2537a	-1.2681725
113	0xbfb9f752	-1.4528601
114	0xbc7330f5	-0.014843215
115	0xbda47078	-0.08029264
116	0xbfb508d0	-1.4143314
117	0xbfb161e7	-1.3858002
118	0xbfa5a729	-1.2941638
119	0xbd16dd5d	-0.036832202
120	0xbfb7b689	-1.435258
121	0xbfad05e2	-1.351742
122	0xbf93cbd8	-1.1546583
123	0xbfc31226	-1.5239913
124	0xbf544da9	-0.82931
125	0xbf6c0fd3	-0.92211646
126	0xbf2e4435	-0.68072826
127	0xbfa709e1	-1.304989
128	0xbd8df735	-0.069319166
129	0xbf0bca16	-0.54605234
130	0xbfc404c8	-1.5313959
131	0xbf7b1367	-0.9807648
132	0x3bedddbd	0.0072590993
133	0xbf9d04bf	-1.2267073
134	0xbf49caa8	-0.78824854
135	0xbfb430f6	-1.4077442
136	0x3c04cd40	0.008105576
137	0xbf5d2ad3	-0.8639347
138	0xbfb33ba3	-1.4002575
139	0xbf5612ee	-0.83622634
140	0xbf967737	-1.1755131
141	0xbfc26493	-1.5186943
142	0xbfa41b11	-1.282076
143	0xbd04a3f8	-0.032382935
144	0xbfb0d219	-1.3814117
145	0xbfb8bd53	-1.4432777
146	0xbdaee50b	-0.0853978
147	0xbf20d22a	-0.62820685
148	0x3d84075f	0.064467184
149	0xbde44b2d	-0.11147151
150	0xbf8d31ed	-1.1030861
151	0xbf9f3b26	-1.2439926
152	0xbfafef89	-1.3744975
153	0xbf30bc11	-0.69036967
154	0xbfb68632	-1.4259703
155	0xbfb30de7	-1.3988618
156	0xbfc1175f	-1.5085257
157	0xbfb70e60	-1.4301262
158	0xbef93904	-0.48676312
159	0xbfbb3737	-1.4626225
160	0xbf8771ad	-1.0581566
161	0xbfb106e0	-1.3830223
162	0xbfaf29f5	-1.3684679
163	0xbfa595a1	-1.2936288
164	0xbf9c0244	-1.2188191
165	0xbf4fa01f	-0.811037
166	0xbf7c5585	-0.9856799
167	0xbec9e3e0	-0.39431667
168	0x3c65bb95	0.014021774
169	0xbf376157	-0.71632904
170	0x3a6c9029	0.0009024167
171	0xbfacfcd2	-1.3514655
172	0xbf1d1a52	-0.61368287
173	0xbfb083ea	-1.3790257
174	0xbfa870b3	-1.3159393
175	0xbfaaff1e	-1.3359106
176	0xbfad13bf	-1.3521651
177	0xbf4a0708	-0.7891698
178	0x3aadcdfd	0.0013260242
179	0x3d5cedfb	0.053937893
180	0xbfafca9a	-1.3733704
181	0xbe3eee2c	-0.18645543
182	0xbfbfdb06	-1.4988716
183	0xbf77735b	-0.96660393
184	0xbd570d33	-0.052502822
185	0xbf79eab9	-0.97623783
186	0xbfa336e4	-1.2751126
187	0xbfb8d95c	-1.4441333
188	0x3d34aa6e	0.044107847
189	0xbfaf43ce	-1.3692567
190	0xbfb18e0d	-1.3871475
191	0xbe8dcd5d	-0.27695742
192	0xbfbf0e98	-1.4926329
193	0xbe315a10	-0.17319512
194	0xbd0fcb23	-0.035105836
195	0xbf0c2883	-0.54749316
196	0xbfa1a650	-1.262888
197	0xbe7eba9a	-0.2487587
198	0xbf910be6	-1.1331756
199	0xbfa37b1b	-1.2771944
200	0xbfb44728	-1.4084215
201	0xbfa97cc0	-1.3241196
202	0xbfb6258a	-1.4230206
203	0xbf233734	-0.6375611
204	0xbfae8fc4	-1.3637624
205	0xbdc3774f	-0.09544241
206	0xbf989436	-1.192023
207	0xbf4cd57b	-0.80013245
208	0xbfb23ba4	-1.3924451
209	0xbfab6614	-1.3390527
210	0xbd9db947	-0.077013545
211	0xbf9c9fa4	-1.2236218
212	0xbea93094	-0.33044875
213	0xbf741d71	-0.95357424
214	0xbfae96b2	-1.3639739
215	0xbfb224eb	-1.3917516
216	0xbe16092f	-0.14651941
217	0xbfa13503	-1.2594303
218	0xbfc19a4f	-1.5125216
219	0xbfb78267	-1.4336671
220	0xbf896273	-1.0733169
221	0xbfb0873f	-1.3791274
222	0xbfb0e556	-1.3819988
223	0xbbd24974	-0.0064174477
224	0xbeb5c4e0	-0.35501766
225	0xbfb86dcd	-1.4408509
226	0xbf765a37	-0.96231407
227	0xbfbe1c79	-1.4852439
228	0xbfa9a297	-1.3252743
229	0x3dae3c5f	0.085076086
230	0xbfbc25ab	-1.4698995
231	0xbb564bd1	-0.0032698999
232	0x3d0956da	0.033530094
233	0xbfba69ba	-1.4563515
234	0xbfc4f914	-1.5388513
235	0xbfa6b9b9	-1.3025428
236	0xbf337a5e	-0.7010859
237	0xbfbbb792	-1.4665396
238	0xbfb21e35	-1.3915468
239	0x3c82ba9d	0.015958125
240	0xbf951b8f	-1.1649035
241	0xbfc4ad43	-1.5365375
242	0xbdc990b2	-0.098420516
243	0x3d209818	0.039207548
244	0xbfb9f8ee	-1.4529092
245	0xbfb310a6	-1.3989456
246	0xbfa310aa	-1.273946
247	0x3d54fd6f	0.051999506
248	0xbfb3c4a9	-1.4044391
249	0xbfac88bd	-1.3479229
250	0xbf8b4f76	-1.0883625
251	0xbfc3e2ca	-1.5303586
252	0xbf58288b	-0.84436864
253	0xbf5b9bcb	-0.85784596
254	0xbf383150	-0.71950245
255	0xbfafc846	-1.3732994

layer.0.bias f4 [784]
0	0xbfb6a5f3	-1.4269394
1	0xbfb2d72a	-1.3971913
2	0xbfb677d0	-1.4255314
3	0xbfb61e26	-1.422795
4	0xbfbd9458	-1.4810896
5	0xbfc07b91	-1.503771
6	0xbfbbcc56	-1.4671733
7	0xbfc4666b	-1.5343755
8	0xbfc0cbe4	-1.5062222
9	0xbfbf707e	-1.4956205
10	0xbfb95878	-1.4480124
11	0xbfb673c7	-1.4254082
12	0xbfbc7eb4	-1.4726167
13	0xbfbf3f88	-1.4941263
14	0xbfc21c7d	-1.5164944
15	0xbfb49166	-1.4106872
16	0xbfbc469b	-1.4709047
17	0xbfbaa02f	-1.4580134
18	0xbfbb74fe	-1.4645078
19	0xbfb4fda8	-1.413991
20	0xbfb5f32a	-1.4214833
21	0xbfb5812b	-1.4180044
22	0xbfb455e2	-1.4088709
23	0xbfba54a2	-1.4557078
24	0xbfc4e1ac	-1.538137
25	0xbfb6242c	-1.4229789
26	0xbfbca8bb	-1.4738992
27	0xbfbcd17f	-1.4751433
28	0xbfc5725c	-1.5425525
29	0xbfc22207	-1.5166634
30	0xbfc57771	-1.5427076
31	0xbfbc85c8	-1.4728327
32	0xbfbe508e	-1.4868333
33	0xbfbe6873	-1.4875625
34	0xbfb49965	-1.4109312
35	0xbfc0738b	-1.5035261
36	0xbfb41608	-1.4069223
37	0xbfbe13fc	-1.4849849
38	0xbfba883e	-1.4572828
39	0xbfb7b370	-1.4351635
40	0xbfb2826a	-1.3946049
41	0xbfb71df0	-1.4306011
42	0xbfbe5fc9	-1.4872981
43	0xbfc34cf0	-1.5257854
44	0xbfbcff32	-1.476538
45	0xbfc1f72c	-1.5153556
46	0xbfb2b223	-1.3960613
47	0xbfba5f5c	-1.4560351
48	0xbfb849f0	-1.4397564
49	0xbfb2e938	-1.3977423
50	0xbfc08b85	-1.5042578
51	0xbfbb3c9f	-1.4627875
52	0xbfc28bb0	-1.5198879
53	0xbfb2b2fd	-1.3960873
54	0xbfc334ac	-1.5250449
55	0xbfc1b5c2	-1.5133593
56	0xbfb2e6dc	-1.3976703
57	0xbfbd1395	-1.4771601
58	0xbfb508ee	-1.414335
59	0xbfc54632	-1.5412047
60	0xbfc4905d	-1.5356556
61	0xbfbae570	-1.4601269
62	0xbfb703b1	-1.4298002
63	0xbfb3ca13	-1.4046043
64	0xbfc11d96	-1.5087154
65	0xbfb87e2b	-1.4413503
66	0xbfb08ebd	-1.379356
67	0xbfae32c4	-1.3609242
68	0xbfa797a1	-1.3093148
69	0xbf9b22ee	-1.2120035
70	0xbf919353	-1.1373085
71	0xbf8da047	-1.1064538
72	0xbf83eaf2	-1.0306075
73	0xbf8b4dfa	-1.0883172
74	0xbf949835	-1.160895
75	0xbf97d44e	-1.1861665
76	0xbfb21974	-1.3914018
77	0xbfbb2e5d	-1.4623524
78	0xbfb5e858	-1.4211531
79	0xbfb7443d	-1.43177
80	0xbfc06866	-1.503186
81	0xbfb63ce0	-1.4237328
82	0xbfb3d3e5	-1.404904
83	0xbfbb8be5	-1.4652067
84	0xbfb68c98	-1.4261656
85	0xbfc1fa78	-1.5154562
86	0xbfb89fd1	-1.4423772
87	0xbfb44e2d	-1.4086357
88	0xbfc55f42	-1.5419695
89	0xbfc2b058	-1.5210066
90	0xbfc1d278	-1.5142355
91	0xbfb65b7d	-1.424667
92	0xbfb36fee	-1.4018533
93	0xbfa21701	-1.266327
94	0xbf8c2571	-1.0948926
95	0xbf82f33b	-1.0230478
96	0xbf5c0cb6	-0.85956895
97	0xbf6b3afc	-0.9188688
98	0xbf4cfa90	-0.8006983
99	0xbf495b43	-0.7865488
100	0xbf4356da	-0.763044
101	0xbf52b4c8	-0.823071
102	0xbf6d81e0	-0.927763
103	0xbf7361d6	-0.9507116
104	0xbf8c5896	-1.0964534
105	0xbf9c5398	-1.2213011
106	0xbfa5e6a2	-1.2961009
107	0xbfb05428	-1.3775682
108	0xbfb8a408	-1.4425058
109	0xbfbc6a36	-1.4719913
110	0xbfb32bf1	-1.3997785
111	0xbfb5a2f6	-1.4190357
112	0xbfbea664	-1.4894528
113	0xbfbd8e02	-1.4808962
114	0xbfba0690	-1.4533253
115	0xbfbff64e	-1.4997041
116	0xbfbcdb69	-1.4754459
117	0xbfb74016	-1.4316432
118	0xbfaa0da5	-1.3285414
119	0xbf9a9e37	-1.2079533
120	0xbf8e5cb5	-1.1122042
121	0xbf5fb666	-0.8738769
122	0xbf5c25ef	-0.8599538
123	0xbf309752	-0.68980896
124	0xbf2456c3	-0.6419489
125	0xbeff122d	-0.49818555
126	0xbeeb187e	-0.45917124
127	0xbed9950d	-0.4249653
128	0xbef94bbb	-0.4869059
129	0xbf08d245	-0.53445846
130	0xbf23bce4	-0.639601
131	0xbf2a5f13	-0.6655132
132	0xbf5545f7	-0.8330988
133	0xbf54264f	-0.82870954
134	0xbf8a7a80	-1.0818634
135	0xbf979014	-1.1840844
136	0xbfae5625	-1.3620039
137	0xbfb751fb	-1.4321893
138	0xbfc1d0b8	-1.5141821
139	0xbfc0a40c	-1.5050063
140	0xbfc32f96	-1.5248897
141	0xbfbf4d36	-1.4945438
142	0xbfb826e9	-1.4386874
143	0xbfbf49a7	-1.4944352
144	0xbfb27b3e	-1.394386
145	0xbfaff033	-1.3745178
146	0xbf8ed3ef	-1.1158427
147	0xbf71247d	-0.941963
148	0xbf4de15e	-0.8042201
149	0xbf3552d3	-0.70829505
150	0xbf047578	-0.51741743
151	0xbeefff8d	-0.46874657
152	0xbeb264a4	-0.34842408
153	0xbe78379a	-0.2423996
154	0xbe40d296	-0.18830332
155	0xbe695cab	-0.22789256
156	0xbe767b9a	-0.24070588
157	0xbe73159e	-0.23738715
158	0xbeb22baf	-0.34798953
159	0xbef6130e	-0.48061413
160	0xbf064be6	-0.5245956
161	0xbf235ead	-0.6381634
162	0xbf57e31c	-0.84330916
163	0xbf7b7757	-0.98228973
164	0xbf980295	-1.1875788
165	0xbfa921f8	-1.3213491
166	0xbfb96ab8	-1.4485693
167	0xbfbc6a5c	-1.4719958
168	0xbfc59ea0	-1.5439034
169	0xbfc39735	-1.528052
170	0xbfb2ce34	-1.3969178
171	0xbfb13e96	-1.3847225
172	0xbfacc4d7	-1.3497571
173	0xbf91c224	-1.1387372
174	0xbf6518ba	-0.89490855
175	0xbf3d0179	-0.7383037
176	0xbf26ea08	-0.65200853
177	0xbf00db93	-0.50335044
178	0xbeae33ca	-0.34023887
179	0xbe92984b	-0.28631815
180	0xbe54d147	-0.20782958
181	0xbdc4d1fe	-0.09610365
182	0xbd33805c	-0.043823585
183	0x3c3598e2	0.011083813
184	0x3c81cb06	0.01584388
185	0xbdc08c86	-0.09401803
186	0xbe1cb5ec	-0.15303773
187	0xbea6725e	-0.3250913
188	0xbee80d9d	-0.45322886
189	0xbf0029ae	-0.500636
190	0xbf27ec1b	-0.65594643
191	0xbf50d9eb	-0.81582516
192	0xbf80e80a	-1.0070813
193	0xbf9b309a	-1.2124207
194	0xbfb6ad2a	-1.4271595
195	0xbfbb8f12	-1.4653037
196	0xbfb451ea	-1.4087498
197	0xbfc168d8	-1.5110121
198	0xbfb0b540	-1.3805313
199	0xbfb7f607	-1.4371957
200	0xbfa0e12c	-1.2568717
201	0xbf74a744	-0.9556773
202	0xbf3f3772	-0.7469398
203	0xbf1bb961	-0.6082974
204	0xbf047699	-0.51743466
205	0xbec95815	-0.39325014
206	0xbea9ce07	-0.33165
207	0xbe0c665b	-0.1371092
208	0xbe12daa7	-0.14341222
209	0xbd183c92	-0.03716714
210	0xbcfa3a36	-0.030545335
211	0x3d7c57f7	0.061607327
212	0xbcf809c0	-0.030278087
213	0x3d1c4be2	0.038158305
214	0xbd299d06	-0.041409515
215	0xbe38748d	-0.1801321
216	0xbeb229a9	-0.3479741
217	0xbee6bb4c	-0.4506477
218	0xbf21b621	-0.6316853
219	0xbf403bd9	-0.7509132
220	0xbf6dd7b7	-0.9290728
221	0xbf9d3854	-1.2282815
222	0xbfae07e3	-1.3596157
223	0xbfc11d38	-1.5087042
224	0xbfc1e008	-1.5146494
225	0xbfb9d6fc	-1.4518733
226	0xbfba1632	-1.4538023
227	0xbfa46ab4	-1.2845063
228	0xbf8f7ffa	-1.121093
229	0xbf65746c	-0.8963077
230	0xbf38af77	-0.7214274
231	0xbf15a35a	-0.5845238
232	0xbf034e10	-0.5129099
233	0xbe88c3bf	-0.26711842
234	0xbe515a26	-0.20444545
235	0xbda3e2d2	-0.08002247
236	0xbcd07921	-0.025448384
237	0x3b32c4f6	0.0027278042
238	0xbc4060a8	-0.011741795
239	0xbc161b6e	-0.009161813
240	0x3b212da2	0.002459385
241	0xbcfa7c49	-0.030576842
242	0xbdfbf6a8	-0.12302905
243	0xbe31e153	-0.1737111
244	0xbe8f7891	-0.28021672
245	0xbedf1cf3	-0.43576774
246	0xbf0e1b56	-0.5551046
247	0xbf472412	-0.77789414
248	0xbf6972ca	-0.9119078
249	0xbf9fef58	-1.2494917
250	0xbfafdd9f	-1.3739508
251	0xbfb7e522	-1.4366801
252	0xbfb6dd8e	-1.4286363
253	0xbfb2179f	-1.3913459
254	0xbfb212b0	-1.3911953
255	0xbfa185ad	-1.261892
