autoencoder_mpi_pipelining/layer3.pth (torch, 807773 bytes, 2 tensors)

layer.0.weight f4 [784, 256]
0.05349907 -0.050989993 0.02646108 0.04453419 -0.035677977 -0.021491129 -0.016060667 -0.028122874
-0.05132746 0.0450159 -0.0041945917 0.035531633 0.06286871 -0.044529364 -0.05391685 -0.0258151
-0.018359175 0.017407969 0.020789517 0.020778969 -0.035768386 0.026973601 -0.013658653 -0.012129581
0.038046725 0.06280342 0.023773193 -0.033976503 0.00062577095 -0.03143608 0.012679525 0.063310094
0.028543077 -0.006905228 -0.03936536 -0.047261786 -0.06512428 -0.052146517 0.047774322 -0.01042565
0.0014602788 -0.0044536456 0.04664818 0.034922943 -0.015606851 0.023330044 -0.055450857 0.05504434
-0.0081242295 0.009087444 -0.061998278 0.05545847 0.027873741 0.053278122 0.03541401 -0.031646654
0.056454048 0.035159346 -0.010683233 -0.010116211 -0.0061302856 -0.034919366 -0.048856962 -0.025822796
-0.04245376 -0.04174926 0.033854183 0.018800534 0.006095023 0.023635177 -0.052785005 0.048314348
0.0275866 -0.020790992 -0.022146711 -0.020007955 0.00044834614 -0.019700892 -0.037857193 0.009493107
0.04643701 0.050330162 0.0041405414 -0.044209257 -0.058429647 -0.022019567 0.046777118 -0.05418961
0.03477487 0.020201676 -0.03513129 0.03442885 0.015037195 0.055785913 -0.0650727 -0.0027839206
0.041436158 -0.062245525 0.055129893 0.057486687 -0.033930164 0.04964143 0.012335072 0.02263941
0.062375143 0.05368144 -0.038194593 -0.07686264 -0.031840593 0.026116425 -0.022705227 -0.056487396
0.026886113 -0.037276577 0.04023314 0.012927031 -0.027686141 -0.052162774 -0.051597834 0.046768054
0.04916209 0.043044746 -0.025197746 0.046964444 -0.050449137 -0.02729827 0.014342745 -0.02059279
0.019433526 -0.049426492 0.02372332 0.015118059 0.027532764 0.023359492 -0.051290754 0.072270416
-0.033306018 -0.061193213 -0.035753723 -0.0447702 -0.046585735 0.0370166 -0.023298671 -0.0038247318
0.03325132 -0.024017304 0.04583043 0.032110468 0.056207225 -0.01972971 -0.02431953 0.0124884825
-0.022519825 0.057026435 0.0009188466 0.051763963 -0.0127272075 0.048136387 -0.03913712 0.07039193
-0.019419529 -0.057169173 -0.045339424 0.05408856 -0.008710858 -0.017282372 -0.009781097 -0.040207397
0.047589377 -0.039992426 0.043001052 -0.040267907 0.03727446 0.031005464 0.048306156 -0.012399796
0.0014273435 -0.016159818 -0.040543236 0.051657654 -0.038306326 0.047424287 0.034229323 -0.04217143
-0.037096523 0.029637458 -0.053817622 -0.016915007 -0.037178256 0.028395837 -0.014240058 -0.025769364
0.005557458 0.03921422 0.021040604 -0.05219975 -0.033964943 0.018756272 0.04343919 -0.060973004
-0.034158476 0.020390145 -0.0051492047 -0.038361277 0.046169378 -0.0036404685 0.06056296 -0.012401387
0.023645151 -0.041334342 0.07843036 -0.027276816 0.04398506 -0.045258306 0.042607594 -0.0236917
0.03767586 -0.014546901 -0.012378595 0.028422954 0.027380751 0.03826762 0.0071294 0.049070258
0.04785325 0.00817993 0.023968952 -0.010184633 -0.036466517 0.010823788 -0.015324975 -0.0009668023
0.03205004 0.029619211 -0.039778568 -0.00095902657 0.0057889274 -0.00051907974 0.02593165 -0.05528953
-0.016700627 0.0079699475 -0.017119907 0.03487118 -0.049732376 0.040581733 -0.03505292 -0.016137214
0.037705503 -0.037655253 -0.016359564 0.03309006 -0.042594846 0.03406523 0.057388913 -0.037377156
00000000: d721 5b3d e2da 50bd e8c4 d83c 7c69 363d
00000010: 1223 12bd 2a0e b0bc a991 83bc f161 e6bc
00000020: be3c 52bd 9862 383d c972 89bb 9e89 113d
00000030: 4fc1 803d 6c64 36bd ead7 5cbd 307a d3bc
00000040: fb65 96bc 289b 8e3c c74e aa3c a838 aa3c
00000050: df81 12bd bef7 dc3c 8bc8 5fbc 26bb 46bc
00000060: e2d6 1b3d 149f 803d 00c0 c23c f22a 0bbd
00000070: c70a 243a 1ec3 00bd c8bd 4f3c b9a8 813d
00000080: 2cd3 e93c 4045 e2bb 923d 21bd 9395 41bd
00000090: e15f 85bd 9697 55bd 02af 433d 58d0 2abc
000000a0: d366 bf3a e3ef 91bb 2912 3f3d 5c0b 0f3d
000000b0: e1b3 7fbc a61e bf3c 7020 63bd 2d76 613d
000000c0: 7d1b 05bc 81e3 143c e8f1 7dbd 6c28 633d
000000d0: 7957 e43c 293a 5a3d 480e 113d ec9f 01bd
000000e0: 5c3c 673d 3f03 103d ba08 2fbc 77be 25bc
000000f0: 90e0 c8bb 9c07 0fbd 3d1e 48bd 548a d3bc
00000100: fee3 2dbd 4601 2bbd afaa 0a3d 9403 9a3c
00000110: c2b8 c73b 8f9e c13c 1735 58bd 44e5 453d
00000120: 4bfd e13c df51 aabc 056d b5bc b9e7 a3bc
00000130: 0010 eb39 c463 a1bc 2510 1bbd fa88 1b3c
00000140: bc34 3e3d 0027 4e3d 61ad 873b c414 35bd
00000150: ed53 6fbd 6162 b4bc 5d99 3f3d edf5 5dbd
00000160: 1870 0e3d fc7d a53c d4e5 0fbd 4405 0d3d
00000170: 915e 763c c57f 643d d644 85bd 7072 36bb
00000180: f6b8 293d 2af5 7ebd e2cf 613d 2977 6b3d
00000190: 5bfa 0abd d054 4b3d 0b19 4a3c 4976 b93c
000001a0: 147d 7f3d 12e1 5b3d ef71 1cbd 296a 9dbd
000001b0: 486b 02bd 1df2 d53c 5000 babc 545f 67bd
000001c0: 4440 dc3c 53af 18bd 81cb 243d e6cb 533c
000001d0: 0cce e2bc a2a8 55bd 4058 53bd dc8f 3f3d
000001e0: 305e 493d b04f 303d 816b cebc ca5d 403d
000001f0: c1a3 4ebd 9fa0 dfbc d5fd 6a3c 36b2 a8bc
00000200: 0f33 9f3c 6f73 4abd 6857 c23c bcb1 773c
00000210: 648c e13c 685c bf3c 4116 52bd 8302 943d
00000220: e46b 08bd bca5 7abd 7f72 12bd f560 37bd
00000230: afd0 3ebd b89e 173d dbdc bebc 5aa8 7abb
00000240: 8932 083d f0bf c4bc b0b8 3b3d 4486 033d
00000250: 8c39 663d 33a0 a1bc c039 c7bc 7e9c 4c3c
00000260: 7f7b b8bc 8d94 693d c0de 703a 7306 543d
00000270: c785 50bc a92a 453d 3f4e 20bd a529 903d
00000280: b415 9fbc 392a 6abd d5b5 39bd f78b 5d3d
00000290: fdb7 0ebc c393 8dbc e540 20bc 83b0 24bd
000002a0: 14ed 423d 19cf 23bd df21 303d f6ef 24bd
000002b0: 1bad 183d 2cff fd3c addc 453d 8428 4bbc
000002c0: b315 bb3a 9861 84bc aa10 26bd fa96 533d
000002d0: 18e7 1cbd f83f 423d 0c34 0c3d f3bb 2cbd
000002e0: 86f2 17bd 41ca f23c de6f 5cbd 5791 8abc
000002f0: 3a48 18bd 639e e83c 224f 69bc 461a d3bc
00000300: 561b b63b 179f 203d 585d ac3c 68cf 55bd
00000310: d31e 0bbd c1a6 993c 4bed 313d d4be 79bd
00000320: c2e9 0bbd 3c09 a73c a9ba a8bb b720 1dbd
00000330: 1a1c 3d3d ed94 6ebb de10 783d 302f 4bbc
00000340: 7ab3 c13c 334e 29bd 19a0 a03d a173 dfbc
00000350: ae29 343d c660 39bd 4d85 2e3d 1915 c2bc
00000360: 0152 1a3d 2056 6ebc 97cf 4abc 41d7 e83c
00000370: 994d e03c 82be 1c3d be9d e93b e5fd 483d
00000380: c501 443d 1d05 063c 895a c43c 72dd 26bc
00000390: ea5d 15bd 4256 313c 9b15 7bbc 0171 7dba
000003a0: e746 033d fda3 f23c daee 22bd 2f67 7bba
000003b0: 0bb1 bd3b da12 08ba 9d6e d43c 4677 62bd
000003c0: c1cf 88bc 6294 023c 0c3f 8cbc 15d5 0e3d
000003d0: 2db4 4bbd 0839 263d a793 0fbd 3132 84bc
000003e0: 1671 1a3d 653c 1abd 7e04 86bc 7189 073d
000003f0: ef77 2ebd fc87 0b3d a310 6b3d ca18 19bd

layer.0.bias f4 [784]
-0.0032146096 0.037014343 -0.010399369 0.042530373 0.05299417 -0.035742532 0.05357893 -0.012944814
-0.03135283 -0.042399332 0.053958464 -0.02504549 -0.01655056 -0.058892872 -0.006202944 0.057635084
-0.009177687 -0.0002408854 0.04975011 0.0073296484 0.03797923 -0.0076213395 -0.041806873 -0.017243862
-0.030921455 -0.029584974 -0.006837127 -0.002702209 0.03471434 0.036786832 0.055771865 -0.05053893
-0.05385567 0.0045061335 -0.007175365 -0.03357735 0.027877683 -0.041138485 -0.010680763 0.039013106
0.028605154 -0.041485175 0.04069625 0.031663537 0.011555744 0.0012772481 0.041288458 0.033165555
-0.041260555 -0.02446907 -0.041606743 0.0074510705 -0.004446032 0.0038257446 0.0012308772 -0.050388496
0.020079818 0.0022699372 0.004935218 0.03261584 0.0057278313 0.0013484875 0.048698068 -0.02804974
-0.025998875 0.03383864 0.009187543 0.036422756 0.011459174 -0.028186824 0.013418589 -0.011899931
0.046312477 0.0058402885 0.018682754 -0.0010909842 -0.0045670443 0.043499995 -0.037166495 -0.0030005933
0.042194955 -0.028077984 0.049038466 0.054915894 0.021994513 0.021780482 -0.020296646 0.042203337
-0.0053131822 0.04034486 -0.028023675 -0.011132044 0.024725014 -0.021949803 0.016446162 -0.008237982
-0.018816838 0.008038341 0.040926214 0.03355027 -0.0018728479 0.038511835 -0.021261469 -0.010875768
-0.0007620034 -0.02423093 -0.022397358 0.004626377 0.05194077 -0.031010648 0.021772694 0.01185464
0.036526732 -0.00857231 0.009713039 -0.017771026 -0.031778328 0.0032392326 0.04188703 -0.009975092
0.03529312 0.055858538 -0.017040916 -0.010003867 0.02475601 0.02046904 -0.00096221175 0.08948968
0.013562323 0.092011884 0.054314513 0.043936122 0.0050805113 -0.02707713 0.0072389157 0.008770808
0.029897269 0.02165949 0.03897572 0.014493761 -0.044736557 -0.04790266 -0.04737332 -0.054997146
0.039970312 0.013699171 -0.03175662 -0.009549171 0.013200791 0.053235844 0.041025084 0.08396115
0.044518743 0.12845086 0.09302813 0.13160737 0.1087748 0.08609441 0.10910514 0.054523345
0.016090175 0.0044594537 0.019273888 -0.005677596 0.02931337 -0.027697816 -0.02862164 -0.009020559
-0.026957603 0.015683768 -0.027906662 -0.028259693 0.004999523 -0.014475395 0.001573159 -0.013159986
0.013516204 -0.010367544 0.0124061005 0.110252365 0.07504203 0.13920282 0.115479566 0.14096363
0.10362351 0.13473031 0.14099042 0.073486865 0.09776178 0.07309704 0.041032724 0.005091712
-0.01987657 0.03593656 -0.013541029 -0.02844599 -0.039845876 -0.031769175 -0.02481633 -0.017930156
0.009469238 -0.003009801 -0.022645103 0.03935234 0.0641703 0.0528535 0.08408178 0.09816601
0.16501375 0.13293067 0.118336655 0.11000268 0.110861816 0.12884194 0.12574604 0.0783479
0.051076934 0.08579937 0.07153461 0.055061787 0.0065568932 -0.016521813 0.043774262 -0.02618722
-0.029668389 0.019560838 0.013567654 0.03363288 0.04465884 0.039977208 0.06366871 -1.6810154e-05
0.08416017 0.03652173 0.10749878 0.09983774 0.1767456 0.087586746 0.09559103 0.14231776
0.161979 0.13800363 0.095087044 0.15181743 0.08523503 0.07074331 0.079823636 0.028945435
-0.010462528 0.045062236 -0.0049096667 -0.019769698 0.043682534 -0.024404932 0.040401876 -0.0013740634
00000000: 33ac 52bb 5a9c 173d 1d62 2abc 5434 2e3d
00000010: 6a10 593d c366 12bd 9575 5b3d 7c16 54bc
00000020: d36b 00bd ecaa 2dbd 8d03 5d3d 332c cdbc
00000030: 0a95 87bc a739 71bd 1142 cbbb c412 6c3d
00000040: 025e 16bc 2f96 7cb9 c5c6 4b3d 8c2d f03b
00000050: 1c90 1b3d 6ebc f9bb af3d 2bbd 0043 8dbc
00000060: fe4e fdbc 305c f2bc fa09 e0bb 8b17 31bb
00000070: a030 0e3d caad 163d 0a71 643d e901 4fbd
00000080: c397 5cbd 30a8 933b 531f ebbb 6788 09bd
00000090: bd5f e43c d480 28bd 5efe 2ebc 35cc 1f3d
000000a0: 5b55 ea3c 5cec 29bd 1cb1 263d a0b1 013d
000000b0: 4e54 3d3c 5669 a73a 161e 293d 9bd8 073d
000000c0: d400 29bd 5c73 c8bc d56b 2abd 1c28 f43b
000000d0: 05b0 91bb 58b9 7a3b 6355 a13a 2b64 4ebd
000000e0: 6e7e a43c 3ac3 143b 9cb7 a13b 3098 053d
000000f0: 88b0 bb3b bbbf b03a a077 473d 91c8 e5bc
00000100: 98fb d4bc 639a 0a3d 5987 163c 0730 153d
00000110: 42bf 3b3c 0ee8 e6bc a4d9 5b3c eef7 42bc
00000120: 27b2 3d3d e45f bf3b 930c 993c 5bff 8eba
00000130: 25a7 95bb 0d2d 323d e53b 18bd 9aa5 44bb
00000140: 9ed4 2c3d cd03 e6bc 8fdc 483d 7def 603d
00000150: d62d b43c fb6c b23c 2745 a6bc 68dd 2c3d
00000160: 341a aebb a740 253d e891 e5bc 2d63 36bc
00000170: 1d8c ca3c 13d0 b3bc 1aba 863c 9af8 06bc
00000180: c525 9abc 3fb3 033c 3fa2 273d 026c 093d
00000190: 597a f5ba 96be 1d3d 882c aebc 4730 32bc
000001a0: 2fc1 47ba f17f c6bc aa7a b7bc dd98 973b
000001b0: d8bf 543d 0b0a febc a65c b23c f739 423c
000001c0: 0e9d 153d e072 0cbc 7023 1f3c 8b94 91bc
000001d0: fe29 02bd 4e49 543b bc91 2b3d 916e 23bc
000001e0: 858f 103d eccb 643d 6499 8bbc 42e7 23bc
000001f0: 1ecd ca3c b0ae a73c f03c 7cba 5e46 b73d
00000200: 8134 5e3c ba70 bc3d e578 5e3d 5df6 333d
00000210: 6b7a a63b dbd0 ddbc 6d34 ed3b 6fb3 0f3c
00000220: 1eeb f43c 3e6f b13c 01a5 1f3d 3d77 6d3c
00000230: ae3d 37bd 9435 44bd 870a 42bd b044 61bd
00000240: e9b7 233d 7d72 603c 3b13 02bd 2074 1cbc
00000250: 2148 583c d40d 5a3d eb09 283d d3f3 ab3d
00000260: 4959 363d 9f88 033e 8885 be3d 15c4 063e
00000270: 53c5 de3d 4452 b03d 8472 df3d df53 5f3d
00000280: 8bcf 833c 9c20 923b 46e4 9d3c 210b babb
00000290: 9822 f03c 88e6 e2bc ee77 eabc f7ca 13bc
000002a0: 31d6 dcbc 3f7b 803c 839c e4bc df80 e7bc
000002b0: 0ad3 a33b 352a 6dbc 7532 ce3a fb9c 57bc
000002c0: 1273 5d3c a2dc 29bc f542 4b3c fecb e13d
000002d0: a3af 993d 2f8b 0e3e 8d80 ec3d c558 103e
000002e0: 9038 d43d bef6 093e cb5f 103e 4880 963d
000002f0: 5437 c83d e7b3 953d ee11 283d 60d8 a63b
00000300: 30d4 a2bc 3732 133d 31db 5dbc 9107 e9bc
00000310: 6e35 23bd 6520 02bd 9e4b cbbc 43e2 92bc
00000320: dd24 1b3c 1540 45bb 3982 b9bc eb2f 213d
00000330: b86b 833d e97c 583d 1133 ac3d 430b c93d
00000340: 5df9 283e fa1e 083e 7d5a f23d 1649 e13d
00000350: 850b e33d 24ef 033e 92c3 003e dd74 a03d
00000360: 0c36 513d 95b7 af3d bd80 923d 7888 613d
00000370: 35db d63b c158 87bc a44c 333d 9586 d6bc
00000380: 1f0b f3bc 0d3e a03c de4a 5e3c a1c2 093d
00000390: 30ec 363d 24bf 233d be64 823d 8803 8db7
000003a0: 2b5c ac3d cf97 153d 5228 dc3d bb77 cc3d
000003b0: ccfc 343e ae60 b33d 3bc5 c33d bfbb 113e
000003c0: d3dd 253e d350 0d3e ffbc c23d 0776 1b3e
000003d0: b48f ae3d dee1 903d 937a a33d fa1e ed3c
000003e0: 066b 2bbc 2e93 383d 45e1 a0bb 10f4 a1bc
000003f0: 75ec 323d daec c7bc 707c 253d eb19 b4ba
