autoencoder_mpi_pipelining/layer2.pth (torch, 59229 bytes, 2 tensors)

layer.0.weight f4 [128, 111]
0.08695893 -0.060834877 0.031395696 -0.017899044 0.05972309 -0.07482029 -0.0863703 -0.06435725
-0.08131178 0.007982488 0.011504606 -0.026081737 0.025184967 0.053104494 -0.01124647 0.090487614
0.070209086 0.07143843 0.08276731 0.08826348 -0.06968838 0.054797545 -0.08259709 0.07769331
0.06744995 -0.05913887 -0.021095997 -0.009941325 0.07636475 0.08975853 -0.009095099 0.00025513844
-0.039409753 -0.0065959888 -0.094669454 0.082297325 -0.07473622 -0.0729805 0.006830184 0.018419132
-0.029810578 0.025854805 -0.031164682 -0.021048553 0.066491775 -0.06778768 -0.051962804 0.023661818
0.03712456 -0.00057152414 0.02506908 0.033325363 0.06372953 0.0071074767 0.09032945 0.059746284
0.015457775 0.09415657 -0.060281094 0.037603393 0.09347584 0.028868435 -0.06459427 -0.08009738
0.07209563 0.020934466 0.0088372 0.041668206 -0.02251936 0.031231722 -0.09140926 0.016047075
-0.09039697 0.075422235 -0.05514214 -0.03086494 0.018307203 -0.004549586 0.039137177 0.020010281
0.043221813 0.09282486 0.003939003 0.04329509 -0.04344086 0.034904383 -0.04962612 0.0091344975
0.07390772 0.013455422 0.061365645 0.04797318 -0.027986748 -0.010068877 -0.079616204 0.0029284742
0.030766083 -0.0942521 0.027213775 0.0074194944 -0.08509005 -0.049169835 0.035902478 0.011781277
-0.05944962 0.08484054 -0.05140565 -0.06450821 -0.09486381 0.08495519 0.008887132 -0.08142665
-0.07848954 0.05619992 0.06145804 0.0025370033 -0.007983902 -0.04749394 0.08675989 -0.05905678
0.09120759 0.049251292 0.053833228 -0.009185414 -0.03063491 0.058841188 0.04033542 -0.036017142
-0.050172377 -0.048360724 0.04737993 0.020617299 0.025900427 0.002317088 -0.044724755 -0.060879398
0.026397737 -0.049777467 0.049469285 0.033763632 0.008551839 -0.07914411 -0.041612256 0.0020786389
-0.01131678 -0.025283191 -0.02172697 -0.08528544 -0.02720995 0.04703117 0.0107358415 -0.00964061
0.057234176 -0.07498909 -0.0738614 0.09198968 -0.03412407 0.0745522 -0.012911596 0.060518377
-0.051844914 -0.029665431 0.09336734 -0.067822486 0.068199776 -0.071719125 -0.09204459 -0.06718083
-0.009062817 0.028513229 -0.021193678 -0.030536188 0.08664956 0.04067963 -0.06452123 0.07904639
0.031796105 0.087406695 0.0458443 -0.071486816 0.024977826 0.0116763655 0.04083643 0.027999863
-0.025034966 -0.02786818 0.0028349005 0.023381572 -0.09399127 0.05130822 -0.051171478 0.01986424
0.05649356 -0.047990445 0.036205966 -0.017963232 -0.07173408 0.034780305 -0.06022676 0.07061161
-0.048828717 0.06445394 -0.027935686 0.020192472 -0.039122093 -0.01248678 -0.06367958 -0.026920913
0.041704595 0.039049137 0.08434561 -0.044065155 -0.014924337 0.045284893 -0.019110195 0.025222488
-0.087974764 0.06897727 0.012586181 0.05310308 0.0208956 0.057367634 -0.06519501 0.010488285
-0.013332621 -0.052232787 -0.028471997 -0.0636101 0.0703669 -0.008094199 -0.006648999 -0.04146281
0.084839374 -0.0659474 0.0090336595 -0.00956996 0.017273266 -0.07346666 -0.0064934427 0.0067663677
-0.05818633 0.04630666 -0.018200189 0.037958227 -0.0036117665 -0.0135045955 0.053173922 -0.035725683
-0.088496014 -0.0011049286 0.052846108 -0.050988834 0.013240168 0.04641304 -0.06071417 0.022033963
00000000: 8617 b23d fe2d 79bd c698 003d 04a1 92bc
00000010: 33a0 743d 613b 99bd e9e2 b0bd bccd 83bd
00000020: ca86 a6bd fbc8 023c d17d 3c3c 5ea9 d5bc
00000030: b450 ce3c 1984 593d 1d43 38bc 9251 b93d
00000040: c8c9 8f3d 504e 923d e881 a93d 7cc3 b43d
00000050: c8b8 8ebd 6473 603d aa28 a9bd ac1d 9f3d
00000060: 3323 8a3d 9a3b 72bd 83d1 acbc f0e0 22bc
00000070: 1f65 9c3d 52d3 b73d 9c03 15bc 1ac4 8539
00000080: 1f6c 21bd 2a23 d8bb 0fe2 c1bd 808b a83d
00000090: 4e0f 99bd cd76 95bd bccf df3b b8e3 963c
000000a0: 5035 f4bc 75cd d33c 134d ffbc 046e acbc
000000b0: d72c 883d 44d4 8abd f3d6 54bd 6ed6 c13c
000000c0: ec0f 183d 56d2 15ba ac5d cd3c 2d80 083d
000000d0: a184 823d d6e5 e83b a6fe b83d 85b8 743d
000000e0: 9c42 7d3c 29d5 c03d 4fe9 76bd 0406 1a3d
000000f0: 4370 bf3d 7f7d ec3c 004a 84bd 180a a4bd
00000100: e0a6 933d c27e ab3c e7c9 103c 48ac 2a3d
00000110: 857a b8bc abd9 ff3c c734 bbbd 2875 833c
00000120: 0c22 b9bd f976 9a3d b9dc 61bd 78d8 fcbc
00000130: fdf8 953c b214 95bb 4e4e 203d 9aec a33c
00000140: 5b09 313d f61a be3d c112 813b 3156 313d
00000150: 0bef 31bd e6f7 0e3d c244 4bbd dca8 153c
00000160: ee5c 973d 2174 5c3c 8b5a 7b3d 867f 443d
00000170: 7744 e5bc eef7 24bc d20d a3bd a5eb 3f3b
00000180: 2709 fc3c 3f07 c1bd 6cef de3c 3b1f f33b
00000190: b143 aebd 4f66 49bd 7a0e 133d 4206 413c
000001a0: 7281 73bd e1c0 ad3d bb8e 52bd e11c 84bd
000001b0: f547 c2bd fdfc ad3d 559b 113c 04c3 a6bd
000001c0: 20bf a0bd e331 663d 6dbb 7b3d da43 263b
000001d0: e9ce 02bc 0189 42bd 2baf b13d 86e5 71bd
000001e0: 0ccb ba3d b9bb 493d 3b80 5c3d 6b7e 16bc
000001f0: 10f6 fabc 7503 713d c136 253d b686 13bd
00000200: 8d81 4dbd e515 46bd 7511 423d 9ce5 a83c
00000210: 222d d43c 49da 173b 4e31 37bd ad5c 79bd
00000220: 1140 d83c 75e3 4bbd 4ea0 4a3d bc4b 0a3d
00000230: 031d 0c3c 4f16 a2bd 9d71 2abd c639 083b
00000240: 046a 39bc b21e cfbc c2fc b1bc 22aa aebd
00000250: 67e7 debc c2a3 403d 62e5 2f3c a6f3 1dbc
00000260: 626e 6a3d e193 99bd a544 97bd 1665 bc3d
00000270: aec5 0bbd d3ae 983d 298b 53bc 1ee2 773d
00000280: 555b 54bd eb04 f3bc 6037 bf3d 84e6 8abd
00000290: 53ac 8b3d 7ae1 92bd e081 bcbd 1a96 89bd
000002a0: 367c 14bc 9394 e93c 5d9e adbc 0727 fabc
000002b0: 5375 b13d af9f 263d b523 84bd 13e3 a13d
000002c0: a23c 023d 4802 b33d 3cc7 3b3d ae67 92bd
000002d0: 4c9e cc3c 3a4e 3f3c 1a44 273d f85f e53c
000002e0: 2116 cdbc cf4b e4bc bdc9 393b b68a bf3c
000002f0: 7f7e c0bd 9128 523d 2f99 51bd 55ba a23c
00000300: cb65 673d a191 44bd b54c 143d a127 93bc
00000310: 51e9 92bd cb75 0e3d 56b0 76bd d29c 903d
00000320: 9f00 48bd 6d00 843d 61d9 e4bc af6a a53c
00000330: 7d3e 20bd 5a95 4cbc 716a 82bd 3f89 dcbc
00000340: 70d2 2a3d fdf1 1f3d 64bd ac3d aa7d 34bd
00000350: 3585 74bc a77c 393d fc8c 9cbc 649f ce3c
00000360: 1d2c b4bd f443 8d3d 4536 4e3c 9d82 593d
00000370: 402d ab3c 53fa 6a3d f684 85bd 0ed7 2b3c
00000380: 1171 5abc 0cf2 55bd 1b3e e9bc 0346 82bd
00000390: 851c 903d 889d 04bc d9df d9bb e8d4 29bd
000003a0: 44c0 ad3d 6e0f 87bd ea01 143c 52cb 1cbc
000003b0: aa80 8d3c b075 96bd f2c6 d4bb 68b8 dd3b
000003c0: ca54 6ebd 0dac 3d3d 9018 95bc 167a 1b3d
000003d0: 63b3 6cbb 6142 5dbc e6cc 593d 1855 12bd
000003e0: 663d b5bd 40d3 90ba 2975 583d abd9 50bd
000003f0: 4aed 583c 9a1b 3e3d 6caf 78bd 9280 b43c

layer.0.bias f4 [128]
-0.087540165 -0.029429652 0.07742672 -0.072843604 -0.05363051 0.008187377 -0.013694447 0.057210144
-0.060966503 -0.026998024 0.045429226 -0.045354992 -0.048778545 0.082982905 0.042313445 -0.09312088
0.08091339 0.06334036 -0.08912867 -0.023271287 -0.02497184 -0.056536548 -0.014348536 0.0012297765
0.0045439852 -0.024854189 0.018883005 0.085036024 0.088601165 0.05138337 -0.028442023 0.067931354
-0.045593552 0.0738807 -0.0003717153 0.06557234 -0.0785332 -0.026909927 -0.05516546 -0.06292137
-0.062379975 -0.043284476 -0.081101015 0.0056643924 0.0047282926 0.068633825 0.04021574 0.07166995
0.046543073 -0.03132905 -0.06950715 -0.086530864 0.019536573 0.042355604 0.056307036 -0.018760987
-0.08361072 -0.030737761 -0.009927114 0.048208073 -0.08970133 0.02639449 0.059061773 -0.067722134
0.06077779 -0.0637486 -0.09268729 0.001134449 0.054714598 -0.04615376 0.0068409895 0.046907604
0.055461038 0.022465263 0.09385416 -0.043663375 0.051245667 -0.044345424 -0.0063613304 -0.050505158
0.015183583 0.03512593 -0.056514516 -0.021894973 -0.032429557 -0.028623413 -0.009553429 0.017647741
-0.06279462 -0.016248638 0.073561765 0.053456206 -0.009927611 0.073702455 0.028617857 -0.04415306
-0.03196007 0.08054426 -0.054083444 0.09400564 0.015680056 -0.07822762 0.05853706 -0.08076129
-0.08724598 0.016486928 0.044711765 -0.036471277 0.0039085774 0.035627812 0.034026116 -0.07287711
-0.012688569 0.077548824 -0.04853532 -0.08173918 0.019165402 0.025287751 0.00572874 -0.08623642
0.052336816 0.08460734 -0.061233927 0.07875677 -0.06456578 -0.052006062 -0.01692031 0.0545241
00000000: 4248 b3bd 7416 f1bc e691 9e3d 072f 95bd
00000010: aaab 5bbd 5924 063c ad5e 60bc 2f55 6a3d
00000020: 03b8 79bd f62a ddbc ff13 3a3d 28c6 39bd
00000030: 03cc 47bd f1f2 a93d dd50 2d3d 29b6 bebd
00000040: ebb5 a53d 97b8 813d 1889 b6bd 6da3 bebc
00000050: bf91 ccbc de92 67bd 1f16 6bbc 7430 a13a
00000060: b6e5 943b 039b cbbc 88b0 9a3c 5e27 ae3d
00000070: 8774 b53d 5e77 523d 3fff e8bc 981f 8b3d
00000080: 4ec0 3abd c44e 973d c8e2 c2b9 ca4a 863d
00000090: 04d6 a0bd 3572 dcbc 2df5 61bd ebdc 80bd
000000a0: 2582 7fbd 104b 31bd 4a18 a6bd 5e9c b93b
000000b0: cbef 9a3b e48f 8c3d 43b9 243d b2c7 923d
000000c0: f3a3 3e3d e452 00bd c459 8ebd 1837 b1bd
000000d0: 2a0b a03c 127d 2d3d 35a2 663d a4b0 99bc
000000e0: 193c abbd c2cd fbbc 55a5 22bc d475 453d
000000f0: 55b5 b7bd 4239 d83c c2ea 713d e7b1 8abd
00000100: 22f2 783d a08e 82bd d5d2 bdbd cbb1 943a
00000110: 6a1c 603d ba0b 3dbd 612a e03b 3022 403d
00000120: 1d2b 633d 1209 b83c 9c36 c03d 5ed8 32bd
00000130: fae6 513d 8ca3 35bd b572 d0bb 7fde 4ebd
00000140: 90c4 783c 35e0 0f3d c47b 67bd 165d b3bc
00000150: dbd4 04bd a67b eabc fc85 1cbc ff91 903c
00000160: 779a 80bd dd1b 85bc 8da7 963d e5f4 5a3d
00000170: 6ba7 22bc 50f1 963d ff6f ea3c d7d9 34bd
00000180: 90e8 02bd 64f4 a43d 9a86 5dbd 0786 c03d
00000190: 7673 803c cd35 a0bd 8ec4 6f3d 2d66 a5bd
000001a0: 05ae b2bd 980f 873c af23 373d e862 15bd
000001b0: 8613 803b 78ee 113d f85e 0b3d 9840 95bd
000001c0: b7e3 4fbc ebd1 9e3d f9cc 46bd df66 a7bd
000001d0: c300 9d3c 4228 cf3c 27b8 bb3b b89c b0bd
000001e0: 215f 563d 9d46 ad3d 6dd0 7abd 3b4b a13d
000001f0: 103b 84bd 4f04 55bd 769c 8abc aa54 5f3d
