autoencoder_mpi_pipelining/layer1.pth (torch, 59165 bytes, 2 tensors)

layer.0.weight f4 [111, 128]
0	0xbbf4ef66	-0.0074748276
1	0xbc663525	-0.014050757
2	0xbc2ca57c	-0.010537501
3	0xbbd911ee	-0.006624452
4	0xbcd87ac0	-0.02642572
5	0xbdd5b64d	-0.10435162
6	0xbd966a18	-0.073444545
7	0xbb13e930	-0.002256941
8	0xbd13f015	-0.036117632
9	0xbcaaf750	-0.02086988
10	0x3d9c0163	0.07617452
11	0xbc16b9e2	-0.009199591
12	0xbd4525b0	-0.048131645
13	0x3d5d182d	0.053978134
14	0xbd988fe6	-0.074493214
15	0x3d88df81	0.06683255
16	0x3d400069	0.04687539
17	0x3d1fad1c	0.03898345
18	0x38b23bcb	8.498839e-05
19	0xbd76457b	-0.060124855
20	0x3cb82c0a	0.022481937
21	0xbd147da7	-0.036252644
22	0x3c972a66	0.018452834
23	0x3d2844f6	0.04108139
24	0x388ce3ba	6.7181376e-05
25	0xbcd2679a	-0.025684167
26	0xbd909e79	-0.07061476
27	0x3d64e1c6	0.055879377
28	0x3c382b36	0.011240771
29	0xbdb349d3	-0.08754315
30	0xbb2853f6	-0.002568481
31	0xb6250b9f	-2.459368e-06
32	0xbc5e9902	-0.013586285
33	0xbcd9fcf1	-0.02660987
34	0xbdc235d7	-0.094829254
35	0x3ca80527	0.02051027
36	0x3cc504b4	0.024050094
37	0x3d273717	0.040824022
38	0xbd54d068	-0.051956564
39	0x3c977616	0.018488925
40	0xbd2429db	-0.04007898
41	0x3d7b9cdb	0.061428886
42	0x3c347476	0.011014095
43	0x3d30e0fc	0.04318331
44	0x3d482a12	0.048868246
45	0xbdd44b4b	-0.103659235
46	0x3c6c7e53	0.014434415
47	0xbb26868b	-0.0025409784
48	0x3d9f759d	0.07786105
49	0xbd96d8d4	-0.073655754
50	0x3d0278d4	0.031853512
51	0x3c0dc105	0.0086519765
52	0xbd953eaa	-0.07287343
53	0xbc831038	-0.015998945
54	0xbd2e8746	-0.042609476
55	0xbd749a3c	-0.0597174
56	0xbdc6baf9	-0.09703631
57	0xbd7dee7e	-0.061995022
58	0x3ad9bca2	0.0016612003
59	0xbda47c39	-0.08031506
60	0xbaea35f3	-0.0017868861
61	0xbc71fbcd	-0.014769507
62	0xbd3eb17d	-0.046555985
63	0xbcedbdb4	-0.029021122
64	0xbd02de3d	-0.031950224
65	0x3c005f34	0.007835198
66	0xbdcc0a4e	-0.09962903
67	0x3d676fdd	0.056503166
68	0xbcb13d16	-0.021635573
69	0x3ba33fc1	0.0049819653
70	0xbdf5e4dd	-0.12006543
71	0xbda4e091	-0.08050645
72	0xbd0fc34c	-0.03509836
73	0x3caa1fb5	0.020767072
74	0xbb3ed498	-0.0029118415
75	0xbd36d2e1	-0.044634704
76	0xbbfd20eb	-0.0077248714
77	0xbd4a444b	-0.049381536
78	0x3d496a02	0.049173363
79	0x3ce82cbb	0.028341642
80	0xbdb389fc	-0.08766553
81	0xbb17bc62	-0.0023153056
82	0xbc9f07d0	-0.019412905
83	0xbd8aa022	-0.06768824
84	0xbd984593	-0.07435145
85	0xbca0ac63	-0.01961345
86	0x3c7ad329	0.015309134
87	0xbdc01bd1	-0.093803056
88	0x3dea80a0	0.114503145
89	0xbd8048ed	-0.062639095
90	0xbd9c8b4c	-0.07643756
91	0xbdb71df6	-0.089412615
92	0xbcdf775e	-0.027278598
93	0xbd13bbf1	-0.036067907
94	0xbdd86b4d	-0.10567341
95	0x3d95d055	0.07315127
96	0x3d62020e	0.05517774
97	0xbcb4c3a6	-0.022065949
98	0xbcd1be9e	-0.025603589
99	0xbd92b4fd	-0.07163427
100	0xbdb3359a	-0.08750458
101	0xbd51bc1e	-0.051204793
102	0xb984f537	-0.000253597
103	0x3d207f06	0.03918364
104	0xbcc4e6ee	-0.024035897
105	0x3b8527a8	0.0040635653
106	0xbcc68033	-0.024231052
107	0x3d7342cc	0.059389874
108	0x3ce9b99e	0.028530892
109	0xbd0fbea0	-0.035093904
110	0xbca3f1c7	-0.02001275
111	0xbb2d2157	-0.0026417577
112	0x3ce80c1a	0.028326083
113	0xbd6af2fb	-0.05736063
114	0xbcdebec8	-0.027190581
115	0xbcb38801	-0.021915438
116	0x3d1a9097	0.037735548
117	0x3d7e3c51	0.06206924
118	0xbc67b2d0	-0.014141753
119	0xbde3d7c3	-0.11125138
120	0xbd2281a8	-0.03967443
121	0x3d8012ec	0.06253609
122	0xba34f15d	-0.0006902421
123	0xbd8ad84f	-0.06779539
124	0x3d307c64	0.04308738
125	0xbd91c011	-0.07116712
126	0xbd52f698	-0.0515047
127	0xbdc6f9e9	-0.09715635
128	0x3d34e46e	0.04416316
129	0xbdea884b	-0.11451777
130	0xbdd19c34	-0.102348715
131	0x39e3565a	0.0004336115
132	0xbdaffa37	-0.085926466
133	0xbcce847a	-0.025209654
134	0x3d73a698	0.059485048
135	0xbe0e5c50	-0.13902402
136	0xbc36eb47	-0.011164493
137	0x3b9732a0	0.0046141893
138	0x3d422a5d	0.047403682
139	0xbe0acd74	-0.13554937
140	0x3d745785	0.059653778
141	0x3b62189e	0.0034499536
142	0xbd57dc9d	-0.052700628
143	0x3d0cbdd2	0.034360714
144	0xbd7587e2	-0.05994404
145	0x3b899807	0.0041990313
146	0x3a2adf54	0.0006518264
147	0x3c44294d	0.0119727375
148	0xbd7f5c80	-0.062344074
149	0xbd9ad689	-0.075604506
150	0xbd6fa337	-0.058505263
151	0xbdf983ea	-0.12183364
152	0xbb8c1148	-0.004274521
153	0xbd48101d	-0.04884349
154	0xbde36acd	-0.11104355
155	0x3d81cb6e	0.06337629
156	0x3d05318d	0.03251796
157	0x3d39df50	0.045378983
158	0xbd41285d	-0.047157634
159	0xbdb76e16	-0.08956544
160	0xbbf0d397	-0.007349442
161	0xbde4dbd5	-0.11174742
162	0x3caf5784	0.021404035
163	0xbd0d2a66	-0.034464262
164	0xbdb01dec	-0.08599457
165	0x3d57a01d	0.05264293
166	0x3cce60a6	0.02519257
167	0x3c132422	0.008980783
168	0xbd8bc20e	-0.06824122
169	0xbe099369	-0.13435139
170	0xbd7617dc	-0.060081348
171	0xbd79172d	-0.060813118
172	0xbd965d89	-0.07342059
173	0x3ca0624e	0.019578125
174	0x3d8df6d5	0.06931845
175	0xbd4d9d33	-0.050198745
176	0x3d08eb7d	0.033427704
177	0x3cf7d0a4	0.030250855
178	0xbd9bc14f	-0.0760523
179	0xbd6247ea	-0.055244364
180	0xbd0a89fc	-0.033823
181	0xbd170a39	-0.036874983
182	0xb9c63496	-0.00037804683
183	0xbc965ac0	-0.01835382
184	0x3d2efc6d	0.0427212
185	0xbd1d98f6	-0.038475953
186	0xbd1c0a00	-0.038095474
187	0xbd017cc9	-0.031613145
188	0xbdab64e3	-0.08368852
189	0xbddc8efa	-0.10769458
190	0xbd1fc496	-0.03900584
191	0xbcf5eac9	-0.03001918
192	0xbd2c4de7	-0.04206648
193	0xbd90d3ea	-0.070716694
194	0xbd91211b	-0.070863925
195	0x3d195189	0.037431274
196	0xbd10f851	-0.035393063
197	0xbb7ccbb3	-0.0038573563
198	0xbd982f29	-0.0743087
199	0xbdbf31fb	-0.09335705
200	0x3b958234	0.0045626406
201	0xbdb28f48	-0.08718735
202	0xbdddfc17	-0.10839098
203	0x3a265ccd	0.0006346226
204	0xbd8ac28c	-0.06775388
205	0xbdffed68	-0.124964535
206	0xbd9e8200	-0.07739639
207	0xbbb7e0e0	-0.005611524
208	0xbd4537a8	-0.04814878
209	0x3c10593a	0.008810336
210	0xbd5ed4fe	-0.054402344
211	0xbe07cd62	-0.13261941
212	0x3d0b13e6	0.033954524
213	0xbd55e4b2	-0.052220054
214	0xbd156191	-0.03647
215	0xbd71b60f	-0.059011515
216	0x3d3f6de9	0.046735678
217	0xbe132378	-0.14368999
218	0xbc8a2b4d	-0.01686635
219	0x3d3415bb	0.043966036
220	0xbd3ecd61	-0.046582583
221	0xbdae00d4	-0.08496252
222	0xbdd2bd87	-0.10290056
223	0xbc10f6fa	-0.008847946
224	0xbd46faa5	-0.048578877
225	0xbc5bdc70	-0.013419256
226	0xbdc7c25d	-0.09753869
227	0x3ac9415e	0.0015354564
228	0xbdacef79	-0.08444113
229	0x3cf11503	0.029428964
230	0xbce835e2	-0.028346006
231	0x3d7d416c	0.06182997
232	0x3c5a34cc	0.013318252
233	0xbcd7c4a9	-0.026338892
234	0x3c83802e	0.016052332
235	0x3c93ab45	0.018026004
236	0xbce5d37c	-0.028054945
237	0x3c31c4e5	0.010850166
238	0x3bcb4252	0.0062029744
239	0x3cd986e2	0.026553575
240	0xbd73a693	-0.05948503
241	0xbda15457	-0.07877415
242	0xbcc8528a	-0.02445342
243	0xbc86fcc4	-0.01647795
244	0x3d94c490	0.07264054
245	0x3d3eab94	0.04655035
246	0x3d2ef722	0.042716153
247	0x3d067cf7	0.03283402
248	0x3b79e44b	0.0038130458
249	0xbe0772b9	-0.13227357
250	0x3c38799b	0.011259462
251	0x3b57985a	0.0032897205
252	0xbd97ca2c	-0.07411608
253	0xbd1710f0	-0.036881387
254	0xbc98eb53	-0.018666899
255	0xbd511bb4	-0.05105181

layer.0.bias f4 [111]
0	0x3d079af4	0.03310676
1	0x3de24036	0.110474035
2	0xbc92e18f	-0.01792982
3	0xbc058532	-0.008149432
4	0x3e003462	0.12519982
5	0x3d598864	0.053108588
6	0x3cbbff32	0.022948835
7	0xbdbb920f	-0.09158718
8	0x3d771afe	0.060328476
9	0x3d918cea	0.07106955
10	0x3e0fcced	0.14043017
11	0x3e0d233c	0.13782972
12	0xbc214063	-0.009842011
13	0x3be81253	0.0070822625
14	0x3d4a1df9	0.04934499
15	0x3e0769fc	0.13224024
16	0xbd52c353	-0.051455807
17	0x3ae48d51	0.0017437135
18	0xbb323688	-0.0027193148
19	0x3de13d9e	0.10998081
20	0x3dbe7e1d	0.09301398
21	0xbd687fa6	-0.05676236
22	0xbeb5d5ef	-0.3551478
23	0x3ebf3da5	0.3735172
24	0x3ceb322a	0.028710444
25	0x3ee15a49	0.44014195
26	0x3d2f1744	0.042746797
27	0x3da6ae00	0.081386566
28	0x3d400721	0.0468818
29	0xbc85c4cc	-0.016329192
30	0x3da20b3b	0.07912298
31	0xbc0e355e	-0.008679716
32	0xbca6433b	-0.02029573
33	0xbd32bdcd	-0.04363804
34	0x3da4e4db	0.08051463
35	0x3dd36b81	0.10323239
36	0x3ced25ac	0.028948627
37	0x3d5e0797	0.054206457
38	0x3d86a9d5	0.06575362
39	0x3c3a1169	0.01135669
40	0x3dedfe49	0.11620767
41	0x37db31c8	2.6130016e-05
42	0x3dab8604	0.08375171
43	0x3d48183b	0.048851233
44	0x3c63e3af	0.0139092645
45	0x3e0f8fcd	0.140197
46	0xbdd88a4e	-0.105732545
47	0xbb696457	-0.0035612786
48	0x3d886ad5	0.066610016
49	0xbd9f231b	-0.07770368
50	0x3c3da75b	0.011575545
51	0xbd16451f	-0.036687013
52	0x3d87fd10	0.06640065
53	0x3d48bd23	0.0490085
54	0xbc517731	-0.012784765
55	0xbc5b217c	-0.0133746825
56	0x3d9e83bd	0.07739971
57	0xbdad2913	-0.084551
58	0xbd78d994	-0.060754374
59	0x3e04ac2e	0.12956306
60	0x3dd8a6e3	0.10578706
61	0xbc8ba67e	-0.017047163
62	0xbda5c114	-0.08093467
63	0x3b43add5	0.002985825
64	0xbd67a2e2	-0.05655182
65	0x3e09ddab	0.13463466
66	0x3e647072	0.2230852
67	0x3d4bb5db	0.049733978
68	0x3d99d363	0.07511022
69	0xbd9b8304	-0.075933486
70	0x3d84c01c	0.064819545
71	0x3dc5a3c2	0.09650375
72	0x3c811e27	0.015761448
73	0x3d4ed698	0.05049762
74	0x3d62fc15	0.055416185
75	0x3e0d94d1	0.138263
76	0x3d509ea8	0.050932556
77	0x3dc77d5a	0.09740706
78	0x3e146d31	0.14494778
79	0xbdc7edc1	-0.09762145
80	0xbd422096	-0.047394358
81	0x3de14410	0.1099931
82	0xbd26abc5	-0.040691156
83	0x3e049d1c	0.12950557
84	0xbd3b2816	-0.045692526
85	0xbd19d87e	-0.03755998
86	0x3d4d7925	0.05016436
87	0x3d70d971	0.05880112
88	0x3de0be50	0.10973799
89	0xbc53a9a9	-0.012918868
90	0x3e1b267c	0.151514
91	0xbdc75fd5	-0.097350754
92	0x3e21fa80	0.15818214
93	0x3d10b74d	0.03533106
94	0xbcbfa46c	-0.023393832
95	0xbd2df2a4	-0.04246773
96	0xbceaeb9e	-0.028676804
97	0x3d4e6260	0.050386786
98	0x3e01e60d	0.12685414
99	0x3dcce81a	0.10005207
100	0x3c1652bb	0.009174998
101	0xbdb753ba	-0.089515164
102	0xbd22f200	-0.03978157
103	0xbd0baa1b	-0.034097772
104	0x3dcefc5d	0.10106728
105	0xbd8f4a3c	-0.06996581
106	0x3d06cd0a	0.032910384
107	0x3df16f8a	0.117888525
108	0xbd8d8e00	-0.0691185
109	0x3d441eaf	0.047880825
110	0x3b7f1397	0.0038921589
