autoencoder_mpi_pipelining/layer2.pth (torch, 68445 bytes, 2 tensors)

layer.0.weight f4 [256, 64]
0.03929989 -0.02392058 -0.060543656 -0.018681794 -0.031454742 -0.11113542 -0.097179234 -0.053908154
0.064274326 -0.08340852 -0.036920175 0.044808865 0.082982615 -0.072517514 0.013377488 0.02454634
-0.06081435 -0.09550811 0.0831078 -0.0052236766 -0.05688949 -0.070957884 0.08186409 0.010951489
0.1170968 0.066020906 0.123855874 -0.10904211 0.10147712 0.043177843 0.0801401 -0.10777865
0.12026319 0.047444224 0.043063164 0.041251466 -0.08905999 0.06790869 -0.018048614 0.06602985
-0.034523368 0.015861481 0.047660038 -0.016212285 0.043572873 -0.03212738 -0.09488693 0.049013376
0.033068895 0.11894776 -0.08910386 -0.07634294 -0.013403773 -0.092467725 -0.0011498481 0.074618
0.04644683 0.009118453 0.0005310476 -0.045787215 0.035322964 -0.014166176 0.090303436 0.030456051
0.028041795 0.027550936 0.008909076 0.11869918 -0.07422699 -0.096827716 0.082624555 -0.037545234
-0.02037859 -0.00385499 0.069092646 0.08202411 -0.09352794 0.08072832 0.05246733 -0.038384616
0.055330753 -0.026427358 -0.034909874 -0.007145539 0.118976936 -0.02385299 0.1185181 -0.035443008
0.113280505 0.03074202 -0.078723624 -0.11400193 0.020857275 0.048380435 0.037828818 -0.005267307
0.027251095 -0.09071201 0.09364344 -0.032239735 0.011013001 -0.044204727 0.12230761 0.045749635
-0.110224634 0.02153097 -0.106018335 -0.12367825 -0.07305789 -0.041766807 -0.023222208 0.08864045
-0.11618692 -0.008087367 0.048681244 -0.08394718 0.081710294 -0.06260732 -0.03319633 0.122142285
-0.03585711 0.024906456 0.04466766 0.07808532 -0.11161113 -0.012525722 -0.11332969 0.02479811
0.12122509 0.12375669 -0.07341987 -0.04783599 0.07597773 0.08587399 -0.028363973 -0.05509171
-0.01240097 0.049311563 -0.07882282 0.117211655 -0.034889653 0.025253326 0.07882494 -0.08485609
-0.09267788 0.083405405 -0.07139674 -0.0018121451 0.09781131 0.03600049 0.05821383 -0.073522285
0.034511074 0.010429919 0.07677698 -0.0561257 0.08849701 -0.023461908 0.03191273 -0.055939823
0.04115674 -0.059471056 0.053641826 0.07514769 -0.055005997 -0.020176575 0.07966553 -0.0981186
0.096820116 -0.12007184 -0.1222627 -0.102922544 0.10455111 0.036139444 -0.11408107 0.062458783
-0.06520823 0.07322264 0.100235954 0.067358226 -0.05273652 0.024504885 0.0785436 -0.045757025
-0.07956156 -0.09598301 0.103088096 0.10404852 -0.05061622 0.011935592 0.10969174 -0.09412399
-0.03552252 0.012272373 0.07851635 -0.06475082 0.03825052 0.103310704 -0.11716397 0.10784541
0.10174757 0.11708434 0.048323184 -0.0977537 0.07663657 -0.029626817 0.08430296 -0.07696754
-0.08938539 -0.08533855 -0.02620235 -0.06179416 0.0903192 -0.077650055 0.010373771 -0.079217
0.014742598 -0.1044981 0.08465032 0.0016141087 0.04349278 0.012799427 0.12018664 0.009343058
0.09735371 0.056879878 -0.079272404 -0.016313061 -0.004970953 -0.0815642 0.0030617863 -0.11745313
-0.09680776 -0.083792046 0.017849043 0.046524033 0.08731556 0.09450911 0.11775008 -0.013797089
-0.036757797 -0.12039325 0.11428496 -0.093520835 -0.0015286207 0.033026636 0.08365139 -0.11337249
-0.124861136 0.070743665 0.029696152 -0.03772922 0.06742026 -0.084854454 0.004802972 0.07248151
00000000: ecf8 203d 18f5 c3bc a0fc 77bd 900a 99bc
00000010: b0d6 00bd f89a e3bd e805 c7bd ccce 5cbd
00000020: 42a2 833d 16d2 aabd 9c39 17bd 8089 373d
00000030: caf2 a93d 1084 94bd 402d 5b3c 6815 c93c
00000040: 7818 79bd c299 c3bd 6c34 aa3d 602b abbb
00000050: f404 69bd 5e52 91bd 5ca8 a73d e06d 333c
00000060: 72d0 ef3d f835 873d 26a8 fd3d 7851 dfbd
00000070: 3cd3 cf3d 40db 303d 7e20 a43d 0ebb dcbd
00000080: 8c4c f63d e054 423d 0063 303d 4cf7 283d
00000090: 1665 b6bd b613 8b3d b0da 93bc a83a 873d
000000a0: 6068 0dbd f0ef 813c 2c37 433d a0cf 84bc
000000b0: 7879 323d 0098 03bd 1454 c2bd 40c2 483d
000000c0: 4073 073d e29a f33d 167c b6bd b059 9cbd
000000d0: 809b 5bbc b85f bdbd 80b6 96ba 52d1 983d
000000e0: 083f 3e3d 9065 153c 0036 0b3a 608b 3bbd
000000f0: d0ae 103d 4019 68bc 02f1 b83d f87e f93c
00000100: e8b7 e53c 80b2 e13c 60f7 113c 8e18 f33d
00000110: 5204 98bd 9c4d c6bd 1037 a93d 08c9 19bd
00000120: 00f1 a6bc 00a4 7cbb 7280 8d3d 42fc a73d
00000130: 948b bfbd e454 a53d fce7 563d 3039 1dbd
00000140: 80a2 623d 307e d8bc a8fd 0ebd 2025 eabb
00000150: 2eaa f33d 5867 c3bc 9eb9 f23d b02c 11bd
00000160: 9cff e73d b0d6 fb3c da39 a1bd d879 e9bd
00000170: e0dc aa3c 902a 463d 64f2 1a3d 6099 acbb
00000180: b03d df3c 38c7 b9bd 22c8 bf3d d00d 04bd
00000190: e06f 343c 0410 35bd 6a7c fa3d f863 3b3d
000001a0: 74bd e1bd b861 b03c 2420 d9bd 064b fdbd
000001b0: 609f 95bd ac13 2bbd 803c bebc 2089 b53d
000001c0: 68f3 edbd e080 04bc fc65 473d 80ec abbd
000001d0: ba57 a73d 4438 80bd e0f8 07bd bc25 fa3d
000001e0: e8de 12bd a008 cc3c 70f5 363d 32eb 9f3d
000001f0: 6094 e4bd b038 4dbc 6619 e8bd 6825 cb3c
00000200: dc44 f83d 2674 fd3d 285d 96bd acef 43bd
00000210: 369a 9b3d b4de af3d 905b e8bc d8a7 61bd
00000220: 702d 4bbc ecfa 493d dc6d a1bd aa0c f03d
00000230: 74e8 0ebd 10e0 ce3c f86e a13d 08c9 adbd
00000240: e6cd bdbd 74d0 aa3d 7438 92bd 8085 edba
00000250: 4c51 c83d 4075 133d a071 6e3d da92 96bd
00000260: 7c5b 0d3d 40e2 2a3c 403d 9d3d 10e4 65bd
00000270: ec3d b53d 3033 c0bc ecb6 023d 2821 65bd
00000280: f893 283d ec97 73bd 88b7 5b3d 08e7 993d
00000290: f84d 61bd 5849 a5bc ae27 a33d 68f2 c8bd
000002a0: a049 c63d 3ae8 f5bd de64 fabd 0ec9 d2bd
000002b0: e41e d63d f406 143d 56a3 e9bd c8d4 7f3d
000002c0: e48b 85bd c0f5 953d 8248 cd3d 1cf3 893d
000002d0: 4002 58bd 78be c83c 78db a03d b86b 3bbd
000002e0: 2cf1 a2bd be92 c4bd da1f d33d 6417 d53d
000002f0: f452 4fbd 808d 433c 10a6 e03d 14c4 c0bd
00000300: 1080 11bd 1012 493c 2ecd a03d 149c 84bd
00000310: 94ac 1c3d 9094 d33d aaf3 efbd 0ede dc3d
00000320: 0861 d03d eac9 ef3d 88ee 453d 1833 c8bd
00000330: a2f3 9c3d f0b3 f2bc 08a7 ac3d 28a1 9dbd
00000340: b00f b7bd fac5 aebd 50a6 d6bc e01b 7dbd
00000350: 46f9 b83d fe06 9fbd c0f6 293c 863c a2bd
00000360: f08a 713c 1a03 d6bd 265d ad3d 8090 d33a
00000370: 7c25 323d b0b4 513c 6a24 f63d a013 193c
00000380: 6261 c73d e0fa 683d 9259 a2bd f8a2 85bc
00000390: 60e3 a2bb 220b a7bd 40a8 483b 448b f0bd
000003a0: 2643 c6bd 2a9b abbd 2838 923c fc8f 3e3d
000003b0: 80d2 b23d fe8d c13d f426 f13d 300d 62bc
000003c0: 588f 16bd bc90 f6bd 3c0e ea3d da87 bfbd
000003d0: 005c c8ba f046 073d 6c51 ab3d d62f e8bd
000003e0: 32b7 ffbd 0ee2 903d 5845 f33c f489 1abd
000003f0: a213 8a3d 2cc8 adbd 4062 9d3b 3071 943d

layer.0.bias f4 [256]
-0.08611594 -0.022506565 0.016050741 0.11704628 0.08217384 -0.058955163 0.11642477 -0.08563018
-0.0005722493 -0.03981994 -0.045412093 0.051018775 -0.124764144 0.07780196 0.031300396 0.045666054
0.07959591 -0.0050124526 0.12407522 -0.121930346 -0.032144412 0.039806917 -0.10005389 -0.08619285
0.0068968087 -0.107840315 0.041902766 -0.08508995 -0.0062313974 -0.023848966 0.099409774 0.07148737
-0.08672942 -0.064911574 -0.076282665 0.09772293 0.047070846 0.018519506 0.08465868 0.10806356
-0.055687368 0.036856875 -0.102035135 0.0175087 0.030135855 -0.12165685 -0.010852143 -0.023864642
-0.1129749 0.027227372 -0.017305687 0.060153127 -0.08137065 -0.09422386 0.10446952 -0.026004374
0.06762785 -0.033597067 -0.02970232 -0.04355891 0.10429406 0.11480452 -0.08068298 -0.013240114
-0.001190871 -0.08745907 0.11814344 -0.032075644 0.05119297 0.101794094 0.0904901 -0.07451722
0.056934983 -0.103652105 -0.05699168 0.0688009 0.080912575 0.0624744 0.09375365 0.101135686
0.11852834 0.018910736 -0.06436598 -0.033762068 0.09909165 0.009131983 -0.10809395 0.10570845
0.018944323 -0.0176249 0.0065941364 -0.06628358 0.09325577 -0.09721641 -0.10834654 0.10516095
-0.08120498 -0.0043787807 0.08551864 -0.009187385 0.018720433 -0.10118036 -0.054799095 0.025746375
0.10489969 0.11269948 0.012943208 -0.077033415 0.044070974 -0.106129095 0.03683926 0.059978053
0.09470597 0.059497 0.0725662 0.0033662468 0.12120569 -0.08027308 -0.08222142 0.03035736
0.117021054 0.109770566 -0.052168608 -0.062597916 -0.03801459 0.003999591 0.021722108 0.048438698
-0.11772752 0.019928172 0.027466625 -0.033553705 -0.08490771 0.06310679 -0.121530995 0.10304302
0.04501976 -0.10501069 -0.07742509 0.0013251305 -0.115720525 -0.10433127 -0.005472213 0.037406906
-0.04446265 -0.12472521 -0.09603195 -0.017274216 -0.012066677 0.032379687 -0.02390097 0.059458062
0.05028741 0.007379517 -0.009669855 0.036858216 0.0027368814 -0.119396344 0.003319174 0.01587616
-0.07796754 -0.119926035 -0.074570805 0.0072664022 0.0027928054 -0.04185325 0.05650814 0.056533143
-0.08871879 -0.11078465 -0.025472477 0.07536824 0.10234998 0.035489053 0.11340265 -0.022057116
0.06763272 -0.11884433 0.07677697 0.07610139 -0.061602533 0.06780408 0.08578579 -0.053762734
-0.11729418 0.04268396 0.059588507 -0.06337781 -0.07320435 -0.12250574 0.05061896 0.055095226
0.083268836 -0.010436863 -0.056209028 0.04658945 -0.1145291 0.10168323 0.023490682 -0.030394912
0.10418725 0.010765865 -0.010668516 0.10719812 -0.027829409 -0.0013164431 0.02913621 0.0610577
0.0276075 0.108385116 0.10358134 -0.07174586 -0.07198511 -0.009932861 0.052538157 0.008616284
-0.07265827 -0.0006599575 0.104772136 -0.07033607 0.03238778 0.0031376332 -0.0593037 0.005504817
-0.061935157 0.10545692 0.097921774 -0.05963196 0.08573158 -0.027790368 0.045981064 0.031647652
-0.10207078 -0.104202494 -0.10078341 -0.10749476 0.021780476 -0.07389921 -0.012519613 -0.024056181
-0.009485915 -0.11302844 -0.050567046 0.034664303 0.076465756 -0.0262727 -0.047919974 -0.0010709912
0.024054259 -0.09958109 -0.053083226 -0.06886935 0.021511868 -0.024965808 -0.04115504 -0.1128525
00000000: 8e5d b0bd b05f b8bc d87c 833c f6b5 ef3d
00000010: c24a a83d f87a 71bd 1c70 ee3d e05e afbd
00000020: 0003 16ba 3c1a 23bd 0802 3abd 10f9 503d
00000030: 5884 ffbd a256 9f3d d834 003d 540c 3b3d
00000040: 2e03 a33d 803f a4bb 261b fe3d 9eb6 f9bd
00000050: dca9 03bd 940c 233d 0ee9 ccbd e085 b0bd
00000060: a0fe e13b 62db dcbd 3ca2 2b3d a443 aebd
00000070: c030 ccbb e85e c3bc 5a97 cb3d f867 923d
00000080: 329f b1bd 5cf0 84bd 163a 9cbd f622 c83d
00000090: 5ccd 403d 38b6 973c 8861 ad3d 6e50 dd3d
000000a0: 7018 64bd 3cf7 163d ccf7 d0bd 686e 8f3c
000000b0: 78df f63c 3a27 f9bd 30cd 31bc c87f c3bc
000000c0: 625f e7bd f00b df3c a8c4 8dbc 2063 763d
000000d0: a8a5 a6bd 70f8 c0bd 1ef4 d53d 2007 d5bc
000000e0: 7880 8a3d 149d 09bd 4852 f3bc d46a 32bd
000000f0: 2098 d53d a21e eb3d 1e3d a5bd 10ed 58bc
00000100: 0017 9cba be1d b3bd 30f5 f13d c061 03bd
00000110: b8af 513d 6c79 d03d e052 b93d 7c9c 98bd
00000120: a834 693d 8e47 d4bd 1c70 69bd 7ce7 8c3d
00000130: 7eb5 a53d 28e5 7f3d ea01 c03d 3a20 cf3d
00000140: fcbe f23d b0ea 9a3c 50d2 83bd 184a 0abd
00000150: 90f0 ca3d 509e 153c 5c60 ddbd ac7d d83d
00000160: 2031 9b3c 1862 90bc a013 d83b b0bf 87bd
00000170: e2fc be3d 6619 c7bd cae4 ddbd a05e d73d
00000180: cc4e a6bd e07b 8fbb 6624 af3d b086 16bc
00000190: 985b 993c a637 cfbd 0475 60bd 10ea d23c
000001a0: a6d5 d63d fcce e63d c00f 543c b2c3 9dbd
000001b0: c483 343d 365a d9bd c4e4 163d 8cab 753d
000001c0: 34f5 c13d 20b3 733d 969d 943d 409c 5c3b
000001d0: b03a f83d 3666 a4bd b463 a8bd 00b0 f83c
000001e0: bca8 ef3d 64cf e03d c0ae 55bd 5633 80bd
000001f0: 30b5 1bbd 000f 833b 90f2 b13c a867 463d
00000200: 201b f1bd 6840 a33c b001 e13c 9c6f 09bd
00000210: 18e4 adbd 223e 813d 3ee5 f8bd 3808 d33d
00000220: a466 383d d80f d7bd 0c91 9ebd 00b0 ad3a
00000230: e2fe ecbd a2ab d5bd 4050 b3bb fc37 193d
00000240: 781e 36bd ee6f ffbd 66ac c4bd a882 8dbc
00000250: 50b3 45bc 90a0 043d f8cb c3bc 4c8a 733d
00000260: 2cfa 4d3d e0cf f13b 506e 1ebc a4f8 163d
00000270: 405d 333b 1286 f4bd 8086 593b b80e 823c
00000280: 72ad 9fbd c89b f5bd 94b8 98bd 001b ee3b
00000290: 8007 373b 506e 2bbd 1475 673d 4c8f 673d
000002a0: 32b2 b5bd 10e3 e2bd a8ab d0bc aa5a 9a3d
000002b0: de9c d13d f85c 113d a63f e83d 20b1 b4bc
000002c0: 0683 8a3d a864 f3bd 3e3d 9d3d 0cdb 9b3d
000002d0: f052 7cbd dedc 8a3d 76b0 af3d 5036 5cbd
000002e0: ee37 f0bd 60d5 2e3d 1413 743d 3acc 81bd
000002f0: 2aec 95bd 4ae4 fabd d455 4f3d 88ab 613d
00000300: da88 aa3d 60ff 2abc 703b 66bd 94d4 3e3d
00000310: 3c8e eabd 4c3f d03d 886f c03c c0fe f8bc
00000320: 2060 d53d 5063 303c 00cb 2ebc b08a db3d
00000330: 80fa e3bc 808c acba 10af ee3c a417 7a3d
00000340: 2029 e23c 04f9 dd3d 7422 d43d 7eef 92bd
00000350: ee6c 93bd 70bd 22bc 4032 573d 502b 0d3c
00000360: dccd 94bd 0001 2dba c692 d63d 5c0c 90bd
00000370: 0ca9 043d c0a0 4d3b 70e8 72bd c061 b43b
00000380: b8af 7dbd ccf9 d73d 368b c83d a440 74bd
00000390: 0a94 af3d a0a8 e3bc a456 3c3d f8a0 013d
000003a0: 7c0a d1bd 1e68 d5bd 8867 cebd 3626 dcbd
000003b0: f86c b23c 7858 97bd 101f 4dbc 7811 c5bc
000003c0: d06a 1bbc 747b e7bd 641f 4fbd 28fc 0d3d
000003d0: 149a 9c3d d839 d7bc bc47 44bd 8060 8cba
000003e0: 700d c53c 2cf1 cbbd cc6d 59bd 600b 8dbd
000003f0: a839 b03c 1885 ccbc 3092 28bd 361f e7bd
