autoencoder_mpi_pipelining/layer1.pth (torch, 807837 bytes, 2 tensors)

layer.0.weight f4 [784, 256]
000000 8b ad 8a bd 47 b5 4a bc da 58 8b bc cc cf 04 bd
       -0.06771382 -0.012372321 -0.017010141 -0.032424733
000010 e7 20 8a bd 1a 15 cf bd 70 d8 91 3c 42 7d 69 3c
       -0.06744557 -0.10111447 0.0178034 0.014251055
000020 e6 5d 2a bd ce d6 bb 3c f1 93 3f 3d 1e 70 f4 bc
       -0.041593455 0.022929575 0.046771947 -0.029838618
000030 af 43 c5 bb d7 f4 3c bd 9d 3c ab 3c 32 6e 4d bd
       -0.0060200314 -0.046131935 0.020902926 -0.05015392
000040 21 82 06 3c ef 5a b4 bd 1e e9 4a bd 26 86 9d 3c
       0.008209736 -0.08806407 -0.049538724 0.019229006
000050 b7 bf 96 bc 29 72 f8 bc fc fa a3 b8 73 77 9f 3c
       -0.018401964 -0.030327873 -7.819195e-05 0.019466138
000060 39 89 21 bd 0e 6e 56 3c 09 51 b4 3c 9d 6a 8e bd
       -0.039437506 0.0130877625 0.022011297 -0.069539286
000070 b0 b0 62 bc 00 29 50 3d 13 4a 2e 3c 68 d6 03 3b
       -0.013836071 0.05082035 0.010637778 0.002011681
000080 9e 75 81 bd 02 78 8d bd 6c 8c a9 3c dd 3f 85 bd
       -0.06321262 -0.06907655 0.020696841 -0.065063216
000090 25 73 18 3d cb 6c c6 bc 1d 0f 29 bb 69 71 4a bd
       0.037219185 -0.024221798 -0.0025796362 -0.049424563
0000a0 80 19 22 3c 9a b5 74 bd 7a dc 63 bd 3d 27 be 3a
       0.009893775 -0.0597435 -0.055630185 0.0014507544
0000b0 6a 40 94 3c 1f 01 a8 bd 9b 82 85 bd 4e dd 58 bc
       0.018097121 -0.08203339 -0.06519052 -0.013236357
0000c0 4c c4 c0 bd 9b a0 7f bc 88 f4 5a 3d 76 1c d7 3c
       -0.09412441 -0.015602256 0.05345586 0.026258688
0000d0 ee 60 aa 3b f8 9f 79 bc b6 a4 62 bd 70 1c db 3c
       0.005199543 -0.015235893 -0.05533286 0.026746958
0000e0 0a ea 7c 3c f1 43 08 bd 56 4a b7 bd f1 cb 93 bd
       0.015436659 -0.03326792 -0.08949725 -0.07216633
0000f0 18 48 ef bc 26 ab a2 3c cd 59 d8 bc d5 49 81 bd
       -0.029209182 0.019857 -0.026410008 -0.063129105
000100 92 05 b4 be 72 23 87 bc 96 6f 70 bc 0f ce 1c bc
       -0.351605 -0.016496394 -0.014675042 -0.009570613
000110 b8 e1 6a bc 41 6d 87 bd f3 b2 1f bc f6 8a 2a 3c
       -0.014336042 -0.066126354 -0.009747255 0.010409107
000120 2f aa 58 3d 77 58 13 bd 41 6c dd bc c3 48 2c bd
       0.052896675 -0.03597304 -0.027029159 -0.04206158
000130 1b 6d 87 bd 5e 60 95 bd 66 c0 ab bc 03 21 6a bd
       -0.06612607 -0.07293771 -0.020965766 -0.05716039
000140 f8 1e bd 3c 16 33 bc b9 1e 4c a0 bb 44 6b b4 bc
       0.023086056 -0.00035896216 -0.0048918864 -0.022023804
000150 8e 9e 3a bd 06 90 10 c0 a0 2f 44 3c a2 35 d7 bc
       -0.045561366 -2.2587905 0.011974245 -0.026270691
000160 8a 91 7d bd d2 b5 c2 bd 11 cd 97 3c c4 e2 4d bd
       -0.061906375 -0.09507336 0.0185304 -0.05026509
000170 d5 2d 98 3b 4f f8 8c bd 36 88 8d bd 50 be d7 bd
       0.0046441355 -0.068832986 -0.06910746 -0.10534346
000180 d5 1c 6b bd 4b f4 8d bd 8b 75 21 bd 16 f4 9d bd
       -0.057400543 -0.06931361 -0.03941874 -0.07712571
000190 85 d3 61 3c da 31 9f bd 23 e0 bd bc aa 21 19 3d
       0.01378334 -0.0777318 -0.023178166 0.03738562
0001a0 39 4f 0f 3d 34 e7 9c bc 95 e8 1b bd 12 66 97 bd
       0.034987662 -0.019153215 -0.038063604 -0.07392515
0001b0 57 1d 6b bd 41 73 ae ba 16 51 61 bd a5 8b bb bd
       -0.057401028 -0.0013309495 -0.05500897 -0.091574945
0001c0 96 bd 23 bd d7 a1 4d bd d0 c1 00 bd 30 e7 25 3b
       -0.039975725 -0.05020317 -0.031434834 0.00253148
0001d0 52 6c 51 bd 9b 22 96 bd fa f8 9e be a6 58 e1 3c
       -0.051128693 -0.07330819 -0.3104933 0.027508091
0001e0 36 b6 0e 3c 4f b7 f0 3c 7d 7d 33 bd 96 b7 21 bd
       0.008710435 0.029384283 -0.043820847 -0.03948172
0001f0 b1 10 55 bd 85 e7 46 bd a2 84 b7 bd 44 a7 b9 3c
       -0.05201787 -0.048560638 -0.089608446 0.022662766
000200 7f 54 e4 bc e1 b6 0f bf 01 ec 30 bd 34 8f b1 bd
       -0.027872322 -0.56138426 -0.04319382 -0.08669892
000210 0b c5 69 bc 6c 82 b6 bd ce 42 bb bc 14 34 ec bc
       -0.01426817 -0.08911595 -0.022859003 -0.028833427
000220 6e cb bb bc 5f 18 cb bc 91 5d e1 3b e2 e3 67 bd
       -0.022924151 -0.024791894 0.006877609 -0.05661381
000230 61 f5 87 3b 84 f2 b9 bd 67 84 cf bc 76 62 72 bd
       0.0041491245 -0.09079459 -0.025331689 -0.05917593
000240 69 56 11 bf 58 59 27 bd be 26 ad bd 34 65 03 3c
       -0.56772476 -0.04085669 -0.08454655 0.008019734
000250 58 dc 40 bd 00 d2 8b 3c 32 85 16 3c 13 52 c9 bd
       -0.047085136 0.01706791 0.00918703 -0.098301075
000260 fc ba 44 bb 0a bc ad bd 7c 32 b5 3a 1e 1d b9 bd
       -0.0030018678 -0.08483131 0.001382425 -0.09038757
000270 4d ca 35 3b e2 62 71 bd f2 f3 8f 3c b0 83 2a bc
       0.002773899 -0.058932193 0.017572377 -0.010407373
000280 23 f2 ae bd f4 72 c4 bd e8 5c 21 bd a4 4b 12 bc
       -0.08542278 -0.09592238 -0.039395243 -0.008929167
000290 b4 bf 27 3c eb 5e 8c bd d4 9b d5 bc b8 71 4d bf
       0.010238577 -0.06854042 -0.026075281 -0.80251646
0002a0 f3 70 90 bd da 74 ea bd 32 00 8c bd ca 50 98 bd
       -0.07052793 -0.11448069 -0.06835975 -0.07437284
0002b0 92 1d 78 bd 37 77 90 bd 61 32 af bc 5b 21 23 bd
       -0.060575075 -0.070539884 -0.021386327 -0.039826732
0002c0 b7 1d aa bc 1a e5 90 bd 8e b3 26 bd 43 2c 8d bd
       -0.020766122 -0.07074948 -0.04069858 -0.06893208
0002d0 a6 9b 43 bd db f0 02 bc 2a 17 86 bd 6f b0 8c bd
       -0.04775586 -0.007991995 -0.06547387 -0.068695895
0002e0 32 06 97 bd 82 f6 92 bd 69 d9 40 bc 43 c2 71 bd
       -0.073742285 -0.07175924 -0.011770585 -0.059023153
0002f0 31 4a b8 3c e8 b7 17 be 78 24 b1 bd 99 67 47 bd
       0.022496315 -0.14816248 -0.08649534 -0.048682783
000300 81 65 8b bb 42 af 9c bc ed f7 c1 3c 9a b5 71 bc
       -0.0042540436 -0.019126538 0.02367779 -0.01475277
000310 83 fa 42 bd d3 17 1e bc f7 8c 43 bd 61 a9 07 bc
       -0.047602188 -0.009649235 -0.047741856 -0.008280129
000320 79 93 43 bc f8 67 8e bc 46 d4 cd bc ad 59 7a 3c
       -0.011937016 -0.01738356 -0.025125634 0.015280169
000330 87 33 a4 bc 80 db f1 bc e6 0d ff 3b a5 ef fa ba
       -0.020044101 -0.029523611 0.0077836392 -0.0019144906
000340 47 a7 64 bd 86 7c 8b 3c 32 c5 a3 bd a1 a5 53 bd
       -0.05582359 0.01702715 -0.079965964 -0.051671628
000350 50 6c c5 bd 5b 48 61 bd 2a dd dd 3c 97 af c9 3c
       -0.096397996 -0.055000644 0.027082998 0.02461986
000360 96 fc b9 bc 6c 88 9d bc 8a f2 af bc c6 94 a0 bd
       -0.02270345 -0.01923009 -0.021477956 -0.07840876
000370 4a 10 40 bd d3 2a 80 bd 5f 7b e1 bc fa 22 3a 3b
       -0.046890534 -0.06258168 -0.027524648 0.0028402195
000380 a3 be 49 3c f3 a8 e5 bd e4 a4 03 bc 17 3c 4e 3c
       0.012313518 -0.11213865 -0.008034918 0.012587569
000390 8e 84 5e bd 07 25 17 bd 8d c2 6e bd 96 f3 96 bb
       -0.054325633 -0.036900546 -0.058291007 -0.0046066744
0003a0 cc f2 90 bd 9f 29 7b bd 63 16 58 bd fb f5 63 bd
       -0.0707756 -0.06131899 -0.052755725 -0.055654507
0003b0 f3 ab 48 bd 70 10 a8 bd 30 ac 40 3c a1 8d 93 bc
       -0.04899211 -0.0820626 0.011759803 -0.01801187
0003c0 0f af 8e bd de 01 06 bd 3a 7c c2 bd ae 43 a9 bd
       -0.069669835 -0.032716624 -0.094963506 -0.08264862
0003d0 0a 8e 06 bc 46 d1 bc bd b7 a6 15 bd ae be dd bd
       -0.008212576 -0.09219603 -0.036535945 -0.10827385
0003e0 d6 7d 8d bd 92 47 9b bd 73 26 d0 bc c3 87 b2 bd
       -0.06908767 -0.0758201 -0.025408959 -0.08717301
0003f0 1b 34 47 bd a0 2e b7 bd 56 8d 15 bf 4c 8a 1a bd
       -0.048633676 -0.0894444 -0.58418787 -0.037729546

layer.0.bias f4 [784]
000000 38 5f 0a be 12 4f 7f bd 88 a6 4c bd 1b 43 c7 bd
       -0.13512886 -0.062331267 -0.049963504 -0.09729596
000010 64 18 04 be 9c ea 54 bd 32 9f cf bd 59 50 d0 bc
       -0.1289993 -0.051981553 -0.10137786 -0.025428938
000020 70 be 85 bd cb fa 93 bd 11 8d 3d bd f4 80 0b be
       -0.06530464 -0.07225569 -0.04627711 -0.1362341
000030 9a 4d 15 be e6 42 16 be b9 c0 ad bd 0d b0 90 bd
       -0.14580384 -0.14673957 -0.084840246 -0.07064829
000040 de 90 8b bd 33 de a7 bd a1 a8 13 be f2 52 35 bd
       -0.068147406 -0.08196678 -0.14419796 -0.044268556
000050 9d 11 c9 bd 62 21 1a be e8 a0 7e bd 86 56 ad bd
       -0.098178126 -0.15051797 -0.06216517 -0.08463769
000060 2c 7c 84 bd 55 8d 5e bd 7f 1e bf bd 27 83 a4 bd
       -0.064689964 -0.054334003 -0.093319885 -0.08032828
000070 50 b2 0b be 2d e6 07 be f0 6a a0 bd 61 99 87 bd
       -0.1364224 -0.13271399 -0.07832897 -0.066210516
000080 ad 31 db bc bc 31 8b bd 32 de 0e be 14 d7 a3 bd
       -0.026757086 -0.067965955 -0.13951948 -0.08000007
000090 1e 4e e3 bd 31 30 fd bd 89 af ef bd c3 ea c1 bd
       -0.11098884 -0.123627074 -0.117034025 -0.09468605
0000a0 56 87 3e be 18 6f 23 be 98 99 bc bd c4 dd 36 be
       -0.18606314 -0.15960348 -0.09208983 -0.17858034
0000b0 2f 7a 0e be 95 ee 15 be b9 28 25 be 0f 59 f0 bd
       -0.13913797 -0.14641793 -0.16128816 -0.117357366
0000c0 a9 60 04 be 78 3d 8b bd c2 29 f4 bd e5 2c d3 bd
       -0.12927498 -0.067988336 -0.11922027 -0.10311297
0000d0 b0 95 d6 bd 78 07 95 bd 53 0b 07 be c6 9e a5 bd
       -0.104777694 -0.07276815 -0.13187914 -0.08086924
0000e0 dd 55 f7 bd 8b f3 f3 bd 18 e0 05 be 5b ee f6 bc
       -0.12076924 -0.119116865 -0.13073766 -0.030142954
0000f0 1c 1b b7 bd d2 50 9d bd 07 03 69 bd f7 ef 98 bd
       -0.089407176 -0.07681431 -0.056887653 -0.07467645
000100 8f f3 62 be b5 8c 93 be 04 13 8c be 2b 03 b1 be
       -0.22163223 -0.28818288 -0.27358258 -0.3457273
000110 0e ff bf be b6 c8 e2 be 9d 78 0f bf ed e3 0b bf
       -0.3749928 -0.44293755 -0.56043416 -0.5464466
000120 5b eb 02 bf 1e 0b e1 be 67 6a f5 be b1 a6 f6 be
       -0.51140374 -0.43953794 -0.4793274 -0.4817405
000130 69 fc a0 be c3 3f 7f be 04 de 04 be 38 6d f4 bd
       -0.31442574 -0.24926667 -0.12975317 -0.11934894
000140 11 01 ae bd c9 81 cf bd 02 3b a3 bd bd 9b eb bd
       -0.08496297 -0.101321764 -0.07970239 -0.11504314
000150 b3 86 b0 bd e9 a4 b5 bd 37 68 7e bd ed 8d 10 be
       -0.08619442 -0.08869345 -0.062111106 -0.1411664
000160 44 69 0a be 11 ce 49 bd a3 e6 21 be f0 7c 69 be
       -0.13516718 -0.049268786 -0.15810637 -0.22801566
000170 bb d2 a3 be df 4a d3 be e1 77 09 bf fa 3b 19 bf
       -0.31996712 -0.4126806 -0.53698546 -0.5985714
000180 2a 1b 1e bf c8 df 2b bf 04 69 23 bf 9a 02 2e bf
       -0.617602 -0.6713834 -0.63832116 -0.6797272
000190 bf 0e 25 bf 6e 3c 33 bf 68 a5 18 bf c7 e2 15 bf
       -0.64475626 -0.70014083 -0.5962739 -0.5854916
0001a0 40 ab 07 bf 13 67 f9 be 64 00 b0 be 3d 33 2e be
       -0.5299568 -0.48711452 -0.34375298 -0.17011733
0001b0 1a 40 0e be d7 4b 4f bd 54 b1 e2 bd d7 5d 32 bd
       -0.1389164 -0.050609436 -0.11068979 -0.043546524
0001c0 54 89 71 bd 7d 82 15 be c9 36 03 be 3c 03 0b be
       -0.058968857 -0.14600559 -0.12813868 -0.13575453
0001d0 91 ed 68 bd d3 e4 4d be a0 c8 b6 be b1 a7 04 bf
       -0.056867186 -0.20106821 -0.3569994 -0.51818377
0001e0 25 a0 15 bf 16 53 30 bf 44 30 2d bf 42 cb 3d bf
       -0.58447486 -0.6887678 -0.6765177 -0.7413827
0001f0 97 54 2c bf 42 2e 30 bf 3f ce 34 bf a5 7d 22 bf
       -0.67316574 -0.68820584 -0.70627207 -0.6347297
000200 d3 5f 25 bf 71 d0 25 bf 5a 1b 41 bf 4c 06 33 bf
       -0.6459934 -0.6477118 -0.7543236 -0.69931483
000210 92 8d 2a bf 04 26 15 bf 9f f1 17 bf 6c 4b bd be
       -0.6662227 -0.5826113 -0.5935306 -0.36971605
000220 18 a9 a9 be 7a 7f a8 bd e7 53 e7 bd 07 6e e3 bd
       -0.3313682 -0.08227439 -0.112953 -0.111049704
000230 0f 4c 08 be f2 3d e6 bd aa a1 3f bd ca 68 0a bd
       -0.13310264 -0.11242284 -0.046785034 -0.03379134
000240 09 d4 18 be 09 22 cb be 92 cc fc be 2f af 14 bf
       -0.14924635 -0.39674404 -0.49374825 -0.5807981
000250 6f a6 2e bf 31 6f 38 bf 8c 40 2e bf c2 59 2e bf
       -0.6822271 -0.72044665 -0.6806724 -0.6810571
000260 62 ff 0a bf 2d 6d d9 be cf b4 b1 be 05 3b a4 be
       -0.54295933 -0.42466107 -0.34708259 -0.32076278
000270 c9 dd 95 be 8c 07 c0 be eb 3b 04 bf f1 77 26 bf
       -0.2927077 -0.37505758 -0.5165393 -0.65026766
000280 0f 34 31 bf bc c2 38 bf 2b 24 35 bf 43 58 11 bf
       -0.6922006 -0.7217214 -0.7075831 -0.567753
000290 28 1f 06 bf 13 75 b7 be 28 18 f8 bd bb 51 d2 bd
       -0.5239129 -0.35831508 -0.121139824 -0.10269495
0002a0 55 61 0e bd f0 aa 0d bd 51 af c9 bd fa 6f 9f bd
       -0.03476079 -0.034586847 -0.09847892 -0.0778503
0002b0 f7 c0 9c be 08 8d e5 be d6 2b 27 bf 4f f5 36 bf
       -0.3061597 -0.4483416 -0.65301263 -0.7146806
0002c0 c7 53 2e bf 0b 58 34 bf c3 58 0f bf ed 05 eb be
       -0.68096584 -0.7044684 -0.55994815 -0.4590296
0002d0 8c a9 ab be 8f 63 39 be 48 64 96 bd 54 c1 27 bd
       -0.33527792 -0.18104385 -0.07343346 -0.040955856
0002e0 18 6b 8d bd 2f 8b 01 be 67 00 92 be 48 fc de be
       -0.06905192 -0.1265075 -0.28515932 -0.4355185
0002f0 da 03 1e bf 44 37 31 bf 2a 6d 2d bf de 8e 2e bf
       -0.61724627 -0.69224954 -0.67744696 -0.6818675
000300 95 18 14 bf 65 5b d1 be 9a f3 05 be e1 b7 0d be
       -0.5785001 -0.4089004 -0.13081208 -0.13839675
000310 82 1c 59 bd 9f a3 05 be 95 16 17 be 41 23 71 be
       -0.053005703 -0.13050698 -0.14754708 -0.23548605
000320 67 24 c3 be 39 c9 04 bf 73 b8 24 bf ec e5 2b bf
       -0.3811371 -0.5186954 -0.6434395 -0.6714771
000330 57 55 31 bf 26 9a 14 bf 57 09 de be ed f2 8b be
       -0.69270843 -0.5804771 -0.433665 -0.27333775
000340 a2 06 23 be 21 2f 23 bc a4 21 4d 3d 93 6d 97 3d
       -0.15920499 -0.009959967 0.05008091 0.073939465
000350 82 ac 41 3d 56 a6 f9 bb 68 b4 0b be e3 e8 8f be
       0.047283657 -0.0076187057 -0.13643038 -0.28107366
000360 00 84 02 bf 50 0c 2a bf 8d 69 3b bf be ee 2d bf
       -0.50982666 -0.6642504 -0.7320793 -0.67942417
000370 17 e3 15 bf 00 81 ec be 7e 1f 70 be 9b ff be bd
       -0.58549637 -0.4619217 -0.23449513 -0.093260966
000380 d3 f3 b6 bd 06 94 01 be 45 f2 53 be c0 d2 d3 be
       -0.089332245 -0.12654123 -0.20697887 -0.41371727
000390 d5 d8 01 bf 82 ae 12 bf 7a 1b 21 bf c2 87 2c bf
       -0.50721484 -0.5729753 -0.6293255 -0.6739465
0003a0 74 23 16 bf c7 47 f5 be e0 55 a1 be a0 59 42 be
       -0.5864785 -0.47906324 -0.3151083 -0.18979502
0003b0 ea 96 92 bd 61 bd 51 bd 3b e9 9e bd 4c d3 f3 bc
       -0.07157691 -0.051205996 -0.07759329 -0.02976384
0003c0 ae 48 02 bd 4f 28 a3 bd 34 06 d9 bd ec 24 58 be
       -0.031807594 -0.07966673 -0.10596886 -0.21107835
0003d0 bc 18 ce be 87 0b 15 bf 4e cc 31 bf 2b 49 3a bf
       -0.40253246 -0.58220714 -0.6945237 -0.72767895
0003e0 6a cf 17 bf 05 4f e9 be c0 c4 34 be 89 47 e3 bd
       -0.59300864 -0.455681 -0.17653179 -0.110976286
0003f0 79 ba d4 bd a0 c0 aa bd 08 4d 88 be b4 36 ce be
       -0.10387129 -0.083375216 -0.2662127 -0.4027611
