autoencoder_mpi_pipelining/layer0.pth (torch, 403805 bytes, 2 tensors)

layer.0.weight f4 [128, 784]
0.022366699 0.004939118 -0.008075182 -0.025071073 -0.035450064 -0.014612697 -0.008404975 -0.027367547
0.03188756 -0.020667274 0.0077860826 0.012350977 -0.0012387931 0.02548567 0.02184536 0.0062349867
0.009638864 -0.031567436 0.00014859864 0.016324082 0.020015348 -0.013595991 -0.029048147 -0.026349474
-0.027264277 0.023540886 0.009839552 0.008099446 0.0022854465 -0.035296123 -0.009256261 0.03180962
-0.0032885799 0.02747116 -0.027107403 -0.009963641 0.008750558 -0.014041518 -0.01097749 0.033824347
0.022773208 0.0153756915 -0.0109435795 -0.03542102 -0.018667532 -0.007977456 0.033827048 -0.020210046
-0.010771586 -0.0021001145 0.010666656 0.00028600864 -0.011212562 0.03545922 -0.015915204 0.025503198
-0.015243442 0.020275235 0.018777154 0.021669023 0.026975747 -0.011861266 0.018038921 -0.03297086
-0.0049191117 0.0067536496 0.027952574 0.0205617 0.00063256285 0.032626476 0.01442243 0.003974932
-0.030602261 -0.0016185131 0.030519338 0.014862729 -0.016210336 -0.009040331 -0.017291624 -0.014413136
-0.011817298 0.024708869 -0.033223566 0.016400065 0.032970984 -0.015697084 -0.019792255 0.019933352
-0.02144166 0.012916825 -0.032563724 -0.018197495 -0.031067487 0.031109812 -0.0152618 0.004450628
0.015490388 -0.02703199 -0.01742638 -0.030651059 0.025891079 0.034056365 0.0015819499 0.03226326
-0.015507903 0.0040424 0.0022268977 0.01396806 -0.010480579 0.004325109 -0.032368597 -0.00615885
-0.02776321 0.03270846 0.0066081034 -0.02476411 -0.0012487259 -0.027098542 0.0020021754 -0.013815987
-0.013228557 0.003679148 -0.019302761 0.030047515 -0.007314955 -0.019099712 0.031425577 -0.0058607077
0.007919056 0.019553062 0.012577002 -0.007414733 -0.017650932 -0.020530839 0.0041236538 -0.011305184
-0.024185339 -0.029167237 -0.010895257 -0.0025652605 -0.029662611 -0.013266815 0.016044911 -0.0139910625
0.0023735338 -0.027090227 0.018568767 -0.027556514 0.00072198256 -0.013900034 -0.029196791 -0.031651285
-0.019648667 -0.0067423587 0.013422626 -0.022246158 0.03533676 -0.010163044 0.02459682 0.0075326394
0.028251216 0.003839625 0.03268518 -0.00097343756 -0.029811507 0.020728193 0.015343714 0.034935586
-0.006377191 -0.023718448 0.008702717 0.0066282325 -0.015205729 0.0016191092 0.01981665 0.00040613755
-0.0008801776 0.018200211 0.00093582703 0.019458529 -0.02757262 0.031745486 0.01912111 0.006414588
0.031372644 0.017128251 -0.002882004 0.033134684 -0.03333916 -0.0064949566 -0.0077933674 -0.032647092
-0.0013733507 -0.008676951 0.011065249 -0.009551832 -0.022098947 0.013554344 0.01818924 -0.004790353
0.00089441455 -0.010393671 0.0055095004 -0.004604702 0.0035726046 -0.028633025 0.023744894 -0.01605914
-0.0121135125 -0.006235923 0.013268561 0.0029357546 0.0088735055 0.035511393 -0.035617314 0.024593495
0.034665335 0.007005662 0.014910886 -0.00942315 -0.00020650882 0.00090546696 0.019042343 0.0321736
-0.011652393 0.011701976 -0.011267531 -0.022147413 0.028249457 0.024225377 0.01953879 -0.019057965
0.0076739155 0.011268744 0.0012531324 0.009779662 -0.026876481 0.031199673 -0.01434445 0.032510333
0.021450218 -0.031236466 -0.02709294 0.013246481 0.014971959 -0.0067036455 0.006480017 0.01628095
-0.00940394 0.022983735 0.0018033811 -0.03556282 0.0072469288 0.0072231167 0.030329902 -0.026735954
00000000: 5e3a b73c 53d8 a13b c54d 04bc da61 cdbc
00000010: 1634 11bd 186a 6fbc 05b5 09bc e831 e0bc
00000020: 889c 023d 6a4e a9bc 6522 ff3b c15b 4a3c
00000030: 005f a2ba 53c7 d03c 0af5 b23c dc4e cc3b
00000040: 53ec 1d3c db4c 01bd 25d1 1b39 15ba 853c
00000050: 3af7 a33c b8c1 5ebc 61f6 edbc dada d7bc
00000060: 5559 dfbc d1d8 c03c 1336 213c 8ab3 043c
00000070: 6ec7 153b ab92 10bd 93a7 17bc ce4a 023d
00000080: 3785 57bb 330b e13c 5810 debc 8a3e 23bc
00000090: 805e 0f3c 650e 66bc eeda 33bc 668b 0a3d
000000a0: e18e ba3c 53ea 7b3c b34c 33bc a215 11bd
000000b0: a7ec 98bc e0b3 02bc 3b8e 0a3d 8a8f a5bc
000000c0: 4e7b 30bc 13a2 09bb 33c3 2e3c 6ef3 9539
000000d0: e5b4 37bc b03d 113d 9a60 82bc 15ec d03c
000000e0: a1bf 79bc 4018 a63c 8cd2 993c 3c83 b13c
000000f0: 3efc dc3c c155 42bc 5cc6 933c 740c 07bd
00000100: 8030 a1bb b84d dd3b ccfc e43c 0371 a83c
00000110: 93d2 253a 57a3 053d 0e4c 6c3c 2540 823b
00000120: 98b1 fabc 4a24 d4ba b103 fa3c ce82 733c
00000130: 8acb 84bc e51d 14bc 2aa7 8dbc 1325 6cbc
00000140: 579d 41bc 416a ca3c 6f15 08bd 6e59 863c
00000150: 950c 073d 2c97 80bc 5e23 a2bc 454b a33c
00000160: 6ca6 afbc 17a1 533c 8a61 05bd ea12 95bc
00000170: 3e81 febc 01da fe3c a10c 7abc 93d6 913b
00000180: 65cb 7d3c 3172 ddbc c5c1 8ebc ee17 fbbc
00000190: 8719 d43c b07e 0b3d 6e59 cf3a 7b26 043d
000001a0: dc14 7ebc 1c76 843b 25f1 113b 4ada 643c
000001b0: bcb6 2bbc a5b9 8d3b ef94 04bd 2ed0 c9bb
000001c0: ac6f e3bc 4ef9 053d ca88 d83b 1ade cabc
000001d0: 4aac a3ba c3fd ddbc ee36 033b 735c 62bc
000001e0: 97bc 58bc dc1d 713b d320 9ebc 3526 f63c
000001f0: 4ab2 efbb 0077 9cbc 1bb8 003d 2e0b c0bb
00000200: eebe 013c be2d a03c c50f 4e3c 4af7 f2bb
00000210: b098 90bc 4a30 a8bc b71f 873b 6139 39bc
00000220: 5520 c6bc 21f0 eebc 0582 32bc ee1d 28bb
00000230: 01ff f2bc 0e5d 59bc 9e70 833c c53a 65bc
00000240: 4a8d 1b3b 53ec ddbc 871d 983c 33be e1bc
00000250: 6e43 3d3a f8bc 63bc 1c2e efbc c7a4 01bd
00000260: 3ef6 a0bc 01ef dcbb 93ea 5b3c 933d b6bc
00000270: 47bd 103d e582 26bc 457f c93c 5cd4 f63b
00000280: 186f e73c 38a2 7b3b e5e0 053d 4a2e 7fba
00000290: 4337 f4bc 2cce a93c 3364 7b3c 9e18 0f3d
000002a0: c1f7 d0bb 314d c2bc d795 0e3c a531 d93b
000002b0: 7321 79bc 4a38 d43a 8756 a23c dcee d439
000002c0: b8bb 66ba 9c18 953c 4a52 753a 7e67 9f3c
000002d0: fadf e1bc 8e07 023d e0a3 9c3c 7731 d23b
000002e0: 9a80 003d 8c50 8c3c 01e0 3cbb 3cb8 073d
000002f0: a58e 08bd a5d3 d4bb 815f ffbb f5b8 05bd
00000300: 0102 b4ba c529 0ebc 054b 353c 4a7f 1cbc
00000310: da08 b5bc 0a13 5e3c 9a01 953c 65f8 9cbb
00000320: 2577 6a3a 374a 2abc 0a89 b43b 0ae3 96bb
00000330: 5c22 6a3b ce8f eabc a784 c23c 758e 83bc
00000340: c177 46bc b756 ccbb 6164 593c ca65 403b
00000350: 2e62 113c 6574 113d 76e3 11bd 4c78 c93c
00000360: 3dfd 0d3d c18f e53b ca4c 743c 8e63 1abc
00000370: 4a8a 58b9 dc5c 6d3a b0fe 9b3c 77c8 033d
00000380: aee9 3ebc a5b9 3f3c 739b 38bc 7e6e b5bc
00000390: 686b e73c 4c74 c63c d00f a03c 731f 9cbc
000003a0: 7875 fb3b 8aa0 383c 2540 a43a e03a 203c
000003b0: 112c dcbc 7596 ff3c fc04 6bbc 8e29 053d
000003c0: 5eb8 af3c 9ee3 ffbc 03f2 ddbc c507 593c
000003d0: f34c 753c 41aa dbbb 5356 d43b a05f 853c
000003e0: fc12 1abc 6348 bc3c 6e5f ec3a 52aa 11bd
000003f0: a577 ed3b e5af ec3b 6a76 f83c 5c05 dbbc

layer.0.bias f4 [128]
0.033564735 0.018794721 -0.013359253 0.026457852 0.034556307 -0.03295663 0.020623732 0.027754512
0.009739174 0.032132436 -0.0029631683 -0.035670497 -0.011181087 -0.031667124 0.03324948 0.008882072
-0.032476444 -0.013816 0.014923544 -0.0079303775 -0.009337796 -0.020304587 -0.032465946 -0.017168054
0.033939272 -0.0132233845 0.016289253 -0.015151365 -0.014652048 0.015939845 0.004245009 -0.008979904
0.027144859 -0.004884656 -0.032070886 0.0032848802 -0.009767805 -0.019742604 -0.03353851 -0.0121509945
-0.0074051027 -0.024767203 -0.01638367 0.006695441 0.00031900834 -0.0026508188 0.024634443 -0.0061084544
0.03042511 0.004912223 -0.028943276 0.009630945 0.00493211 0.0026298421 0.015262974 -0.0234329
-0.006841132 -0.032471087 -0.0041178935 -0.00172194 -0.033269424 -0.033504896 -0.007221576 0.0225478
-0.026601244 0.014323154 -0.0052765184 -0.0037327623 -0.0004761943 0.009685432 0.024932487 0.022030724
0.014849425 -0.028947137 0.02683552 0.0053184545 -0.0009961001 -0.012011835 0.009944776 -0.023620866
0.031970315 0.011198214 -0.033479594 0.009756893 0.008951617 0.0224505 0.009542478 0.027255643
0.009290283 -0.029169943 0.014945887 0.009708567 -0.026275035 -0.011373503 0.008873118 -0.021535793
0.01781015 0.01904511 0.011430081 -0.03532333 0.017981509 0.0009724243 0.007326612 0.012655799
-0.025629116 -0.01988938 0.02099351 0.0072110086 -0.010950805 0.014448677 0.017968953 0.0016176574
0.030015454 -0.03276449 0.034594566 0.022275712 0.030330868 -0.02884024 0.028406225 -0.028914172
-0.031911254 -0.027691247 0.023326138 0.03314064 -0.02549326 0.016616374 0.008663505 0.029528342
00000000: 2d7b 093d 63f7 993c c5e0 5abc 23be d83c
00000010: ea8a 0d3d 88fd 06bd 1af3 a83c 6e5d e33c
00000020: 0e91 1f3c 4d9d 033d b731 42bb 3a1b 12bd
00000030: e130 37bc 63b5 01bd 9b30 083d 1c86 113c
00000040: 0506 05bd 815c 62bc e181 743c 6aee 01bc
00000050: 8efd 18bc ce55 a6bc 03fb 04bd 05a4 8cbc
00000060: e803 0b3d e5a6 58bc 0a71 853c 6e3d 78bc
00000070: 250f 70bc 4794 823c b719 8b3b 7320 13bc
00000080: e55e de3c 770f a0bb c35c 03bd 2547 573b
00000090: 2509 20bc 3ebb a1bc ad5f 09bd f714 47bc
000000a0: 81a6 f2bb 97e4 cabc 0c37 86bc 6e65 db3b
000000b0: 9340 a739 5cb9 2dbb 2cce c93c 6e29 c8bb
000000c0: 153e f93c b7f6 a03b 731a edbc 1ccb 1d3c
000000d0: 8a9d a13b 6e59 2c3b 8e11 7a3c 5af6 bfbc
000000e0: 932b e0bb 6700 05bd 65ef 86bb b8b2 e1ba
000000f0: 8545 08bd 6e3c 09bd f8a2 ecbb 2ab6 b83c
00000100: daea d9bc aaab 6a3c a5e6 acbb 5ca1 74bb
00000110: b8a9 f9b9 a5af 1e3c 373f cc3c c779 b43c
00000120: 014b 733c 8c22 edbc 2ad6 db3c 6e46 ae3b
00000130: 938f 82ba 4acd 44bc 6aef 223c 8c80 c1bc
00000140: 4ef3 023d b778 373c e621 09bd 60db 1f3c
00000150: cea9 123c 1cea b73c 0e58 1c3c 3a47 df3c
00000160: 4536 183c cef5 eebc 98df 743c ae10 1f3c
00000170: be3e d7bc ee57 3abc 8e60 113c d56b b0bc
00000180: 97e6 913c 7e04 9c3c 3c45 3b3c 32af 10bd
00000190: f54d 933c 4aea 7e3a 1314 f03b 455a 4f3c
000001a0: 27f4 d1bc 0eef a2bc 95fa ab3c 534a ec3b
000001b0: 016b 33bc 25ba 6c3c a033 933c 9307 d43a
000001c0: f8e2 f53c 0f34 06bd 08b3 0d3d 8e7b b63c
000001d0: 7178 f83c 5e42 ecbc 2cb4 e83c 6add ecbc
000001e0: 60b5 02bd c1d8 e2bc 7516 bf3c 7bbe 073d
000001f0: 3ed7 d0bc 101f 883c 60f1 0d3c 6ce5 f13c
