autoencoder_mpi_pipelining/layer3.pth (torch, 406429 bytes, 2 tensors)

layer.0.weight f4 [784, 128]
000000 16 cf 71 bc 7b 17 45 3c 49 e0 68 be 9e ac 93 bd
       -0.014758846 0.012029524 -0.22741808 -0.072106585
000010 a5 76 23 be 5d 18 0d 3a f6 9e 5a 3d d3 bf 6d be
       -0.15963228 0.00053823536 0.053374253 -0.23217706
000020 3c 7b 2c be c4 5a 93 3d d4 c1 47 3c 8a 5f fa 3c
       -0.16843885 0.071950465 0.012192208 0.030563135
000030 04 91 b3 3d d9 1e a0 3d 39 d2 90 c0 49 41 2b be
       0.08767894 0.07818384 -4.525662 -0.16724123
000040 da f6 a1 be 19 00 a7 be e8 b1 60 bd 1d 9d d8 bd
       -0.31633645 -0.32617262 -0.054857165 -0.10576842
000050 da ba 94 be 84 35 3e bd 2a 70 c2 bd 9a 3b 44 be
       -0.29048806 -0.046437755 -0.0949405 -0.19163361
000060 b6 4a 08 c0 92 ce a7 3d ee 67 b8 be 52 d7 b4 3d
       -2.12956 0.08193697 -0.36016792 0.088301316
000070 f2 d1 85 be b2 36 27 be 8a 06 24 be 20 cd 1e bd
       -0.26136738 -0.16329458 -0.1601812 -0.03876984
000080 4f b0 02 bf a3 05 68 be 17 47 49 bc 9c f4 11 be
       -0.51050276 -0.226584 -0.012285016 -0.14253467
000090 9d b2 e1 bd 21 5a 3f be 97 b4 6b be 3e d6 a4 bd
       -0.11020396 -0.18686725 -0.23018108 -0.08048676
0000a0 b1 d1 78 be 5d 10 2c be 19 76 c1 be 70 06 9c 3d
       -0.24298741 -0.16803117 -0.37785414 0.07618415
0000b0 5b a3 14 be fc ec 8a be 23 b5 b1 be 1b 39 93 3a
       -0.1451544 -0.2713393 -0.3470851 0.0011232229
0000c0 89 1e 48 c0 17 23 ce be 5e eb 29 be 14 d1 ab bd
       -3.1268637 -0.40261146 -0.16593692 -0.08389488
0000d0 0e ad 0f be 78 f3 94 bd 96 70 50 be 15 81 32 be
       -0.14030859 -0.072730005 -0.20355448 -0.17432053
0000e0 50 32 46 be 62 82 73 be af 6f 70 bd 32 1b 9b be
       -0.1935513 -0.23780206 -0.05870026 -0.30294186
0000f0 e3 48 a4 bd e8 b7 22 be fe b7 da be db ba 82 be
       -0.080217145 -0.15890467 -0.427185 -0.25533184
000100 8f f2 b3 bd 2b 0a 17 c0 09 70 57 be 3c d6 b4 be
       -0.08786499 -2.3599956 -0.21038832 -0.35319698
000110 f4 cb c8 be 17 21 37 bc 27 bc 6a bd 54 67 2e bd
       -0.39218104 -0.011177323 -0.057308342 -0.04257901
000120 59 b1 78 be 45 86 70 be 5e 08 2e bc c7 90 0d be
       -0.24286403 -0.2348872 -0.010622112 -0.1382476
000130 99 e6 bf bd 4d 96 67 bd 7b e8 d9 be d5 13 0c be
       -0.09370155 -0.056539822 -0.4256018 -0.1367944
000140 30 b4 a5 bd 13 15 47 3d 5e ae 9e be 25 95 9c be
       -0.08091009 0.048604082 -0.30992407 -0.30582538
000150 7c 94 df bc ee 3d 43 bd 0a a0 ab bd c2 d7 bf be
       -0.027292483 -0.047666483 -0.083801344 -0.37469298
000160 4f 58 12 be 7c 84 6f be 4d d8 a2 be 8b d0 da bd
       -0.142915 -0.23390383 -0.3180565 -0.10684308
000170 c6 b1 9e bd 57 e4 5b be 12 83 71 bf 5c 7d 56 bd
       -0.07748751 -0.21473823 -0.9434062 -0.052365646
000180 6d a2 bb be f8 78 d0 be 22 b4 6e bd d6 3e 89 bc
       -0.3664736 -0.40717292 -0.058277257 -0.016753595
000190 91 d8 91 bd c8 31 03 be ae a4 20 bf fd 44 c3 be
       -0.07121385 -0.12811959 -0.6275128 -0.3813857
0001a0 fc 12 9f bd 1b ff 48 be 07 7b 53 be 4a 2b ee bc
       -0.07767293 -0.19628565 -0.206524 -0.029073376
0001b0 a7 90 36 bd ff 9c 9d be 5b ca a4 be b4 32 43 3d
       -0.044571545 -0.3078384 -0.32185635 0.047655776
0001c0 f2 62 ba bf 56 ba 11 bf 8f 56 59 bd 1e e6 1c bd
       -1.4561446 -0.5692495 -0.053061064 -0.038305394
0001d0 2e 3d 24 be 20 c2 46 be 4f f7 8d be 7a 64 85 bd
       -0.16038963 -0.1940999 -0.27727744 -0.06513305
0001e0 51 b8 ac bd bc e1 30 be 21 db 7c be c0 ab 32 be
       -0.08433593 -0.17273611 -0.24692966 -0.1744833
0001f0 ca 07 34 be cb ac 50 bf 19 23 e9 be 73 6e d9 bc
       -0.17581096 -0.8151366 -0.4553459 -0.026541924
000200 9c 29 20 be d4 4f 39 bd 3b 23 a5 be 33 e2 9d bc
       -0.15640873 -0.045242146 -0.3225344 -0.0192729
000210 f0 b9 81 bd 29 82 fb bc 37 98 4d bd a5 74 a4 be
       -0.06334293 -0.030701714 -0.05019399 -0.32120243
000220 55 46 30 be c8 d0 9b 3d e6 7b 28 bd d4 7b 79 bc
       -0.1721433 0.07608181 -0.041133784 -0.015227277
000230 ca d5 a4 bc 44 a7 a3 3d 92 8a 80 c0 b6 e0 15 be
       -0.020121474 0.07990888 -4.0169153 -0.14636502
000240 41 8d ce be 06 14 b4 be 26 e9 3a be 78 37 42 bd
       -0.40342143 -0.35171527 -0.18253002 -0.04741618
000250 45 0a 6e be ed c5 90 3d 05 f1 f8 bd f3 5a 42 be
       -0.23246105 0.07069001 -0.12155346 -0.18980007
000260 d5 e7 f6 bf 50 76 a9 bd d5 1d f2 be e8 7a aa 3d
       -1.92895 -0.082745194 -0.47288385 0.08324224
000270 e4 b4 56 be 6b b8 23 be 32 42 92 be 22 94 e3 bd
       -0.20967442 -0.15988319 -0.28566128 -0.111122385
000280 2c 33 0b bf 45 5b 2e be 2e 60 93 bd c1 6f 0d be
       -0.5437496 -0.17027004 -0.07196079 -0.13812162
000290 58 29 17 be e5 48 53 be bb 24 79 be 05 78 1c be
       -0.14761865 -0.20633276 -0.24330418 -0.15280159
0002a0 18 e6 41 be d3 61 09 be fc eb b7 be d7 64 66 bd
       -0.1893543 -0.13416223 -0.3592223 -0.056248512
0002b0 44 bf 52 be 83 78 52 be b1 d3 6f be bf 0d 86 3d
       -0.20580775 -0.20553784 -0.23420598 0.065455906
0002c0 90 83 61 c0 39 34 eb be 9f ed 47 bc ac b8 55 bd
       -3.523655 -0.4593828 -0.012202649 -0.05217807
0002d0 4c 02 70 bd 6a 8a 1a bd f3 99 a2 be 58 1d 39 be
       -0.05859594 -0.03772966 -0.3175808 -0.180776
0002e0 48 47 b7 be 2f d1 a2 be 93 0c f7 bc d3 bc c0 be
       -0.3579657 -0.3180022 -0.030157363 -0.3764406
0002f0 dc 32 83 3d 67 4c e7 bb 7a f7 be be 48 04 8d be
       0.06406185 -0.0070586684 -0.37298185 -0.2754233
000300 67 db 90 bc 63 c3 24 c0 a6 1c 37 be 61 70 e5 be
       -0.017682744 -2.5744255 -0.17882022 -0.448123
000310 cf d0 b1 be 1b df 54 bd f0 a5 aa bd 5d 98 36 bd
       -0.3472962 -0.051970582 -0.08332431 -0.0445789
000320 ff bd 96 be 5c 73 7c be 14 5c 31 3d ba 11 8e bd
       -0.2944183 -0.24653381 0.043300703 -0.06936975
000330 53 92 b2 bd a5 cf 79 bc 12 92 be be 4c 39 07 be
       -0.087193154 -0.01524726 -0.37220818 -0.13205451
000340 ff 0c 8a 3d c6 e7 b3 3d 41 08 b0 be ec c5 97 be
       0.0674076 0.08784442 -0.34381297 -0.2964319
000350 4b 17 eb bd be 56 f4 bd 17 c9 23 be 64 a1 ee be
       -0.11479052 -0.11930607 -0.15994678 -0.46607506
000360 f0 2a c9 bd ae 5b bd be 7a 51 97 be 6f 3a 17 be
       -0.09822643 -0.3698401 -0.2955435 -0.14768384
000370 22 31 a6 3c bc 01 57 be 08 de 88 bf c7 7b 0d 3b
       0.0202871 -0.20996755 -1.0692759 0.002158867
000380 eb fd aa be 37 0c f2 be 1d 7b 59 bc 4f c3 9d bc
       -0.3339685 -0.47274944 -0.013273981 -0.01925817
000390 46 74 dd bd 9d 66 9d bd f3 26 5c bf b3 00 cf be
       -0.10813193 -0.076855876 -0.8599693 -0.4043022
0003a0 86 10 4b bd 73 c2 8a be d7 70 8e be 16 5d 59 3d
       -0.049576305 -0.27101478 -0.27820465 0.05306729
0003b0 a2 1b 25 be 96 60 c1 be 99 0d ad be a8 6c 5a bb
       -0.16123822 -0.37769002 -0.33799437 -0.0033328924
0003c0 ea c9 cf bf 7d 2a fe be 39 12 3b be e0 3e 1e 3d
       -1.6233494 -0.4964179 -0.1826867 0.03863418
0003d0 5f cf 4b be 3c d6 60 be 9c 75 37 be dc 04 20 be
       -0.19903325 -0.21956724 -0.17915958 -0.15626854
0003e0 3c f1 98 bd 4a 3d 85 be c9 c9 9d be 26 cd 8e bd
       -0.07467887 -0.26023322 -0.30818012 -0.06972723
0003f0 1a bd 6c 3b 54 a8 68 bf a7 9f 0e bf 04 d8 81 3d
       0.0036123456 -0.9088185 -0.5571236 0.0634003

layer.0.bias f4 [784]
000000 73 9d 68 bf 97 8e 92 bf 23 ce 74 bf f7 da 8a bf
       -0.9086525 -1.1449765 -0.9562704 -1.0848073
000010 dc 5e 77 bf 0a 84 7d bf e4 f5 71 bf 8d 59 6f bf
       -0.9662912 -0.990296 -0.94515824 -0.9349602
000020 57 00 7a bf 8a ae 7c bf 1f 1e 82 bf df 96 88 bf
       -0.9765677 -0.98703825 -1.0165442 -1.0671042
000030 ba da 6c bf b3 5e 7f bf 5d aa 86 bf f9 f3 68 bf
       -0.9252125 -0.99753875 -1.0520741 -0.9099727
000040 4e fe 6e bf fc d5 71 bf fe ea 69 bf 0a fe 83 bf
       -0.9335679 -0.9446714 -0.91374195 -1.0311902
000050 2d b9 65 bf c3 18 79 bf 8d 69 86 bf 3e 86 78 bf
       -0.8973568 -0.9730341 -1.0500962 -0.9707984
000060 90 dc 8b bf 5c 56 85 bf 4e da 77 bf 95 70 8a bf
       -1.0926685 -1.041698 -0.9681748 -1.0815607
000070 0e ca 84 bf 7c b3 88 bf 86 6b 77 bf 04 97 83 bf
       -1.0374162 -1.0679774 -0.9664844 -1.0280461
000080 8d 90 86 bf d4 c5 87 bf 9c 23 8c bf b1 5f 86 bf
       -1.0512863 -1.0607247 -1.0948367 -1.0497953
000090 9e e0 72 bf 35 c7 6c bf fb 8a 4f bf cd 9c 4b bf
       -0.9487399 -0.92491466 -0.8107144 -0.79536134
0000a0 3d ff 69 bf 03 d9 5c bf 9b 51 55 bf 56 0e 74 bf
       -0.9140509 -0.86268634 -0.83327645 -0.95334375
0000b0 df ca 5e bf 6d 08 64 bf c6 ec 6d bf ba 8d 75 bf
       -0.87028307 -0.89075357 -0.9293941 -0.9591938
0000c0 2d e0 81 bf ee ae 61 bf a1 55 86 bf ab 5a 69 bf
       -1.0146538 -0.88157547 -1.0494882 -0.91153973
0000d0 54 d2 71 bf 78 13 64 bf 7d 3b 85 bf 91 37 79 bf
       -0.9446156 -0.89092207 -1.0408779 -0.9735041
0000e0 41 cb 86 bf db 53 79 bf d2 fb 87 bf f8 11 8c bf
       -1.0530778 -0.9739358 -1.0623724 -1.0942984
0000f0 8b 4c 7b bf a9 d8 73 bf 81 1c 81 bf a9 e9 54 bf
       -0.9816367 -0.9525247 -1.0086824 -0.8316904
000100 e7 b0 3e bf e8 9a 17 bf ae a5 1c bf c6 ab 10 bf
       -0.7448868 -0.59220743 -0.6119031 -0.56512105
000110 9c 02 12 bf a5 ed 0a bf 9d b9 00 bf 13 1c d2 be
       -0.5703523 -0.54268867 -0.50283223 -0.41037044
000120 d5 99 fd be 14 0e f0 be 09 87 e2 be b1 fa fc be
       -0.49531427 -0.4688574 -0.4424365 -0.49410012
000130 fa 2b fd be e2 8c 24 bf 80 b6 37 bf d8 6e 84 bf
       -0.49447614 -0.6427747 -0.7176285 -1.0346327
000140 d1 19 80 bf 14 dd 6f bf 45 e9 79 bf 86 f0 8b bf
       -1.0007879 -0.93696713 -0.97621566 -1.0932777
000150 f0 74 85 bf 99 a0 77 bf ae 07 85 bf 70 c4 81 bf
       -1.0426311 -0.9672943 -1.0392969 -1.0138073
000160 79 d1 65 bf fa b9 7c bf 63 d3 71 bf 8a 15 27 bf
       -0.89772755 -0.9872128 -0.94463176 -0.6526724
000170 11 b4 f7 be f0 c4 e4 be 5c de f3 be 64 99 fc be
       -0.48379567 -0.446815 -0.47630584 -0.49335778
000180 2b 64 c9 be 16 1e ba be 5a 4f a3 be 3a 0f c7 be
       -0.39334235 -0.3635108 -0.31896478 -0.38878804
000190 81 87 c7 be d7 0f ea be bc 14 b4 be 94 e2 ef be
       -0.3897057 -0.4571521 -0.3517207 -0.46852553
0001a0 46 35 ea be b1 fc 05 bf de b3 25 bf d8 8b 55 bf
       -0.4574377 -0.523387 -0.6472758 -0.8341651
0001b0 6c 48 6c bf 99 c9 6e bf 9f f4 7d bf 70 2c 7d bf
       -0.92298007 -0.93276364 -0.9920139 -0.9889593
0001c0 b9 88 8d bf 50 31 74 bf 52 6c 5b bf 77 96 70 bf
       -1.105735 -0.95387745 -0.8571216 -0.9397959
0001d0 49 23 83 bf 19 e8 39 bf 36 82 21 bf 82 26 01 bf
       -1.0245143 -0.7261978 -0.6308931 -0.50449383
0001e0 1f 2c fb be 22 19 e8 be 4d 5a 99 be b3 a4 ce be
       -0.490571 -0.45331675 -0.29951707 -0.4036003
0001f0 e1 2e c0 be 3c 9a 7b be 2f b9 ad be 93 3b a9 be
       -0.37535766 -0.24570554 -0.33930346 -0.33053264
000200 38 42 56 be ec 73 93 be 9e a2 bb be 3b 24 b2 be
       -0.20923698 -0.2879938 -0.36647505 -0.34793267
000210 44 ff db be 92 92 c7 be 67 d3 bd be 4b d4 e3 be
       -0.4296819 -0.38979012 -0.3707535 -0.44497904
000220 38 72 22 bf e9 16 3a bf 0b 75 59 bf fe f4 6f bf
       -0.63455534 -0.7269121 -0.8494422 -0.93733203
000230 d7 a6 6e bf 7e 6e 84 bf ec 8e 74 bf 9c 67 84 bf
       -0.9322333 -1.034622 -0.9553058 -1.0344119
000240 b6 01 28 bf 07 7c 09 bf ba e5 d3 be 67 57 cb be
       -0.6562761 -0.53704876 -0.41386205 -0.3971512
000250 c5 48 e3 be ae b9 99 be 0b 81 c2 be 4e 22 64 be
       -0.44391456 -0.30024475 -0.37989077 -0.22278711
000260 4b 37 42 be 22 6b 23 be c5 34 a8 bd 11 70 0e be
       -0.18966405 -0.15958837 -0.0821319 -0.13909937
000270 f3 26 92 bd 33 bd 21 be cf 40 6f be f3 a9 ac be
       -0.07136335 -0.1579483 -0.23364566 -0.3372341
000280 fc 51 ad be 0a 92 b7 be 62 3c ab be 09 4d e1 be
       -0.33851612 -0.35853606 -0.33444506 -0.44004086
000290 c1 f5 dd be 89 95 11 bf 10 5d 4d bf 1f f8 81 bf
       -0.43351558 -0.568688 -0.8022013 -1.0153846
0002a0 d9 d0 81 bf 12 73 74 bf ee b2 7b bf 3d 8c 3f bf
       -1.014186 -0.95488083 -0.983199 -0.7482336
0002b0 d8 8d 1b bf fd 80 e6 be 2b 2b dd be 9f fb 99 be
       -0.6076331 -0.45020285 -0.43196997 -0.30074784
0002c0 02 0a b8 be 20 4d bc be 07 5e 79 be a4 7d 4a be
       -0.35945135 -0.36777592 -0.24352275 -0.1977449
0002d0 cd b0 08 be 79 f9 84 bd e6 2f 87 bd e0 d4 c4 bc
       -0.13348694 -0.06492896 -0.06600933 -0.024027288
0002e0 ce 1f fb bb 83 79 b0 bd cc 39 2e be 57 f7 0e be
       -0.0076637035 -0.086169265 -0.17014235 -0.1396154
0002f0 02 76 85 be 1a 86 ce be ed 01 a4 be 86 49 ef be
       -0.26066595 -0.40336686 -0.3203272 -0.4673578
000300 24 5e f7 be f1 d3 01 bf 08 26 29 bf 3e f4 83 bf
       -0.4831401 -0.5071402 -0.66073656 -1.0308912
000310 cf 5d 82 bf c9 b4 7d bf 9b 00 6c bf ae 76 29 bf
       -1.0184878 -0.9910398 -0.92188424 -0.66196716
000320 ae 42 fe be 6f 92 d9 be 06 40 b1 be 7f 66 b2 be
       -0.49660248 -0.42494532 -0.34619159 -0.34843823
000330 e4 32 aa be 6a ab 5b be de 20 8d be 33 e4 3f be
       -0.3324195 -0.21452108 -0.27564138 -0.18739395
000340 3a d5 c2 bc d1 cb 21 3d b3 74 2e bd 25 ac 4e 3c
       -0.023783315 0.039501015 -0.04259176 0.012614285
000350 8c b8 35 3c ce 50 42 bd 60 a1 cb bd f6 28 08 be
       0.011091363 -0.047440343 -0.09942889 -0.13296875
000360 11 26 5b be 53 5d 84 be e3 c3 96 be 8b 78 d6 be
       -0.2140124 -0.2585245 -0.29446325 -0.41888842
000370 65 3c ea be a8 0f f5 be 85 ad 28 bf ea 5e 6a bf
       -0.45749202 -0.47863507 -0.6588977 -0.9155108
000380 8e 2a 79 bf 40 8d 6d bf e7 50 31 bf 1f 97 00 bf
       -0.9733056 -0.92793655 -0.6926407 -0.5023059
000390 47 2d f4 be 8f 1f da be 8c 74 d0 be 76 0d a6 be
       -0.47690794 -0.42602202 -0.40713918 -0.32432145
0003a0 2c a2 6d be 32 a3 69 be 46 9b d4 bd b4 18 13 be
       -0.23206395 -0.2281616 -0.103811786 -0.14364892
0003b0 ea 2b 02 bd 1c ee 1b 3d db 93 a9 bd 4c 24 a3 bd
       -0.03178016 0.038068876 -0.08280154 -0.079659075
0003c0 4b 5e 57 bd 8e 05 ce bd 19 6d 5a bd ba c0 3d be
       -0.05258016 -0.10059653 -0.0533267 -0.1853055
0003d0 92 07 7f be f2 e5 59 be 97 14 a5 be 9d 7f e3 be
       -0.24905232 -0.21279123 -0.3224227 -0.444333
0003e0 36 ba cb be e2 1d f5 be 42 49 21 bf 48 4e 79 bf
       -0.39790505 -0.4787436 -0.6300241 -0.9738507
0003f0 4d 3f 69 bf b4 9c 79 bf 74 60 2f bf a1 0b e1 be
       -0.91112214 -0.97504735 -0.6850655 -0.43954185
