autoencoder_mpi_pipelining/layer1.pth (torch, 807837 bytes, 2 tensors)

layer.0.weight f4 [784, 256]
00000000: 43bb 73bd 2cff adbd 3423 62bd 54f5 753b
00000010: 2d6a 2f3c 5b8f 2dbd 7d47 753c db80 623c
00000020: e0ca 9b3c 8643 90bd 7ca7 c2bd d261 4dbd
00000030: eda8 423b 707f c1bc a8a1 993c fa50 bdbd
00000040: cd03 433d 481e 24bd 3152 94be e7bd 61bd
00000050: fccc c7bd b36f c3bd da80 393b 0560 b3bd
00000060: d63e 35bd 123c 60bd cd20 f73b 084f 2ebe
00000070: 34b4 90bd 67ab 9cbc 785a 88bd 3ac8 5ebd
00000080: 38a2 5ebd 8478 86bd 01cc be3b c388 3fbd
00000090: 83f3 e5bc dab8 3dbd 631a 073c d3b7 0cbd
000000a0: 3677 46bd ce8c 83bd 6aae 543c 3335 1cbd
000000b0: 9303 7fbd d501 0bbd d4ab b2bb c3b0 c3bc
000000c0: 582c afbd df65 e6bc 2027 f5bc 2ec3 a03c
000000d0: 56f1 47bc 7979 493c 4dba 4e3d 42f6 913b
000000e0: 6bcb c8bd ef41 25bd 2f17 8abd 293b 4f3d
000000f0: 998a 28b9 fdaa 19bd 5d91 38bd c3ec 07bb
00000100: 6263 afbd 95cb 7fbc 5012 623c b5f2 abbd
00000110: caa4 00c0 cd49 4cbd b292 b3bd 8cc7 36bd
00000120: 88fe 94bd 8cf9 673c 0430 3a3c a9d0 9fbb
00000130: 3c28 8e3c 4a3e c0bd ab59 a93c 8d14 1abd
00000140: cbc3 70bd 5b0e 81bd 13ad 7d3c 5d30 b8bd
00000150: 2246 fcbd bc82 30bc 85cf b9bd 712f c0bd
00000160: 7b29 c03c cd6b 60bd 5433 9dbd 9d89 85bd
00000170: 88c9 bebd b595 26bc 1cdb 91bd baaa 153c
00000180: 6968 02bf f990 21bd cfb5 5fbd c56b 76bd
00000190: 356a 84bd d9d8 1f3d 7c0c aabd 30d0 08bd
000001a0: 362b 51bc daee a9bb 4b67 afbd b772 3bbd
000001b0: d2a7 6a3b 9fa3 31bd feb5 c4bd dc0f 7ebc
000001c0: 7001 69bd 7f80 35bd 3334 9dbd ff10 81bd
000001d0: 6753 133d 711d 933b b454 c7bd b214 dabc
000001e0: 3d39 08bf f75f bdbd 98ae e7bd 317a 8dbd
000001f0: 150e 4fbd 490b efbc 3c5a 33bc f454 cabc
00000200: a5b9 24bc 8a43 87bd 055a bd3c 24f7 f4bb
00000210: d759 5ebd 0ef2 cabc e463 02bc 2b31 ef3c
00000220: 7747 c7bc 788f 71bc 5e2e 84bd 7e1d 05bd
00000230: bbf7 85bc 6bd5 98bd 0ab1 00bd 9f64 88bd
00000240: 2595 b3bf e711 24bc d2e4 13bc bc49 b7bd
00000250: 10f4 2dbd dda1 6fbd 0220 32bd 20e8 7cbd
00000260: c511 12bd fd8a 31bd 37c3 9abc 9127 b1bc
00000270: 133d b7bd 5aa2 9fbc 61fd b9bc 8ca1 32bd
00000280: 1560 75be 6daf fc3c 608b bdbb 4447 483c
00000290: 8853 d0bd 8a4c cfbd 6182 15bd 4b46 c8bd
000002a0: fe9c 8e3c 1d26 06bc 1839 193c 9da4 06bb
000002b0: eb86 a3bd cb3b a5bd 3b23 003c 4b5c fabd
000002c0: cecb 9c3b f610 dbbc d683 b83c c3a3 3cbd
000002d0: cb04 03bc 9840 493d 63de 12bd edf8 d0bd
000002e0: 5a95 6dbd 5b2e c5bd a4f1 0dbd 6d0d 0ebd
000002f0: d51c 5a3c 2349 293d b3a8 2cbd e4c7 633b
00000300: 4ba2 acbd daa9 bdbc 91df 9ebd 8ca1 64bd
00000310: a1d5 a9bd 8525 d23c 2a51 1cbd 8fbc 95bd
00000320: 361d 95bd 5feb 86bd 2dbb 86bc 7584 5cbd
00000330: 2ac6 85bd 8339 95bd 649f 033d 7556 2a3c
00000340: d174 443d 2d1e 74bd 9b14 48bb 2066 ae3b
00000350: b647 05bd 059e a0bd e9f7 70bd 4ac5 033c
00000360: 2519 f0bd 5770 883c ed20 0f3d 9774 63bd
00000370: d4dd 9abd 85d5 3dbd 295a dbbd 5d3d 43bc
00000380: 8847 afbd 71d5 14bd 98af 433d 0409 04be
00000390: cfdd 06bd 341d e1bd c525 e93c 1065 5f3d
000003a0: 8e5f 48bd e7b8 7f3c 4947 a1bd 650e 87bd
000003b0: f0ce 053d 61f6 22bd ba07 36bd aab1 08b8
000003c0: 95cc a4bd b1e5 9cbd f575 67bd e86b b0bd
000003d0: a897 34bd 17ff 85bd 288f 123b 3008 ae3c
000003e0: 9156 a9bd 4b0c 38bd 6f1c 7dbd 1711 08bd
000003f0: 73c2 c5bd 2bdd a6bd 48fc f53c a92f b1bc
-0.05950476 -0.08495936 -0.055209354 0.003753026 0.010706467 -0.042373043 0.014970657 0.013824667
0.019017637 -0.07044129 -0.09504601 -0.050142117 0.0029702738 -0.023620337 0.018753842 -0.09243961
0.047611047 -0.04006794 -0.28968957 -0.055112746 -0.097558945 -0.09542789 0.0028305561 -0.08758549
-0.04424938 -0.054744788 0.007541752 -0.17022336 -0.07065621 -0.0191247 -0.066578805 -0.05439017
-0.054353923 -0.06565955 0.005822659 -0.046761286 -0.028070217 -0.046318866 0.008246037 -0.034354996
-0.048453532 -0.06423341 0.012981037 -0.038136672 -0.062259268 -0.033937294 -0.0054526124 -0.023887997
-0.0855338 -0.028124748 -0.029925883 0.019624319 -0.012203535 0.012297028 0.05047064 0.004454405
-0.09804424 -0.040346082 -0.06742703 0.05059353 -0.0001607336 -0.037516583 -0.045060504 -0.0020740486
-0.08563878 -0.015612503 0.013798311 -0.08395902 -2.010058 -0.04987507 -0.08768214 -0.044623896
-0.072751105 0.014158618 0.011363987 -0.004877169 0.01735317 -0.09386881 0.02067264 -0.037617255
-0.058780473 -0.06301566 0.015483159 -0.089935996 -0.12318064 -0.010773357 -0.09072784 -0.09384049
0.02345728 -0.054790307 -0.07675806 -0.06520388 -0.09315783 -0.010167529 -0.0712187 0.009134943
-0.5094057 -0.039444897 -0.054616746 -0.06016137 -0.0646557 0.03902516 -0.083031625 -0.033401668
-0.01276665 -0.005185944 -0.085646234 -0.045763697 0.0035805595 -0.04336893 -0.09605025 -0.015506711
-0.056886137 -0.044311997 -0.07675972 -0.0630207 0.03596821 0.0044895937 -0.09732953 -0.026621196
-0.5321234 -0.092468195 -0.11312598 -0.06908072 -0.05055054 -0.029180186 -0.0109468065 -0.024698712
-0.010054027 -0.06604679 0.023114214 -0.0074757505 -0.054284897 -0.024773624 -0.007958386 0.02919825
-0.02432607 -0.014743678 -0.06454156 -0.03249883 -0.016353479 -0.07462581 -0.031418838 -0.06659817
-1.402989 -0.010014034 -0.009026723 -0.089496106 -0.042469084 -0.058503974 -0.043487556 -0.06174481
-0.035661478 -0.04334544 -0.018891914 -0.021625312 -0.08947196 -0.019486595 -0.022703828 -0.043611094
-0.23962434 0.030845368 -0.005784437 0.012224022 -0.10172182 -0.101220205 -0.036501292 -0.09779032
0.017408844 -0.008187798 0.009351991 -0.0020544895 -0.07984718 -0.08068045 0.0078209 -0.12224635
0.0047850376 -0.026741486 0.022523802 -0.046054613 -0.007996748 0.049133867 -0.035856616 -0.10203729
-0.05800376 -0.09627982 -0.034654275 -0.034680773 0.013312538 0.041329514 -0.04215307 0.0034756595
-0.084293924 -0.02315228 -0.07757486 -0.055818126 -0.082926996 0.025652656 -0.03816334 -0.07311355
-0.07280962 -0.06587862 -0.016446674 -0.05383726 -0.065319374 -0.0728636 0.03213443 0.0103965895
0.047962967 -0.05959909 -0.003052986 0.005322233 -0.032539092 -0.0784264 -0.058830176 0.008042643
-0.11723546 0.01665513 0.03494351 -0.05553111 -0.075618416 -0.046346206 -0.10710556 -0.011916486
-0.085585654 -0.036336366 0.04777488 -0.12894064 -0.032926377 -0.10991898 0.028460393 0.05453974
-0.048919253 0.015608049 -0.07874925 -0.065945424 0.032668054 -0.039785746 -0.044440962 -3.259039e-05
-0.080468334 -0.07660998 -0.056508977 -0.086143315 -0.044089943 -0.06542795 0.002236316 0.021244138
-0.08268464 -0.0449336 -0.061794695 -0.033219423 -0.09656229 -0.08147653 0.030027524 -0.021629171

layer.0.bias f4 [784]
00000000: 120e 08bd e30c 06bd 7f03 1ebd fff9 35bd
00000010: 3c89 cbbd 28fd b8bd 57ce 98bd 5fef 62bd
00000020: aa0d c9bd e50a 16bd 10d6 febd 85c1 aebc
00000030: dbd3 40bd b592 b9bc 3d5e 14bd ef0f 74bd
00000040: 1cf7 82bd a9ca eabd 05ed 55bd 4e00 84bd
00000050: 8780 04bd dca9 f4bc f3ca dcbd d97b b4bd
00000060: 1b2a dcbd 2272 fabd 3c08 97bd 7391 c8bd
00000070: c425 75bd 4ee0 37bd 2da2 5abd 7299 fabc
00000080: 509e 48bd 9d4d 08be 3430 10be f780 52bd
00000090: 6870 81bd 7a0f f4bd 80e6 1ebe 80c9 17be
000000a0: cde0 84bd 60e2 10be f4b9 25be 2f20 13be
000000b0: 46f3 d5bd a846 dbbd fea6 1ebe 419d d5bd
000000c0: 22a4 aabc 346c babc ca54 0ebe 6186 32bd
000000d0: 91e7 bdbc b7f6 ffbd d148 41bd 9815 10bd
000000e0: d1d9 13be 5037 76bd 56c2 f5bd 048e d9bd
000000f0: 4ec2 14bd 826f bfbd 3817 7dbd 81f5 c4bd
00000100: a9ae 10be 6261 48be 3722 8ebe baa8 b1be
00000110: 68f0 afbe 6394 cabe 950a 01bf 3a66 04bf
00000120: dbd2 f9be cad8 00bf b9d6 00bf 0b9a cbbe
00000130: 945b adbe 6310 9ebe 2628 11be ab64 9dbd
00000140: 10e5 87bd 9660 d9bd c01b acbd 9bd9 f6bc
00000150: c719 65bd e0d1 e4bd cfc3 cbbd c032 05bd
00000160: d05c 12be 016f 7ebd 19b0 dbbd 9bce 71be
00000170: b976 d5be abc4 e8be e4fa f8be f60c 13bf
00000180: f882 18bf f4e0 1dbf 3229 2bbf 8c20 41bf
00000190: e9e1 2fbf 369e 2ebf fb57 1cbf ca08 29bf
000001a0: d6f7 06bf be1b d2be 6998 95be ff90 0fbe
000001b0: a65d bdbd 3e2e adbd 9b2a 05be 340b 90bd
000001c0: 5140 f1bd fb41 44bd 86e2 b2bd b7b8 b0bd
000001d0: da99 e6bd cef7 38be c209 babe 8097 f0be
000001e0: 975c 11bf fe2e 34bf 5ba3 40bf 44f8 35bf
000001f0: f75e 48bf d445 2ebf e0d1 20bf c54d 2dbf
00000200: 91e5 30bf 8e99 2cbf e91b 38bf b525 43bf
00000210: 793d 44bf 9e49 1dbf b87c 14bf 5380 cbbe
00000220: 1949 a6be efbc 8dbd 7a30 11be dbe4 64bd
00000230: dae5 50bd 68b3 0dbe 83e8 9cbd 51da cfbd
00000240: ae5f 7abe ab06 cdbe bb90 ffbe e3a6 18bf
00000250: da67 2bbf 9c50 42bf f43c 3cbf f5c9 2ebf
00000260: a615 0dbf c1ca fabe 4c18 b2be a732 a7be
00000270: e8c4 bcbe 251c d9be 4b80 0bbf 153e 30bf
00000280: 78af 42bf e67f 49bf 7bb8 3cbf 1bd4 19bf
00000290: dadb 0cbf b2db acbe 9271 fabd 2d20 ddbd
000002a0: 2c77 b9bd 8784 debc a22e c8bd 6826 bdbd
000002b0: 5569 9ebe 2850 fdbe 2bbd 2bbf 2529 45bf
000002c0: f979 35bf 6717 2ebf f209 1abf a1ef eebe
000002d0: 9d40 aebe 9dc3 5abe 58b8 cfbd 55b5 04bd
000002e0: 13e7 63bd 842f 2bbe e1b9 7fbe 0646 eabe
000002f0: 0775 1fbf dac4 34bf d289 32bf 9b3e 30bf
00000300: 67a0 10bf 69b1 f5be d267 18be 5baa 8fbd
00000310: de32 cabc b200 60bd d78a 16be 4878 48be
00000320: f983 d9be 0d89 1fbf e45d 2abf 299a 44bf
00000330: d8b2 36bf b5e9 19bf f6ba d6be 73f8 8fbe
00000340: 6f6e 28be 01e7 cdbc cf17 3e3d e386 c33d
00000350: b68a 4c3d beee 32bc 3fd6 fcbd 8e9b a7be
00000360: 45c1 f8be a271 25bf 797c 2dbf 8a3e 3ebf
00000370: 1000 1abf 90bf f9be 1fa2 4dbe 8a4f 13be
00000380: ee4a ddbd e8ee c2bd 863d febd ec11 a8be
00000390: d185 0ebf b9b9 34bf f904 3bbf fedf 45bf
000003a0: 8658 2cbf 65b5 f4be 7beb b1be ff4c 34be
000003b0: b04d 9ebd e5f3 82bd f22e d0bb a773 3bbd
000003c0: ccf8 87bc 4005 46bd f9b2 0dbe d941 72be
000003d0: 5d0f eabe dc6e 12bf 5f82 3fbf 385d 46bf
000003e0: ca97 19bf a8a7 d4be 90cb 3abe 0e95 c1bd
000003f0: 9948 f9bc e4bc 01be c227 55be 59ea e2be
-0.033216543 -0.032727133 -0.038577553 -0.044427868 -0.09938285 -0.09032661 -0.07461231 -0.055404063
-0.09817059 -0.036631484 -0.12443173 -0.021332512 -0.04707704 -0.022652963 -0.036222685 -0.059585508
-0.063947886 -0.114644356 -0.052227993 -0.064453706 -0.032349136 -0.029866152 -0.10780897 -0.088126846
-0.107502185 -0.122288 -0.073746175 -0.09793367 -0.05985047 -0.044891648 -0.05337732 -0.030590747
-0.048979104 -0.13310857 -0.14080888 -0.05139252 -0.06320268 -0.119170144 -0.15517616 -0.1482296
-0.0648819 -0.14148855 -0.16184217 -0.14367746 -0.10446791 -0.10706836 -0.1549339 -0.104303844
-0.020830218 -0.022756673 -0.13899532 -0.043585185 -0.023181709 -0.12498229 -0.047188584 -0.035176843
-0.14438559 -0.060111344 -0.11999957 -0.106227905 -0.036318116 -0.0934744 -0.06178972 -0.09617139
-0.14129128 -0.19568399 -0.2776048 -0.3469904 -0.34363103 -0.39566335 -0.5040677 -0.51718485
-0.48793682 -0.50330794 -0.5032764 -0.39765963 -0.3385893 -0.30871877 -0.14175472 -0.076852165
-0.06635487 -0.106141254 -0.084037304 -0.03013306 -0.055932786 -0.11172843 -0.09949457 -0.032519102
-0.14293218 -0.06211758 -0.10726947 -0.2361397 -0.4169214 -0.45462546 -0.48628914 -0.5744165
-0.5957484 -0.61671376 -0.66859734 -0.7544029 -0.68704087 -0.6821016 -0.6107175 -0.66029036
-0.5272192 -0.4103679 -0.29217842 -0.14020155 -0.09246378 -0.084560856 -0.13004534 -0.07033387
-0.117798455 -0.047914486 -0.08734612 -0.086289816 -0.112598136 -0.1806328 -0.3633557 -0.46990585
-0.56781906 -0.70384204 -0.7524926 -0.7108195 -0.78269905 -0.680753 -0.62820244 -0.6769679
-0.6910029 -0.67421806 -0.7191759 -0.7622941 -0.766563 -0.61440456 -0.58002806 -0.3974634
-0.32477644 -0.06920802 -0.14178649 -0.055882316 -0.051000454 -0.1383797 -0.076615356 -0.101490624
-0.24450561 -0.4004415 -0.49915108 -0.5962965 -0.6695534 -0.7590425 -0.7353051 -0.6827691
-0.5511116 -0.48982814 -0.34784162 -0.32655832 -0.36868978 -0.42404285 -0.54492635 -0.6884473
-0.76048994 -0.7871078 -0.73718995 -0.6008927 -0.55022967 -0.33761364 -0.12228693 -0.10797153
-0.09055933 -0.027162803 -0.097745195 -0.09235841 -0.30939737 -0.49475217 -0.6708552 -0.77015907
-0.7088924 -0.6800446 -0.60171425 -0.46667197 -0.3403367 -0.21363683 -0.10142583 -0.032399494
-0.05564029 -0.16717345 -0.24973251 -0.4575655 -0.62287945 -0.7061287 -0.6974155 -0.6884553
-0.56494755 -0.47986916 -0.14883354 -0.070149146 -0.024682458 -0.054688163 -0.147014 -0.19577134
-0.424835 -0.623185 -0.66549516 -0.7679773 -0.71366644 -0.60122234 -0.41939515 -0.2811924
-0.16448377 -0.025134565 0.046409424 0.09547212 0.049936973 -0.010921178 -0.12345552 -0.32735866
-0.48584953 -0.64626515 -0.67768055 -0.7431418 -0.60156345 -0.48778963 -0.20081376 -0.1438581
-0.10805307 -0.09518224 -0.124140784 -0.32826173 -0.5567294 -0.7059589 -0.7305446 -0.7729491
-0.67322576 -0.47794643 -0.3474997 -0.17607497 -0.077296615 -0.063941754 -0.0063532526 -0.04576459
-0.016598128 -0.04834485 -0.13837804 -0.23657931 -0.45714846 -0.5720041 -0.74808306 -0.7748599
-0.59997237 -0.41534162 -0.18241715 -0.09452258 -0.030430125 -0.12669712 -0.20815948 -0.44319418
