autoencoder_mpi_pipelining/layer1.pth (torch, 67677 bytes, 2 tensors)

layer.0.weight f4 [64, 256]
0	0xbd4d87c8	-0.05017832
1	0x3be04ba0	0.0068449527
2	0x3d534862	0.0515827
3	0x3bed5da0	0.007243827
4	0xbd3ed0e8	-0.046585947
5	0x3aba5400	0.0014215708
6	0x3cdf87d0	0.02728644
7	0x3c81d66c	0.015849315
8	0xbd30c652	-0.043157883
9	0x3d7e97b4	0.062156394
10	0x3c8abd10	0.016935855
11	0xbbfa4560	-0.0076376647
12	0xbc8dba4c	-0.017300747
13	0xbcc81f4c	-0.024428986
14	0xbd4a8c46	-0.04945018
15	0x3d18241e	0.03714382
16	0xbd73b1dc	-0.05949579
17	0x3d18e730	0.037329853
18	0xbd7c5ff0	-0.06161493
19	0xbcbcf4c4	-0.023065932
20	0x3cc89954	0.024487175
21	0x3d33bde8	0.04388228
22	0xbbd538c0	-0.0065070093
23	0x3d1d5fae	0.038421325
24	0xbcfd233c	-0.03090059
25	0xbc652bd8	-0.013987504
26	0xbd69f500	-0.057118416
27	0x3b72ed80	0.003706783
28	0x3d7a306c	0.061081335
29	0x3a9b2400	0.001183629
30	0xbd0c5b22	-0.0342666
31	0xbd13ee50	-0.036115944
32	0xbd71fb8a	-0.059077777
33	0xbbbd3110	-0.005773671
34	0x3a387e80	0.0007037893
35	0x3d51a204	0.0511799
36	0x3c652c00	0.013987541
37	0x3d4fad94	0.050702646
38	0xbcb97540	-0.022638917
39	0xbd631ac0	-0.055445433
40	0x3ce8fe30	0.028441519
41	0xbcab57dc	-0.020915918
42	0xbcc8ad60	-0.024496734
43	0xbcd55180	-0.026039839
44	0x3d56c2be	0.052431814
45	0x3c616340	0.013756573
46	0xbbc9d130	-0.0061589703
47	0xbd0f8dd6	-0.035047375
48	0x3d4d8398	0.050174326
49	0x3cf93bcc	0.030424021
50	0x3cb3ee1c	0.021964125
51	0x3d575b7e	0.052577488
52	0x3cfb8958	0.030705139
53	0x3d7bfd1e	0.06152069
54	0xbd26bb3a	-0.040705897
55	0x3d444a28	0.047922283
56	0x3c49a9f0	0.012308583
57	0x3ce6b10c	0.028160594
58	0x3c1d1670	0.009587869
59	0x3bc389d0	0.0059673563
60	0x38bdb400	9.04575e-05
61	0xbd1d97dc	-0.038474903
62	0xbd611444	-0.054950967
63	0x3d476c8c	0.048687503
64	0x3d694334	0.056948856
65	0x3cd98840	0.026554227
66	0x3cc14b58	0.023595497
67	0xbd0633aa	-0.032764114
68	0xbd563a96	-0.052301966
69	0x3c4f4e48	0.012652941
70	0x3c73a218	0.014870189
71	0x3d2eed06	0.042706512
72	0x3d01b63e	0.03166794
73	0xbcd78434	-0.026308157
74	0x3d369490	0.044575274
75	0x3cb864e4	0.022509046
76	0x3d1b3a60	0.037897468
77	0x3c2d7f00	0.010589361
78	0xbd03ad54	-0.03214772
79	0xbd0ed22c	-0.034868404
80	0x3d748ed2	0.059706517
81	0x3cad4990	0.021153241
82	0x3d3c254a	0.045934
83	0x3d63f784	0.05565597
84	0x3c0aa4b0	0.008462116
85	0x3d34d56a	0.04414884
86	0x3d335128	0.04377857
87	0x3c217ba8	0.009856142
88	0x3d1c17c8	0.038108617
89	0x3d36e762	0.044654258
90	0xbd47dd1c	-0.04879485
91	0xbd36b40a	-0.044605292
92	0x3cc4ca1c	0.024022155
93	0xbbb44050	-0.0055008307
94	0x3cd65b08	0.026166454
95	0xbd0747f8	-0.03302762
96	0xbd1314b2	-0.03590841
97	0xbc50a270	-0.012734041
98	0xbd691d10	-0.05691248
99	0x3c548f50	0.0129736215
100	0xbc379190	-0.011204138
101	0x3beb60e0	0.0071831793
102	0xbbe7dc80	-0.007075846
103	0xbd3ffa32	-0.046869464
104	0xbcb3bc14	-0.021940269
105	0x3cfa1f04	0.030532368
106	0x3cd65e08	0.026167884
107	0x3c358ed0	0.011081412
108	0xbcccf548	-0.025019303
109	0xbd62c6dc	-0.05536543
110	0xbbd92480	-0.0066266656
111	0x3d36267e	0.044470303
112	0x3d6cef92	0.05784566
113	0xbd39c2fa	-0.04535196
114	0xbd01b300	-0.03166485
115	0xbc6624e8	-0.014046885
116	0x3c8d553c	0.017252557
117	0xbd024e5a	-0.031813003
118	0x3aef3f40	0.0018253103
119	0x3cafb644	0.021449216
120	0xbc47fb18	-0.0122058615
121	0x3b293340	0.00258179
122	0xbc67c2f8	-0.014145605
123	0xbd32260a	-0.043493308
124	0xbc3ec1d0	-0.011642888
125	0x3d106b0e	0.035258345
126	0xbd70edd4	-0.05882056
127	0xbc754838	-0.014970832
128	0x3c47f7c8	0.012205072
129	0x3cd76500	0.026293278
130	0x3b5bae00	0.003352046
131	0xbaacbbc0	-0.0013178512
132	0x3c171230	0.009220645
133	0x3cab0f24	0.020881243
134	0x3d64563a	0.055746295
135	0x3c9c8100	0.01910448
136	0x3cf78ee4	0.030219503
137	0x3d15284c	0.036415383
138	0x3d6fb56a	0.05852262
139	0xbd21bcd2	-0.039486714
140	0x3d263dda	0.04058633
141	0x3d3e59fa	0.046472527
142	0xbca0188c	-0.019542955
143	0xbc99e044	-0.018783696
144	0xbce4a854	-0.027912296
145	0xbb586a00	-0.0033022165
146	0x3c980064	0.018554874
147	0xbd7be5f2	-0.06149859
148	0xbc8aee0c	-0.016959213
149	0x3c439628	0.0119376555
150	0xbd7be484	-0.061497226
151	0x3c50fc00	0.012755394
152	0x3d511e34	0.051054195
153	0x3d3f8020	0.04675305
154	0x3d0de7c4	0.034644857
155	0xbd5acd96	-0.05341872
156	0x3d2f66b6	0.042822562
157	0x3d074c2e	0.033031635
158	0x3ccf6e7c	0.025321238
159	0xbcc89ad4	-0.02448789
160	0x3cdb0e9c	0.026740365
161	0x3c62b4e0	0.013837069
162	0xbd73392a	-0.059380688
163	0xbbae9580	-0.0053278804
164	0xbcfc706c	-0.030815326
165	0xbc5538a0	-0.013013989
166	0x3d6ab6ac	0.057303116
167	0xbd6a3f3c	-0.05718921
168	0x3d77a97a	0.06046436
169	0x3c9834fc	0.018579952
170	0xbd5de8a6	-0.05417695
171	0x3d744e94	0.05964525
172	0x3ce410a4	0.027839966
173	0x3c1d1820	0.009588271
174	0x3d4400fa	0.047852494
175	0xbc3ea5e8	-0.011636235
176	0x3d676934	0.056496814
177	0xbd795090	-0.060867846
178	0x3d1b025a	0.03784404
179	0x3ca64b44	0.020299561
180	0x3d39a55c	0.045323715
181	0x3c7eb010	0.015544906
182	0xbd7859ec	-0.06063263
183	0xbc0f8c10	-0.008761421
184	0x3d419732	0.04726333
185	0xbcde7ac4	-0.027158149
186	0xbcfd031c	-0.030885272
187	0x3b9ca6a0	0.0047806054
188	0x3d308c10	0.043102324
189	0x3d25520a	0.04036144
190	0x3c9e7aa8	0.019345596
191	0x3c320648	0.010865755
192	0xbd3a51d0	-0.04548818
193	0x3c72ebb8	0.014826708
194	0x3d74467a	0.059637524
195	0x3c1d55c8	0.009602971
196	0xbd717646	-0.058950685
197	0x3d0c2a18	0.03421983
198	0x3cc63d08	0.024199024
199	0x3cfee574	0.031115271
200	0x3d4a7d16	0.049435697
201	0xbd795a94	-0.060877398
202	0x3d0f4444	0.034977213
203	0x3d63014c	0.05542116
204	0x3d33ddb2	0.043912597
205	0xbc2ab580	-0.01041925
206	0x3d3bd884	0.045860782
207	0x3ad61f80	0.0016336292
208	0x3d4873d6	0.048938595
209	0xbd345204	-0.04402353
210	0x3d6e0d4c	0.05811815
211	0xbcf528c0	-0.029926658
212	0xbd25a600	-0.040441513
213	0x3d007bd8	0.031368107
214	0x3cfdb4c0	0.030969977
215	0xbd642c18	-0.055706114
216	0xbc8ad594	-0.016947545
217	0x3cb77730	0.0223957
218	0xbd0a31cc	-0.033738896
219	0xbcf57470	-0.029962748
220	0xbceb94e0	-0.028757513
221	0xbb79fea0	-0.0038146153
222	0xbcf92d98	-0.030417249
223	0xbc4c6a48	-0.012476511
224	0x3d29d222	0.041460164
225	0x3d3227d2	0.043495007
226	0x3d47989a	0.048729517
227	0x3c124b90	0.008929148
228	0x3d603602	0.054739006
229	0x3d3edcd8	0.04659733
230	0xbd3c4d68	-0.045972258
231	0xbd1a9a66	-0.037744902
232	0x3c952dd0	0.018210322
233	0x3ca9b744	0.02071727
234	0xbbcc5dd0	-0.0062367693
235	0x3d26ea7e	0.040750973
236	0x3d2caeb0	0.042158782
237	0x3d7c0c28	0.06153503
238	0xbd290430	-0.04126376
239	0xba9a92c0	-0.0011793002
240	0xbd670c9e	-0.056408517
241	0x3b109e60	0.0022067055
242	0xbd10ef9c	-0.03538476
243	0xbcf4d5a8	-0.029887035
244	0xbc5b9368	-0.013401844
245	0xb8aa4c00	-8.120388e-05
246	0x3c93ea18	0.01805596
247	0x3d5d4ab6	0.054026328
248	0x3d53fb5e	0.051753394
249	0x3d74eb3c	0.05979465
250	0x3cfaaffc	0.030601494
251	0xbd4aa486	-0.049473308
252	0xbb855dc0	-0.0040700138
253	0x3d6fc268	0.05853501
254	0x3c255280	0.01009047
255	0x3d072d4c	0.033002183

layer.0.bias f4 [64]
0	0x3ccdc04c	0.025116108
1	0xbcd75038	-0.026283368
2	0x3c161430	0.0091600865
3	0xbd2b17a8	-0.041770607
4	0xbd4ad714	-0.04952152
5	0x3bda1cd0	0.0066562667
6	0xbd2a7fe6	-0.04162588
7	0xbd5a5206	-0.05330088
8	0xbc247cc8	-0.010039516
9	0xbcc05040	-0.023475766
10	0x3cdb48a0	0.026768029
11	0xbd77e192	-0.060517855
12	0x3d0b5578	0.034017056
13	0xbc56aa40	-0.013102114
14	0x3d3e1e34	0.046415523
15	0xbd742158	-0.05960211
16	0x3d041960	0.032250762
17	0xbbbb89d0	-0.0057232156
18	0xbd3b92b0	-0.04579419
19	0x3d14f332	0.03636474
20	0x3d5ff534	0.054677203
21	0xbcd447d0	-0.02591315
22	0xbd1b9692	-0.037985392
23	0x3ccce2ac	0.02501043
24	0xbd54dde4	-0.051969424
25	0x3c2ffa48	0.010740824
26	0x3d028e38	0.03187391
27	0xbd05bdde	-0.032651775
28	0xbb74b700	-0.0037340522
29	0x3ce73228	0.028222159
30	0x3d75b33c	0.059985384
31	0xbb0b4540	-0.0021250993
32	0xbd244fa2	-0.040115006
33	0xbd0febec	-0.035137102
34	0x3d71dd0a	0.05904869
35	0xbc9ce720	-0.019153178
36	0x3d03611a	0.032075025
37	0x3cfbe0c0	0.030746818
38	0x3d5998e4	0.053124323
39	0x3c0534b0	0.008130237
40	0xbc762248	-0.015022822
41	0xbd50c3ec	-0.050968096
42	0xbc42a998	-0.011881255
43	0xbcd061cc	-0.025437258
44	0x3d6e92be	0.058245413
45	0x3ca239bc	0.01980292
46	0x3d1efe2e	0.038816623
47	0xbc856538	-0.016283616
48	0x3d5aa44a	0.053379335
49	0x3cbde694	0.023181237
50	0x3d05b760	0.032645583
51	0xbd0bd934	-0.034142688
52	0x3d1c001c	0.03808604
53	0xbcf880c4	-0.030334838
54	0x3d019398	0.031634897
55	0xbd0d241a	-0.034458257
56	0xbce86438	-0.0283681
57	0x3cf56abc	0.029958121
58	0x3d64a1a8	0.05581823
59	0xbc06c170	-0.00822483
60	0x3d493e76	0.049131833
61	0xbc3911a8	-0.0112957135
62	0x3d410122	0.04712022
63	0xbd62ad52	-0.055341072
