autoencoder_mpi_pipelining/layer0.pth (torch, 805725 bytes, 2 tensors)

layer.0.weight f4 [256, 784]
0	0xbce430ae	-0.027855244
1	0xbc97e1fc	-0.018540375
2	0xbc91807e	-0.017761465
3	0xbc601dca	-0.013678977
4	0xbbb14f13	-0.0054110377
5	0x3c5a1ce5	0.013312553
6	0x3bc57e93	0.0060270517
7	0xbcbbce97	-0.022925658
8	0x3d0144b5	0.031559665
9	0x3cefabf5	0.0292568
10	0xbc3ff40a	-0.011715898
11	0x3d0b0fcd	0.033950616
12	0xbc90bd47	-0.01766838
13	0xbcd2d7d5	-0.025737682
14	0x3d047b9f	0.032344457
15	0xbcf91eee	-0.030410256
16	0x3c8e7e5c	0.017394237
17	0xbd041b9a	-0.032252885
18	0xbd03d21d	-0.0321828
19	0xbc204f3c	-0.009784516
20	0x3c3c884e	0.011507107
21	0xbc43207c	-0.0119096
22	0xbd0b090d	-0.03394418
23	0xbca00900	-0.019535542
24	0xbb7242ca	-0.003696608
25	0xbcf5bf58	-0.029998466
26	0xbae349dc	-0.0017340737
27	0x3cfaf318	0.030633494
28	0x3c43c601	0.011949063
29	0xbcb9e0fc	-0.022690289
30	0xbd0454ae	-0.03230732
31	0xbc501f41	-0.012702764
32	0xbc8a734c	-0.016900681
33	0x3c8b863c	0.017031781
34	0xbc3c33ae	-0.011486931
35	0x3b81e165	0.0039636367
36	0x3c9dbf7a	0.019256342
37	0x3cfd38aa	0.030910809
38	0xbc095f05	-0.008384471
39	0xbc1b7705	-0.009488826
40	0xbc7ecc0e	-0.01555158
41	0xbc78872e	-0.015168948
42	0x3c6363ce	0.013878776
43	0xbc953760	-0.018214881
44	0x3c9e5635	0.019328216
45	0x3c6bdeca	0.014396379
46	0x3cf99ac5	0.030469308
47	0xbd07a91d	-0.033120263
48	0x3c8d6bac	0.017263256
49	0x3b57cc25	0.0032928076
50	0x3bf39bd3	0.007434347
51	0xbcf20e85	-0.02954794
52	0xbca572e0	-0.020196378
53	0xbcb1ab4e	-0.02168813
54	0x3cf0e8d5	0.029407898
55	0xbcc8622a	-0.02446087
56	0xbb193313	-0.002337639
57	0xbc68f3aa	-0.01421825
58	0xba26d0dc	-0.000636352
59	0xbc45a3fc	-0.012063023
60	0xbd0bab1d	-0.034098733
61	0xbcd825d1	-0.02638522
62	0xbc9fa64a	-0.019488472
63	0x3c5a59d7	0.013327084
64	0x3c0b089c	0.008485939
65	0xbc88b493	-0.016687667
66	0xbd042af6	-0.032267533
67	0x3c26998a	0.0101684425
68	0x3cdc7598	0.026911542
69	0xbcd0605c	-0.025436573
70	0x3d0f3353	0.034961056
71	0x3cd82d73	0.02638886
72	0xbc298f37	-0.0103490865
73	0xbc11eeea	-0.008907059
74	0x3c7f57c1	0.015584887
75	0xbd07197c	-0.03298329
76	0x3c9f25e7	0.019427253
77	0x3c43f38e	0.011959923
78	0x3c393b61	0.011305661
79	0x3c081885	0.008306627
80	0x3ce83865	0.028347204
81	0xbcfbbfb3	-0.030731058
82	0x3d0e719d	0.03477632
83	0xbd0152c7	-0.031573083
84	0x3b615c6e	0.0034387368
85	0x3b794381	0.003803462
86	0xbcd2f803	-0.025753027
87	0xbc37deea	-0.01122258
88	0x3caa906a	0.020820815
89	0x3afc79dc	0.0019262391
90	0xbd02a4ff	-0.031895634
91	0x3cc51a9e	0.024060544
92	0xbd11a618	-0.03555879
93	0xbc59ec0e	-0.013300909
94	0x3ce6b88c	0.02816417
95	0xbaef10b8	-0.0018239236
96	0x3ad0576e	0.0015895197
97	0xbcf95bb1	-0.03043923
98	0x3ca0dd7a	0.019636858
99	0x3868b24a	5.5479155e-05
100	0x3c05232a	0.00812606
101	0xbd00aa2e	-0.031412296
102	0x3c5c4baa	0.013445774
103	0x3cf7590e	0.030193832
104	0xbc1c49c0	-0.009539068
105	0xbc01fc93	-0.007933754
106	0x3cdfdf7a	0.027328242
107	0xb9e69e4a	-0.00043986953
108	0x3b78e693	0.003797923
109	0xbcac60d1	-0.02104226
110	0x3c840130	0.016113847
111	0xbcab87f5	-0.020938853
112	0xbcdeca0c	-0.027195953
113	0x3b7fb4dc	0.0039017713
114	0xbc5f9d21	-0.013648302
115	0xbb675b81	-0.0035302343
116	0xbcfc10b1	-0.030769678
117	0xbcdf7e68	-0.027281955
118	0x3c8ccf63	0.017188733
119	0xbcccb44a	-0.024988312
120	0xbcc8bf4a	-0.024505276
121	0x3c73f905	0.014890914
122	0x3c2f7de5	0.010711168
123	0x3cf88208	0.030335441
124	0xbb41b1ee	-0.0029555517
125	0x3c56800e	0.013092054
126	0x3cd6c2ba	0.0262159
127	0x3cde1968	0.027111724
128	0xbc55ab73	-0.013041365
129	0x3cb0532a	0.02152403
130	0xbc2dcf5c	-0.01060852
131	0x3c858755	0.016299883
132	0x3ceda6bc	0.02901017
133	0xbb19fb93	-0.0023495897
134	0xbcaedab7	-0.021344526
135	0xbb4b7e4a	-0.0031050616
136	0xbceb5948	-0.028729096
137	0x3c26cc8a	0.010180602
138	0xbcd07a43	-0.025448924
139	0xbd074eba	-0.033034064
140	0xbcd4b0d1	-0.025963219
141	0xbcd5dc75	-0.026106099
142	0xbc34b3d7	-0.011029205
143	0x3c893c4e	0.016752388
144	0xbcd31c0a	-0.025770206
145	0x3cc88b31	0.024480434
146	0xbc8b0787	-0.016971363
147	0xbce203ee	-0.027589764
148	0xbcbb8df1	-0.022894831
149	0x3d05105f	0.032486316
150	0x3d07d5ed	0.033163
151	0x3cc42a21	0.02394587
152	0xbcf90a25	-0.030400345
153	0x3cd6a4fe	0.026201721
154	0x3c7435c1	0.014905394
155	0x397a9db8	0.00023900613
156	0x3b8b7b25	0.0042566233
157	0xbba9f093	-0.0051861494
158	0xbc1b283c	-0.009470042
159	0x3c78106e	0.015140636
160	0x3c9815bc	0.018565051
161	0xbcb8f75c	-0.022578888
162	0xbcc8e391	-0.024522575
163	0x3c442fb7	0.011974267
164	0xbc66dbb8	-0.014090471
165	0xbcbda67e	-0.023150679
166	0xbc6fd058	-0.014637075
167	0xbbeed24a	-0.007288252
168	0x3b8c6eca	0.004285668
169	0xbcf9d06e	-0.030494895
170	0xbc860603	-0.016360288
171	0x3c5e0ff3	0.013553607
172	0xb9de35b8	-0.00042383163
173	0xbcf53b8e	-0.029935624
174	0x3c81ae1c	0.015830092
175	0xbcfa12e1	-0.03052658
176	0x3cf4c261	0.029877843
177	0xbc921f0e	-0.017837074
178	0x3cd6823a	0.026185144
179	0x3bff8f01	0.00779903
180	0xbcc0f6a1	-0.023555102
181	0xbcf998a3	-0.03046829
182	0x39f97a4a	0.00047584093
183	0xbc01f513	-0.007931965
184	0xbc169be0	-0.009192437
185	0xbc9029fe	-0.017598148
186	0xbaa0bf4a	-0.001226404
187	0x3c8031ea	0.0156488
188	0x3ca70a45	0.02039064
189	0xbcd530a1	-0.026024165
190	0xbd056abd	-0.032572497
191	0x3bcd7337	0.006269838
192	0x3c5358e1	0.012899608
193	0x3cbae4cc	0.022814177
194	0xbc9bf5c3	-0.019038087
195	0x3c71d08e	0.014759196
196	0xbb976637	-0.0046203393
197	0x3c46c441	0.0121317515
198	0xbbe3b36e	-0.00694888
199	0x3ce6285a	0.028095413
200	0xbcb316f1	-0.021861525
201	0x3b3b29b7	0.00285588
202	0xbcd8ddb7	-0.02647291
203	0xbcffe72a	-0.031238157
204	0xbce3164c	-0.027720593
205	0x3c9f9d0c	0.019484065
206	0xbcda4c97	-0.026647849
207	0xbce4d318	-0.027932689
208	0x3c89f2bc	0.016839378
209	0x3d083f8a	0.03326372
210	0xbd018838	-0.03162405
211	0xbcc90d17	-0.024542375
212	0xb9fc1801	-0.0004808307
213	0x3c95d92e	0.018292036
214	0xbd0352ea	-0.032061495
215	0xbd082cc8	-0.03324583
216	0x3c8abf1c	0.016936831
217	0x3cb417ec	0.021984063
218	0x3c0b3c37	0.008498243
219	0xbc8547ce	-0.01626959
220	0xba8e0100	-0.0010834038
221	0xbc89920a	-0.01679327
222	0xbb864e93	-0.0040987222
223	0x3c5d1221	0.013493092
224	0xbc889a15	-0.016675035
225	0x39505801	0.0001986921
226	0x3bd16dee	0.0063912785
227	0xbcf29315	-0.02961115
228	0xbcbdf2aa	-0.023187
229	0xbcc9ae57	-0.024619265
230	0x3c1673c0	0.00918287
231	0x3cdbfc4e	0.026853707
232	0xbc822880	-0.015888453
233	0x3c57c79c	0.013170149
234	0xbbfd050a	-0.007721548
235	0xbaa9d04a	-0.0012955752
236	0x3cde6635	0.027148345
237	0x3c29322a	0.010326901
238	0xbcfd1d05	-0.030897627
239	0xbaa3784a	-0.0012471762
240	0x3cc4b6b1	0.024012895
241	0xbbe37501	-0.006941438
242	0xbc2dac3c	-0.010600146
243	0x3b94b1f7	0.0045378166
244	0x3cab44ea	0.020906884
245	0xbcb84dda	-0.02249806
246	0xbcb7eee5	-0.022452781
247	0xbd0a0bbf	-0.03370261
248	0x3bc1a693	0.00590975
249	0x3b941ec0	0.0045202672
250	0x3c39ebf3	0.011347759
251	0x3c6b82e1	0.014374466
252	0xbccd7d41	-0.02508414
253	0x397de493	0.00024213111
254	0xbc67a15c	-0.014137592
255	0xbc5fa4bc	-0.013650116

layer.0.bias f4 [256]
0	0xbb911eee	-0.004428736
1	0xbcffdca1	-0.031233134
2	0xba8cf025	-0.0010752721
3	0xbc56cd6a	-0.013110498
4	0xbc39777c	-0.011319991
5	0x3c1d07f3	0.009584415
6	0xbbc55177	-0.0060216743
7	0x3d052c66	0.032513045
8	0x3c42b70a	0.01188446
9	0xbcd5be01	-0.026091577
10	0x3bd46893	0.006482193
11	0x3cfb9515	0.030710736
12	0x3ba2799c	0.0049583446
13	0x3b5fe2ca	0.0034162276
14	0xbbcf57dc	-0.0063276123
15	0xbbce00f7	-0.006286736
16	0xbccbb5a5	-0.024866888
17	0x3b686313	0.0035459443
18	0x3c3d8a5c	0.011568632
19	0xbceeef9e	-0.029166993
20	0x3cde9d21	0.027174534
21	0xbcfaefa1	-0.030631842
22	0x3ca39f17	0.01997332
23	0x3b862e9c	0.0040949117
24	0xbc018793	-0.007905859
25	0xbc94f630	-0.018183798
26	0x3c4329ca	0.011911819
27	0x3cf12008	0.029434219
28	0x3c1b6813	0.009485262
29	0x3d0ce997	0.034402456
30	0xbce19c95	-0.027540484
31	0xbd072ec7	-0.033003595
32	0x3c63b2ca	0.013897607
33	0xbc8c9913	-0.017162835
34	0x3c0dad80	0.008647323
35	0xbcadd2be	-0.021218654
36	0xbcdeffc3	-0.027221566
37	0x3c2b0f6e	0.01044069
38	0xbbfa7d2e	-0.007644317
39	0x3c58cf53	0.013233024
40	0x385c2db8	5.2494666e-05
41	0xbbf32a5c	-0.007420821
42	0xbd10c79f	-0.035346624
43	0x3b6e1625	0.0036329117
44	0x3cc4866e	0.023989882
45	0x3ba7f54a	0.0051256763
46	0xbc57f513	-0.013180989
47	0xbd03613d	-0.032075156
48	0x3d117a40	0.035516977
49	0x3ccf3cc3	0.025297528
50	0x3cd839ca	0.026394743
51	0x3d0115be	0.031514876
52	0xbb150413	-0.0022738024
53	0x3cf4252c	0.029802881
54	0x3d037d36	0.032101832
55	0xbcbf7d0c	-0.023375057
56	0xbcd41f6e	-0.025893893
57	0xbd0efe57	-0.034910526
58	0x3c2dded7	0.010612211
59	0xbcda5211	-0.02665046
60	0xbcfe5481	-0.031046154
61	0xbc830203	-0.01599217
62	0xbd05c34c	-0.032656953
63	0x3c1b1060	0.009464353
64	0xbd03ccb0	-0.032177627
65	0x3a3af293	0.0007131483
66	0xbcc03df5	-0.023467043
67	0xbd0b86f5	-0.034064252
68	0x3cdcb5a5	0.026942084
69	0xbcb7159a	-0.022349168
70	0x3cc5b577	0.02413438
71	0x3d009798	0.03139457
72	0xbceb6b11	-0.028737577
73	0xbc997b57	-0.01873557
74	0x3ce90418	0.028444335
75	0x3c46d7c1	0.012136401
76	0x3b037837	0.0020060667
77	0x3caf4751	0.021396311
78	0x3c3fb74e	0.011701418
79	0xbce3a1ea	-0.027787168
80	0x3d00b976	0.03142687
81	0x3b129537	0.002236677
82	0xbb9fcbf7	-0.0048766094
83	0x3ca6266a	0.02028199
84	0x3c232437	0.009957365
85	0x3bd51e5c	0.0065038633
86	0x3c607213	0.013699072
87	0xbce53c33	-0.027982807
88	0xbc87afae	-0.016563263
89	0xbc81bcd7	-0.015837116
90	0x3cfa2eb8	0.030539855
91	0x3cf3815a	0.029724766
92	0xbd0d106d	-0.034439493
93	0x3d091def	0.033475813
94	0x3c9791f7	0.018502219
95	0x3c391b53	0.0112980185
96	0xbc72efa5	-0.0148276435
97	0x3c82f910	0.015987903
98	0x3c005ce0	0.007834643
99	0xbd0d09be	-0.03443312
100	0xbbfc5701	-0.0077008014
101	0xbc535af7	-0.012900106
102	0x3d0664fd	0.032811154
103	0x3c8166da	0.015796114
104	0xbcda2b4a	-0.02663197
105	0x3c88e80e	0.016712215
106	0x3ca132f3	0.019677615
107	0xbcbb7177	-0.022881253
108	0x3aba1593	0.0014197103
109	0x3c75ae85	0.014995222
110	0x3c9e40f0	0.019318074
111	0xbca09ca3	-0.01960594
112	0xbb90ae4a	-0.004415308
113	0x3bcd8753	0.0062722354
114	0xbc46bb93	-0.012129682
115	0xbcd775b7	-0.026301248
116	0x3bace577	0.005276378
117	0xbb94ba93	-0.004538843
118	0x3ce16785	0.027515182
119	0x3b0e1d5c	0.002168498
120	0xbceb8c7e	-0.028753515
121	0x3cbfacf3	0.023397898
122	0x3cc49b05	0.0239997
123	0xbc1b0f8a	-0.009464154
124	0xbced6b31	-0.028981777
125	0x3c13a3a0	0.009011179
126	0xbc022605	-0.007943635
127	0x3d026090	0.03183037
128	0xbccef693	-0.02526406
129	0xbbdb859c	-0.006699277
130	0x3c952f87	0.01821114
131	0x3bdd732e	0.0067581153
132	0xbc6c7e13	-0.014434355
133	0x3c5ab573	0.013348925
134	0xbbede5c1	-0.007260055
135	0xbb1b386e	-0.0023684758
136	0xbb1d3593	-0.0023988232
137	0xb9b85edc	-0.0003516589
138	0x3d08dc1f	0.03341305
139	0xbca627ae	-0.020282593
140	0xbc41914e	-0.0118144285
141	0x3cb17de5	0.021666477
142	0xbd06627a	-0.03280876
143	0xbca8240a	-0.020524997
144	0x3b80c1e5	0.003929364
145	0xbc83fa0a	-0.016110439
146	0x3d0fcba8	0.03510633
147	0xbd0063b4	-0.031345084
148	0x3c663fd8	0.0140533075
149	0xbcf62fc1	-0.030052068
150	0xbc284117	-0.010269425
151	0x3c8b97cc	0.017040156
152	0x3c604a6e	0.01368962
153	0xbc842aee	-0.016133752
154	0xbd0484b8	-0.032353133
155	0xbc8c8d5a	-0.017157245
156	0x3bc6af01	0.0060633426
157	0xbcc0aeb1	-0.0235208
158	0x3c482dd3	0.012217957
159	0x3c53f093	0.012935775
160	0x3c0923a5	0.008370315
161	0xbc77503c	-0.015094813
162	0xbcd4cf8a	-0.025977869
163	0xbc866c8a	-0.016409177
164	0xbca30050	-0.01989761
165	0xbaaf4ddc	-0.0013374644
166	0xbd0826f7	-0.033240285
167	0xbd03de65	-0.032194514
168	0x3c698af3	0.0142543195
169	0xbc32e86e	-0.010919673
170	0x3b5c1f13	0.0033587858
171	0xbab25925	-0.0013606889
172	0xbc154a65	-0.009111975
173	0x3c1f4b4a	0.00972254
174	0x3cca331e	0.024682578
175	0x3cf9c425	0.030489037
176	0x3c0349a0	0.008013159
177	0xbcb5333a	-0.022119153
178	0xbcb11be3	-0.021619743
179	0xbc4b5201	-0.012409688
180	0xbcd154d5	-0.025553146
181	0xbd0b2e3b	-0.033979636
182	0xbccd1175	-0.025032738
183	0x3d102abf	0.035197016
184	0x3b2ff037	0.002684606
185	0x3c9521ec	0.018204652
186	0x3ccd15e7	0.025034858
187	0x3d072cda	0.03300176
188	0xbb13e3ca	-0.0022566193
189	0x3b551d37	0.0032518634
190	0xbd0c26fe	-0.034216873
191	0xbb7748a5	-0.0037732508
192	0xbc92efca	-0.017936606
193	0xbcfb7213	-0.030694043
194	0xbc7b414a	-0.01533539
195	0x3d08a663	0.033361804
196	0xbcc38f91	-0.023872169
197	0x3cce781a	0.025203753
198	0x3c656f9c	0.0140036605
199	0x3d045b75	0.032313783
200	0x3c941a10	0.018078834
201	0x3aa0b66e	0.00122614
202	0x3ca7d3fa	0.02048682
203	0x3cb2db6a	0.02183314
204	0x3c162a73	0.009165394
205	0x3cb16c4c	0.021658085
206	0x3cf4a055	0.029861609
207	0x3ca942b0	0.020661682
208	0xbd00c274	-0.031435445
209	0x3c478fae	0.012180252
210	0x3c26c96a	0.010179857
211	0xbb0d0ddc	-0.0021523153
212	0x3ca3d780	0.02000022
213	0x3bce7f37	0.0063017863
214	0xbcc5f435	-0.024164299
215	0x3cc21f33	0.023696518
216	0xbc822b0a	-0.015889663
217	0xbd0c718d	-0.034287978
218	0x3ac4d96e	0.0015018412
219	0x3d070587	0.032964256
220	0x3c1bfee5	0.009521221
221	0x3b824d53	0.003976503
222	0xbc5e2b8e	-0.013560189
223	0xbcd06227	-0.025437428
224	0xbc512cae	-0.012767
225	0x3c8860a5	0.016647646
226	0x3cc1b92c	0.023647867
227	0xbc71b62e	-0.014752908
228	0x3d0ff8bf	0.035149332
229	0x3d11c072	0.03558392
230	0x3c77c3b8	0.015122347
231	0x3bb577ca	0.0055379616
232	0xbb3e0681	-0.0028995576
233	0xbb8a754a	-0.0042254077
234	0xbcb5833e	-0.022157308
235	0xbcd570fa	-0.026054848
236	0xbcd2af9c	-0.025718503
237	0x3d10fa3f	0.035394903
238	0xbbadc041	-0.0053024595
239	0xbc245045	-0.010028903
240	0xbc8102d3	-0.015748417
241	0x3ad1f4b7	0.0016018365
242	0xba5987b7	-0.0008298116
243	0xbd092400	-0.033481598
244	0x3c76ff6a	0.015075544
245	0xbb668c01	-0.0035178664
246	0x3d0c867f	0.034307953
247	0xbcde9021	-0.027168335
248	0x3b2ac9a5	0.002606013
249	0x3bb3d513	0.005488047
250	0x3a5913b7	0.0008280831
251	0xbc2a769c	-0.010404255
252	0x3cec82b5	0.02887092
253	0xbcedb0e1	-0.029015006
254	0xbcaac28e	-0.020844724
255	0x3c87bba5	0.016568968
