autoencoder_mpi_pipelining/layer1.pth (torch, 18397 bytes, 2 tensors)

layer.0.weight f4 [32, 128]
000000 8c fd a9 bb 39 28 2e bd 42 79 d8 3d b9 f8 30 3d
       -0.005187696 -0.042518828 0.10570003 0.04320595
000010 e3 f6 ad 3d 13 c3 87 bc 40 bb 12 3c 27 b1 9b 3c
       0.084943555 -0.01657251 0.008955777 0.019005371
000020 60 58 16 3d 39 f6 f3 3c 5e 5f 88 3d 51 55 01 3e
       0.036705375 0.029780494 0.06658815 0.12630202
000030 47 54 67 bc cf 58 94 3d 31 35 64 3d 28 03 2a 3d
       -0.014119214 0.072435014 0.05571479 0.041506916
000040 cf 3f fe 3d b5 9c ba 3d 7a 85 05 3e c2 c6 09 3d
       0.12414514 0.09111921 0.13039199 0.033636816
000050 f1 2a f7 3b af 41 8d 3d aa 05 23 bd b7 dd 10 3d
       0.007542961 0.06897294 -0.039800324 0.035367694
000060 bb 17 e3 3d 9a 38 1f 3d a5 54 8d ba bd 67 22 bc
       0.110885106 0.03887234 -0.0010782672 -0.009912428
000070 30 18 c9 3d 6a 07 56 3d 9a bd b2 3d 08 e9 30 bd
       0.098190665 0.052253164 0.0872757 -0.043190986
000080 b3 10 cd 3d bf 63 d8 3d fb 65 4c 3d db 8b b5 bc
       0.10012951 0.105659 0.049901944 -0.022161415
000090 37 cc 83 bd 3c 4e a2 3d 1d 09 58 3d 4e c8 91 bc
       -0.06435435 0.07925078 0.052743066 -0.017795708
0000a0 86 4e a8 3d e6 c8 d2 3d 12 65 31 bd b1 db 3d 3d
       0.08218102 0.102922246 -0.04330928 0.046352092
0000b0 fc d0 d3 3b 97 7d 23 3d 05 6a 6f 38 1a dc d9 ba
       0.006464122 0.039914694 5.708078e-05 -0.0016621382
0000c0 a4 7f d5 3d 76 c5 e4 bc b6 91 48 3d f4 3a 90 bb
       0.10424736 -0.027926188 0.048967086 -0.004401559
0000d0 24 7c dc 3d dc 41 a9 3d 17 e5 21 3e 43 99 b9 3d
       0.107658654 0.08264515 0.15810047 0.090624355
0000e0 18 5b 5c 3c a0 d6 ad bc 78 23 b1 3d e9 d1 71 3d
       0.013449453 -0.021220505 0.08649343 0.059038077
0000f0 0f ff f5 3d 02 34 a7 3c 89 ca 3b 3d 2f ed 37 3d
       0.12011539 0.020410541 0.04584745 0.04490393
000100 0d f8 15 bc 24 1c 93 3d 2e b7 ec bc 49 b5 9f 3d
       -0.009153378 0.07183102 -0.02889594 0.07798249
000110 e8 3a c4 3d e9 56 3f 3d 2b 80 89 3d 88 57 e2 bc
       0.09581548 0.046713743 0.06713899 -0.027629629
000120 c7 7f a2 3d 8c de 44 bd 7c 62 98 bc 74 fc 94 bb
       0.07934528 -0.0480638 -0.018601649 -0.0045466963
000130 8b 6c d5 3d 77 e9 69 bd 26 36 43 bd 8e c1 8e 3d
       0.104210936 -0.057107415 -0.04765906 0.069705114
000140 92 31 e9 3a ab bf d2 3b e4 db 37 bd 9e a1 2d 3d
       0.0017791262 0.00643154 -0.04488744 0.04239046
000150 54 f3 91 3c a0 e6 93 3c f2 c4 54 3d df 11 a6 3c
       0.017816223 0.018054307 0.051945634 0.020272193
000160 7c d3 ca 3d c6 4a b3 3d d9 5a b4 bc e8 93 f5 3d
       0.09903619 0.08754496 -0.022015976 0.119911015
000170 6e 61 c4 ba 42 3e 07 3e 0f 8a 53 bc 45 d3 57 3d
       -0.001498265 0.13207343 -0.012911334 0.052691717
000180 32 33 fc 3d 95 83 d3 3d c8 c4 a1 3d f9 35 44 3d
       0.12314452 0.10327832 0.07898861 0.047903035
000190 d6 76 22 bd 05 15 c3 3d f6 fe fd 3d 72 f3 52 3c
       -0.039664112 0.095254935 0.124021456 0.012875425
0001a0 29 bb 8d 3d ed 19 f9 3d a7 b6 78 3d d2 cd c8 3d
       0.069204636 0.12163148 0.060721066 0.09804882
0001b0 41 bc a8 3c da a7 f8 3c dd 73 41 3d a3 c2 b3 3d
       0.020597579 0.030353475 0.047229636 0.087773584
0001c0 53 be 71 3d 33 25 b8 3d 09 08 58 3d 45 b0 aa bc
       0.059019398 0.0899147 0.052742038 -0.020836005
0001d0 f2 3b 70 3d 03 a2 79 bd 1a ab d1 3c d4 8c d1 3c
       0.05865092 -0.060945522 0.025594283 0.025579847
0001e0 48 6e ed 3d 2a fb f7 3a 51 23 d5 bc 2d 5e bd 3d
       0.115933 0.0018919457 -0.026017817 0.09246478
0001f0 05 c1 d5 3d ad 74 ae 3d 4d f7 16 bc ca 1c ef 3d
       0.10437206 0.08518348 -0.009214235 0.11675413
000200 d3 09 18 3a d9 e7 be bc 74 4b a4 ba 4e 1b c0 bc
       0.0005799804 -0.023303913 -0.0012534694 -0.02345052
000210 56 b0 72 3d 26 1a 1a 3d 63 4c 2e bc 24 e6 cf bd
       0.0592502 0.037622593 -0.010638329 -0.10151318
000220 3f 7d 65 3d 30 e5 04 3d 50 26 16 3d 41 26 aa bd
       0.056027647 0.032445133 0.03665763 -0.083080776
000230 fe 5b d8 bb 1e 4e cf bd d8 86 22 3d 02 f1 a5 bc
       -0.006602763 -0.101223215 0.03967938 -0.020256523
000240 1f 0b 7e 3d c4 d5 6b ba 43 af 98 bc bc 2c d5 bd
       0.062022325 -0.0008996392 -0.018638259 -0.10408923
000250 9f 9c 99 bc ac 05 04 3d 4c 43 20 bb 74 c6 2f 3d
       -0.01875144 0.03223197 -0.0024454175 0.04291387
000260 e5 36 cd 3c 71 81 62 bd 81 51 b0 bc b1 40 6d bd
       0.02505059 -0.055299226 -0.02152324 -0.057923023
000270 d6 a8 05 3d d2 eb 59 3d 75 c5 c1 3c d4 99 8e bd
       0.032631718 0.05320341 0.023653725 -0.06962934
000280 7e 7e c3 3b e3 8c de bc eb ae 5c bd 17 c4 51 3c
       0.005966007 -0.02716679 -0.053877752 0.012803099
000290 37 31 27 bd 96 7e 8a bd 2b ed 0a 3d 84 1d 22 bd
       -0.04081842 -0.067624256 0.033917587 -0.03957893
0002a0 93 a5 bd 3c 24 be 7a bc ea c4 a6 bc 71 c0 94 bd
       0.023150241 -0.015304122 -0.020357568 -0.07263268
0002b0 83 02 cd 3c fe ab b4 bc 8f f8 dc bb 49 41 41 bd
       0.025025612 -0.022054669 -0.0067434977 -0.0471814
0002c0 88 e4 d5 bd ab 4e 17 3d 1d 29 42 3b cd 68 f8 3b
       -0.104439795 0.036940258 0.0029626556 0.0075808526
0002d0 52 bc a7 bc dc eb 40 bd c2 a0 9d bd be be b8 bd
       -0.02047554 -0.047099933 -0.07696678 -0.09020756
0002e0 5a 80 d1 bd b2 c1 51 3b 69 17 c8 3c 7e 84 61 3c
       -0.10229559 0.003200632 0.024425225 0.013764499
0002f0 d3 e7 9a 3c e1 4b 94 bd e9 8f 51 bd 52 a2 59 bd
       0.01890937 -0.07241035 -0.051162634 -0.053133316
000300 ef 3e 89 bc ee 24 cc bb f8 3d 08 bc 7f ff 91 3c
       -0.016753642 -0.0062299883 -0.008315556 0.017822025
000310 3a 21 ab 3b da 7c 08 3d e8 a4 8b bd 1c 79 57 bc
       0.005222467 0.033322193 -0.06818563 -0.013151433
000320 fc 7d 04 bd 44 0e 85 bd 22 c4 7c 3d 3d 97 88 3d
       -0.03234671 -0.064968616 0.061710484 0.066694714
000330 8c f1 06 bd 03 19 64 bd cc 7f db bd 70 a7 7c 3d
       -0.0329452 -0.055687916 -0.10717735 0.06168312
000340 f9 b3 9f bd db dd 52 3c 8e 9c c5 3c 4e d8 21 3b
       -0.07797999 0.012870277 0.024122503 0.0024695578
000350 3c a0 63 bc 90 43 3c bd e1 a2 0d 3b 59 65 13 bd
       -0.013893183 -0.04596287 0.0021611976 -0.035985325
000360 bb 53 3f bd 92 6f be bd 1a f3 c9 bd 05 6d 19 3c
       -0.04671071 -0.09298624 -0.09860821 0.009364371
000370 87 3d 3f 3d 65 8e 2b 3d bd 9f 7d 3d 4e 63 03 3d
       0.046689536 0.041883845 0.061919916 0.032077126
000380 4e 80 85 3b 14 0b ab ba 3d 0f 9f bd 7c b8 b2 bb
       0.004074133 -0.0013049566 -0.07766578 -0.005454121
000390 6c 6e 82 bd 3a 91 39 bd 0b 80 8d bd 7b d5 84 bd
       -0.063687176 -0.045304514 -0.06909188 -0.06486031
0003a0 d9 8b 9c bd ba c3 7a bd 25 1f fe bc ba 9e da 3c
       -0.07643861 -0.061221816 -0.03102071 0.026687015
0003b0 44 33 0d bd 58 52 fb bb 02 fb a8 bc c1 1c 87 3d
       -0.03447272 -0.0076697282 -0.020627502 0.06597281
0003c0 9a 4d 9b bd c6 9b 43 3d b8 70 f9 3c 2d 96 88 bd
       -0.07583161 0.04775598 0.030449256 -0.06669269
0003d0 73 84 5a bd 7d d2 41 3b 5f f2 8d 3d c7 70 85 3d
       -0.05334897 0.0029574924 0.06930994 0.06515651
0003e0 a3 e9 d8 3c 65 e7 a6 bd ac 01 7d 3d a4 1f f8 3c
       0.026478594 -0.08149604 0.061769173 0.030288525
0003f0 0c 0b ca bd 73 00 4c bd 54 1f 10 bd fa 0f 8c 3d
       -0.09865388 -0.049805116 -0.035186127 0.06838985

layer.0.bias f4 [32]
000000 b4 6a 9c 3d d2 d9 a1 bd 1d 05 1a 3e 89 ad 7d 3d
       0.076375395 -0.07902874 0.15041013 0.061933074
000010 02 11 0b 3e 0d 51 09 3e e0 35 6d 3e 8f 2b 2a bb
       0.13580707 0.13409825 0.23165083 -0.0025965904
000020 76 f6 f0 3c 6a 1a 64 bd fb a3 fe 3d b0 50 d6 3d
       0.029414397 -0.055689253 0.124336205 0.10464609
000030 cf 79 45 3d 45 78 60 bd 61 7c 3c 3d d9 d6 33 3b
       0.04821187 -0.054802198 0.046017054 0.0027441292
000040 ae 16 82 bc 41 05 fd 3d 43 21 a6 3d 67 53 6a 3e
       -0.015879955 0.12354518 0.08111813 0.22883378
000050 42 f3 6f bc 3f cc 93 3d aa f0 46 3d 1f 4a 1a 3e
       -0.0146453995 0.07216691 0.04856936 0.15067337
000060 9a 28 aa 3d 81 b4 dc 3d 2d b5 1a 3e 6e 84 03 3e
       0.083085254 0.10776616 0.15108176 0.12843487
000070 45 0e 3f bd 0d b8 0f 3e dc a4 d7 bd f7 9a 00 3e
       -0.046644468 0.14035054 -0.10529491 0.12559114
