autoencoder_mpi_pipelining/layer0.pth (torch, 805725 bytes, 2 tensors)

layer.0.weight f4 [256, 784]
0.027165167 0.014918388 0.032757252 -0.004483002 -0.020917375 0.0030969426 0.03551784 -0.021533856
-0.033720095 -0.01722619 0.024759477 -0.018754773 -0.027856508 -0.021851212 -0.012306329 -0.0002052591
-0.011250462 0.03159059 -0.0027641868 -0.0003766971 0.0091045415 -0.01115257 0.024794286 0.028948402
0.001508964 0.015178911 -0.0068967217 0.0059293467 -0.018572595 0.006421017 -0.03104024 0.000976239
0.013337239 -0.02296291 -0.012586555 0.0015242887 0.037335295 0.058650956 0.018909574 0.03145833
-0.022857497 0.09376475 0.042603213 0.041389294 -0.00046423252 0.02020383 0.01699104 -0.021763453
-0.0618362 -0.07315158 -0.063700415 -0.021071834 -0.024883987 -0.016854266 0.022808885 0.028344564
-0.032917757 -0.022967821 0.029417858 -0.014933982 -0.034832597 0.010034487 -0.03155578 -0.0065819835
0.06782076 0.027835676 0.02369024 0.010920656 0.016888138 -0.017329069 0.016612655 -0.025595443
-0.021063112 0.0029491554 0.049174394 0.05189123 0.06977798 0.04581336 0.04031681 -0.013088837
-0.06785919 -0.044418905 0.007294557 -0.013152102 -0.0035714253 0.035331298 0.051509243 -0.037866898
-0.06338445 -0.063497834 0.034421057 -0.007526659 0.014382826 0.036689922 -0.020295398 -0.008609433
-0.037320618 -0.015375672 0.018357173 0.012216198 -0.002976605 -0.04183441 0.01266105 0.0094481455
0.011966551 0.0486767 0.0008700231 0.018591316 -0.038676653 -0.07623243 -0.038617868 -0.015018741
0.009504344 0.0045534833 0.043725785 0.026606616 -0.01551215 -0.055726446 0.0022951975 -0.039604492
-0.030764062 -0.023099089 -0.03199326 -0.038428884 -0.017881298 -0.028641885 0.036863282 0.016975032
-0.0126322275 -0.00332094 0.015742568 0.0029636964 0.028441058 0.026455522 -0.01990759 0.02392823
-0.018618476 -0.028028652 -0.027542964 -0.018141957 -0.034991562 0.015874391 0.025122836 0.053127334
0.055783004 -0.009665386 -0.0008588185 -0.015238672 -0.015958251 -0.028711645 -0.034137525 0.015419982
-0.018423349 0.00086763425 -0.0122459605 -0.021940133 -0.009206657 -0.034444064 0.010871514 0.02929266
-0.017978756 -0.04376427 -0.012762852 -0.017898884 0.03643357 -0.013924454 0.02751943 0.007938564
-0.010052894 0.033272672 -0.016913235 0.031143533 0.054477468 -0.046422675 0.014819864 -0.03995866
-0.03137561 -0.028102027 -0.0047682463 -0.01894104 -0.022190938 0.034027662 0.012865785 0.002554287
-0.011802038 0.02533898 -0.0053555435 -0.017168526 0.012238006 -0.03610667 -0.059721556 -0.008906225
-0.02518694 -0.02088618 -0.0565479 -0.038371954 -0.036896233 0.007872096 -0.0015766144 -0.017553039
-0.012703774 0.021202443 -0.006197452 -0.028860765 -0.015146547 -0.047641598 0.008938988 -0.046934556
0.013197869 -0.030849509 0.018911915 -0.00259658 -0.018908953 -0.0010627592 -0.010752591 -0.021448271
-0.0003931885 -0.025013573 -0.048901837 -0.03473373 0.02769008 0.019284597 -0.06402002 -0.03247063
-0.023907518 -0.015657086 -0.009459808 0.0327722 -0.038994975 -0.046716772 -0.022866813 -0.034790553
-0.03914849 -0.010145454 0.0031892282 0.003755416 -0.010008756 0.014950957 -0.04567125 -0.044000868
-0.002624796 0.0045815497 0.0034432781 0.022159016 -0.003796565 0.0022066562 -0.034306996 -0.03076916
0.028762953 0.021608211 -0.016341556 0.05267627 -0.03579328 -0.04954253 -0.018852033 -0.0002018911
00000000: 7c89 de3c 416c 743c 782c 063d 25e6 92bb
00000010: ea5a abbc 13f6 4a3b 287b 113d c567 b0bc
00000020: 151e 0abd f01d 8dbc 63d4 ca3c 9ca3 99bc
00000030: 5533 e4bc 5001 b3bc 7ca0 49bc d23a 57b9
00000040: dc53 38bc 2265 013d 5c27 35bb 6e7f c5b9
00000050: 372b 153c 45b9 36bc 631d cb3c 3325 ed3c
00000060: 6ec8 c53a f8b0 783c e5fd e1bb f74a c23b
00000070: 8e25 98bc 6567 d23b 1a48 febc 4aea 7f3a
00000080: 6f84 5a3c b61c bcbc d737 4ebc a4ca c73a
00000090: e5ec 183d fc3b 703d 40e8 9a3c 73da 003d
000000a0: a53f bbbc bc07 c03d b580 2e3d d287 293d
000000b0: 3c64 f3b9 8182 a53c cb30 8b3c 4549 b2bc
000000c0: f547 7dbd 7fd0 95bd 5d75 82bd d79e acbc
000000d0: 81d9 cbbc f511 8abc b3d9 ba3c dc32 e83c
000000e0: c5d4 06bd 0327 bcbc b8fd f03c a9ad 74bc
000000f0: a0ac 0ebd b067 243c a240 01bd aead d7bb
00000100: 9ce5 8a3d a507 e43c 0912 c23c 8dec 323c
00000110: fe58 8a3c b1f5 8dbc 4317 883c 89ad d1bc
00000120: 8c8c acbc 9e46 413b 176b 493d e68b 543d
00000130: c2e7 8e3d caa6 3b3d 3d23 253d 9072 56bc
00000140: c2f9 8abd 99f0 35bd 2e07 ef3b ea7b 57bc
00000150: 930e 6abb 8db7 103d 5bfb 523d 521a 1bbd
00000160: b5cf 81bd 270b 82bd 18fd 0c3d 31a2 f6bb
00000170: f2a5 6b3c 2c48 163d 8942 a6bc 940e 0dbc
00000180: 81dd 18bd 3eea 7bbc c861 963c 7326 483c
00000190: 2513 43bb 8f5a 2bbd 4b70 4f3c 65cc 1a3c
000001a0: 5a0f 443c 3861 473d 4312 643a d14c 983c
000001b0: 696b 1ebd c01f 9cbd c52d 1ebd 2a11 76bc
000001c0: 1cb8 1b3c 6335 953b cf19 333d 1ef6 d93c
000001d0: ac26 7ebc 6a41 64bd 066b 163b 5238 22bd
000001e0: ea04 fcbc 4d3a bdbc 5d0b 03bd 9b67 1dbd
000001f0: cd7b 92bc 63a2 eabc f4fd 163d 390f 8b3c
00000200: 67f7 4ebc 21a4 59bb 8ff6 803c 933a 423b
00000210: 39fd e83c 40b9 d83c 3e15 a3bc 2305 c43c
00000220: c685 98bc 589c e5bc c8a1 e1bc 719e 94bc
00000230: 5053 0fbd 030b 823c 68ce cd3c 0c9c 593d
00000240: b87c 643d 915b 1ebc 5522 61ba 9fab 79bc
00000250: e1ba 82bc af34 ebbc cad3 0bbd 18a4 7c3c
00000260: 90ec 96bc f371 633a 48a3 48bc cbbb b3bc
00000270: 85d7 16bc 3815 0dbd 6f1e 323c 29f7 ef3c
00000280: 2f48 93bc 2a42 33bd 481b 51bc aea0 92bc
00000290: 5e3b 153d 6523 64bc 6d70 e13c c010 023c
000002a0: e5b4 24bc ed48 083d a08d 8abc b920 ff3c
000002b0: c423 5f3d b425 3ebd 04cf 723c b1ab 23bd
000002c0: b683 00bd 3936 e6bc f33e 9cbb 3d2a 9bbc
000002d0: c5c9 b5bc 9760 0b3d 03cb 523c d365 273b
000002e0: 565d 41bc b193 cf3c 8e7d afbb 02a5 8cbc
000002f0: eb81 483c 96e4 13bd 979e 74bd 6aeb 11bc
00000300: d754 cebc 7f19 abbc c59e 67bd e92b 1dbd
00000310: 8120 17bd f7f9 003c 67a6 ceba 64cb 8fbc
00000320: 7d23 50bc bfb0 ad3c ff13 cbbb 696d ecbc
00000330: 3929 78bc d623 43bd d574 123c 733e 40bd
00000340: e03b 583c 1cb8 fcbc 29ed 9a3c 622b 2abb
00000350: f3e6 9abc 484c 8bba a32b 30bc 49b4 afbc
00000360: de24 ceb9 44e9 ccbc 4b4d 48bd f544 0ebd
00000370: 4fd6 e23c bbfa 9d3c ee1c 83bd ecff 04bd
00000380: b3d9 c3bc 4a43 80bc 4ffd 1abc 243c 063d
00000390: 32b9 1fbd 165a 3fbd 2f53 bbbc 8a80 0ebd
000003a0: 2b5a 20bd 1e39 26bc 5f02 513b 6d1d 763b
000003b0: c4fb 23bc dcf4 743c c711 3bbd 413a 34bd
000003c0: c504 2cbb d320 963b 9fa8 613b d386 b53c
000003d0: cbcf 78bb 8c9d 103b 7e85 0cbd 9b0f fcbc
000003e0: 49a0 eb3c b403 b13c bade 85bc 13c3 573d
000003f0: f99b 12bd 1ced 4abd 946f 9abc bbb2 53b9

layer.0.bias f4 [256]
0.031106234 0.025162432 0.19547884 -0.0012925252 0.091734834 0.18557051 0.09171147 0.00012630818
-0.3057845 0.11190617 0.05655412 0.03997259 0.115760654 -0.038103975 -0.025426548 0.09792841
0.092670746 0.055946387 0.007637827 0.0675929 0.034443296 0.54259825 0.13193357 0.07786233
0.17554723 0.05465205 0.16386138 0.021494212 0.124076724 0.039621424 0.103727385 0.13278419
0.0353621 0.04589754 1.4162923 1.1767751 1.9344716 0.17569199 0.08069022 0.063110285
-0.025084553 0.17078641 0.06025158 -0.31842962 0.15707453 0.0033962587 0.36745766 -0.05127785
0.19100831 -0.019955797 0.69943434 0.05174013 0.10994847 -0.02286249 0.025849015 -0.11512102
0.064566225 0.020598292 0.13615814 0.17412233 0.05152795 0.16323972 0.079186566 0.14577766
0.11951799 0.09945854 0.07426565 0.12903279 0.14102715 0.11327656 -0.020296538 -0.028822294
0.13963088 0.0008930269 -0.18013075 -0.028864864 0.026156677 -0.008273564 0.15187153 0.089286886
0.105001576 -0.03956927 -0.047535002 0.027643615 0.21299453 0.1984724 0.050271634 0.048723448
0.16835158 0.22023878 0.086539716 0.15565144 -0.000896549 -0.037815876 0.8468033 0.5664639
0.15982364 -0.04055675 0.14190644 -0.045127477 0.08288781 0.12325484 -0.006421976 0.12645127
0.043686233 -0.029548595 -0.026010906 -0.17021236 0.7044614 0.09097452 -0.0073241373 0.07094277
0.06701745 -0.15439613 0.021335239 -0.04417915 0.12544455 0.050822813 0.05531822 -0.031679135
0.1879394 0.114960425 0.12199576 0.0020450698 0.049972724 -0.029261155 0.03679326 0.020722443
0.17852159 0.05834463 0.1035639 0.14667399 0.08736875 -0.010292734 0.01945183 0.12062601
0.19756384 0.14222115 0.10915556 1.676233 0.09588218 0.00079760834 0.23642379 0.056902073
0.14321457 0.08161336 0.023575546 0.08142443 -0.014682096 0.025043221 -0.073953986 0.08583528
-0.08349004 -0.040511668 0.10588732 -0.03404561 0.008891119 0.7782613 0.014637905 -2.8832746e-05
0.12458839 0.21657823 0.12780839 0.13647085 0.26386574 -0.015746659 0.087788425 -0.19180834
0.6385534 0.084135115 0.06136359 0.27224097 0.17434074 0.67059535 0.08745974 0.14769678
0.08487642 -0.023852607 0.07286313 0.018875675 0.00770744 0.46925607 0.013883242 0.081071906
0.010382076 -0.0063577024 0.015873693 0.09745024 0.17299227 -0.009742433 0.5128721 -0.06417221
0.1916079 0.026823612 0.11256247 0.14708908 0.07254741 0.18271168 -0.03401208 0.16403662
0.040617228 0.09038887 0.13347955 0.18315895 0.12597428 -0.021545455 0.15522811 0.09989161
-0.021760136 -0.07933495 -0.012932972 0.03520317 -0.02288142 0.15603004 0.07044121 0.10854953
0.7034973 0.17473838 -0.03375863 0.06110015 0.10976367 0.08901454 0.054654922 0.07044888
1.6552109 0.00087115815 0.08494582 -0.30803838 -0.021154994 0.37006298 0.054632243 0.022102034
0.2640942 0.049997617 0.06961913 0.07218707 -0.03239375 -0.026616417 0.06939634 0.06631641
0.05198108 0.098492965 0.34384435 0.10683661 0.054586865 -0.009330135 -0.09138803 0.127075
0.08504569 0.10845404 0.085439414 0.050202176 0.10028064 -0.009921136 -0.046777356 -0.3758248
00000000: 80d2 fe3c 7221 ce3c 9b2b 483e f369 a9ba
00000010: 79df bb3d 3206 3e3e 39d3 bb3d 9871 0439
00000020: c98f 9cbe 102f e53d 4ba5 673d 4cba 233d
00000030: ec13 ed3d ea12 1cbd 564b d0bc b18e c83d
00000040: 29ca bd3d 0a28 653d bd46 fa3b 256e 8a3d
00000050: 6a14 0d3d b8e7 0a3f 9819 073e 4976 9f3d
00000060: a7c2 333e d4da 5f3d 47cb 273e a114 b03c
00000070: f01b fe3d 134a 223d 066f d43d 94f8 073e
00000080: d9d7 103d 0fff 3b3d 1149 b53f 91a0 963f
00000090: c49c f73f 9ae8 333e ea40 a53d f73f 813d
000000a0: 1f7e cdbc a2e2 2e3e 5cca 763d 3509 a3be
000000b0: 25d8 203e c493 5e3b 6923 bc3e b908 52bd
000000c0: af97 433e 577a a3bc 210e 333f 75ed 533d
000000d0: aa2c e13d 1e4a bbbc 50c1 d33c 92c4 ebbd
000000e0: 4c3b 843d c0bd a83c 0a6d 0b3e 204d 323e
000000f0: f90e 533d 5028 273e 912c a23d bd46 153e
00000100: d9c5 f43d ebb0 cb3d 9718 983d 2c21 043e
00000110: 6c69 103e 8bfd e73d ed44 a6bc bb1c ecbc
00000120: 66fb 0e3e 051a 6a3a 3274 38be 0276 ecbc
00000130: 8746 d63c d88d 07bc 3684 1b3e 0bdc b63d
00000140: 110b d73d 6313 22bd 10b4 42bd dd74 e23c
00000150: 3d1b 5a3e 593c 4b3e a1e9 4d3d 3d92 473d
00000160: 5b64 2c3e 4686 613e bc3b b13d 1763 1f3e
00000170: 6306 6bba d2e4 1abd 1ac8 583f c703 113f
00000180: cfa8 233e d61e 26bd ec4f 113e 97d7 38bd
00000190: 16c1 a93d 096d fc3d 706f d2bb 717c 013e
000001a0: 56f0 323d e50f f2bc d314 d5bc 264c 2ebe
000001b0: 9557 343f d950 ba3d 51ff efbb 714a 913d
000001c0: 7240 893d 051a 1ebe 3dc7 ae3c 32f5 34bd
000001d0: 8974 003e 952b 503d 5c95 623d fbc1 01bd
000001e0: 3073 403e 5f70 eb3d ead8 f93d 9406 063b
000001f0: 33b0 4c3d 17b5 efbc 88b4 163d 1dc2 a93c
00000200: 5dce 363e c7fa 6e3d 4f19 d43d b531 163e
00000210: 63ee b23d dba2 28bc 7259 9f3c c50a f73d
00000220: 2d4e 4a3e 6ca2 113e f38c df3d ce8e d63f
00000230: e05d c43d 9716 513a 1419 723e 2612 693d
00000240: d7a6 123e e824 a73d 8121 c13c dac1 a63d
00000250: 2d8d 70bc 7127 cd3c 3075 97bd 68ca af3d
00000260: d3fc aabd 90ef 25bd 74db d83d 6973 0bbd
00000270: 0eac 113c 223c 473f d3d3 6f3c dadd f1b7
00000280: 3328 ff3d afc6 5d3e 34e0 023e 04bf 0b3e
00000290: 6919 873e 23ff 80bc 6bca b33d 6869 44be
000002a0: 3c78 233f 084f ac3d 6358 7b3d 2b63 8b3e
000002b0: 6186 323e 23ac 2b3f 181e b33d d33d 173e
000002c0: b0d3 ad3d 8b66 c3bc 4439 953d 29a1 9a3c
000002d0: b18e fc3b 5542 f03e 8a76 633c 0709 a63d
000002e0: 9519 2a3c 4654 d0bb 8c09 823c fe93 c73d
000002f0: e324 313e ba9e 1fbc 964b 033f b86c 83bd
00000300: dd34 443e 31bd db3c 2787 e63d 859e 163e
00000310: bd93 943d c518 3b3e 4050 0bbd 37f9 273e
00000320: 405e 263d cd1d b93d ddae 083e 058e 3b3e
00000330: 67ff 003e 1880 b0bc 1ef4 1e3e f993 cc3d
00000340: 5042 b2bc 5d7a a2bd d1e4 53bc 3331 103d
00000350: d171 bbbc 57c6 1f3e 7b43 903d 374f de3d
00000360: 6618 343f 9eee 323e 7d46 0abd 2744 7a3d
00000370: c6cb e03d 414d b63d d7dd 5f3d 8147 903d
00000380: f3dd d33f 6f5e 643a 13f8 ad3d 35b7 9dbe
00000390: 3d4d adbc e578 bd3e 0fc6 5f3d 530f b53c
000003a0: 5b37 873e 4dca 4c3d 7994 8e3d d1d6 933d
000003b0: 4faf 04bd ac0a dabc ab1f 8e3d e6d0 873d
000003c0: 1dea 543d aeb6 c93d 5e0c b03e 27cd da3d
000003d0: 7a96 5f3d 6cdd 18bc a629 bbbd f31f 023e
000003e0: 6f2c ae3d 271d de3d dcfa ae3d cca0 4d3d
000003f0: f05f cd3d 438c 22bc 9d99 3fbd 1c6c c0be
