autoencoder_mpi_pipelining/layer0.pth (torch, 805725 bytes, 2 tensors)

layer.0.weight f4 [256, 784]
00000000: e564 c33c 6a6f 8a3c 68fc 0cbd 6342 06bd
00000010: d30b bd3c 1379 333b 2c2d f3bc 13ab 80bb
00000020: cc63 09bd 0a84 50bc 9e11 e13c 97ce 9f3c
00000030: 65b4 0abc 38f5 7dbc aa8c 0d3c 38ea 62bb
00000040: 434e eb3c 935b d53b 2d9e 063d acc2 fdbc
00000050: bcd1 28bc d3da 873b 75ab 8b3c 630e dcbc
00000060: 852f 633c 4af8 97bb f817 e93c 73a3 e43c
00000070: 7a94 d4bc a5f2 8cbc 73c5 c53c fa17 d53c
00000080: 4fe6 f73b 437c 5d3b 3f4e 07bd 4c65 d03c
00000090: df52 bbbb 2ba0 20bd 7667 18bd 7f09 1dbd
000000a0: 6386 eebc b247 413c 1afe 823d 0233 183d
000000b0: df86 163d 5544 2ebd 2bbf 36bd 2e5c f43a
000000c0: f1c2 dcbb 77eb a0bc d848 cbbd f175 5abd
000000d0: e1ce d7bc 1c76 8d3c 8a0f 8abb 6e13 94bb
000000e0: 258b 73bb ad6c 063d cbd6 d33b 40a9 19bc
000000f0: 71a1 e6bc fe7a 1ebd 45cd 69bd 5812 d5bc
00000100: 4e9f 9d3c 557f cdbc 75d6 db3b be9d 8dbc
00000110: 6cdd 14bd 9ea1 86bd f70c d83b d41c a0ba
00000120: 7b94 41bd 49b6 a2bb 0ced 383c ffa7 a6bc
00000130: a8d0 2d38 5730 1fbc 3c0b 943c 3e22 dbbc
00000140: ef5a 0cbb f095 013d 8023 953b 4160 733c
00000150: 98c9 63bc 6ea8 b4bc cf88 c8bc 88dd 283c
00000160: bedc 73bd fc85 a6bd 635e 42bd ab05 a0bd
00000170: 7bcb 80bd 423f cfbc 13e4 fc3b e9df 0cbc
00000180: 6ad7 c73c 25fa 98bc 2bf8 863c 6735 4a3d
00000190: a168 2dbc 45f8 ef3b 0e46 9fbb b5f5 31bd
000001a0: 5656 663c cc2b 9bbc 9a4b 5ebb be80 92b6
000001b0: 4aae 4bbc 17be 4f3b 39b6 9ebb 5ef8 e2bc
000001c0: 4a04 36ba dea4 02bc cb69 db3b e6cc 613c
000001d0: e628 583c cbd7 71bd 4ef2 4bbd 1869 78bc
000001e0: b5b9 7abd d6c8 67bc 076d c2bc afd4 7f3c
000001f0: daae 093c 1e9a 83bc a82c afbc 24b7 383a
00000200: f1a6 32bc 8a94 03bd dcae 6d3a c012 bfbc
00000210: 24d6 dc3c 6c07 2b3c 0617 0f3d d365 a8bc
00000220: 8b7b a6bc d025 1d3c e6cf 993b d200 8dbc
00000230: d352 0abc f31a 3fbc ef9d 833d cbcd 523d
00000240: 9b0b 323c 9718 02bd 8729 0cbd 691c f73c
00000250: aaf1 053d 222f 423b f387 9cbc 684e 19bd
00000260: dab2 70bb 29f1 85bc fc07 5bbc 46c3 a2bc
00000270: baa5 b5bc 6dd5 b6ba 4031 3c3c efbd 0d3c
00000280: 4918 0dbd cbb4 46bd 7806 653d 19c8 563d
00000290: 6ce4 94bb b83c 203d d0aa a8bc 3e33 0fbd
000002a0: 732c 6f3c 296f 00bd 3ff9 e8bb 488a e2bc
000002b0: 4ef7 62bc c5d8 4c3c babc d5bc b0fd 1b3c
000002c0: 533a 0bba 4577 e6bc 9cb7 2abc a7cf e33b
000002d0: f810 2dbb f4a0 01bd c038 de3b 5b07 803b
000002e0: 198a 90bc d708 78bc 5110 063d f8aa 313c
000002f0: 338d 3cbd 3d86 f73c 4eab 913c c9cb 3c3d
00000300: 1628 e4ba f099 203b 81b0 6ebc b2bc b83b
00000310: 0616 78bc 8b2f cabd a899 86bd 3207 60bd
00000320: 979e 63bc e77b de3b b4c0 a1bc acf4 bebc
00000330: bac8 a63b 2cf0 1abd b06c 2c3c 2cac 83bc
00000340: 3d66 d33a 857b 05bd f685 de3c 98b7 593b
00000350: 2e56 b8bc 6cae 30bc 09e0 e1bc 6370 673c
00000360: ad68 5bbc bcac 9cbc cdef 0ebc 4b63 853c
00000370: 7972 7a3c ee00 303d 7a19 383d 25ed f0bc
00000380: 9e50 343c 9e1c cb3c 9ca8 ebbc c39e 53bc
00000390: 5dbc 8bb9 23f6 c93c 7b36 183d 6652 35bc
000003a0: f3a5 1abd b0e4 1dbc 3e6d a6bc 790d 1bbd
000003b0: 8009 c83c 7e95 4fbc 3718 51bc 8777 ffbb
000003c0: 33bc 0dbd a686 ccbc 0af6 f03c a10d 8ebb
000003d0: 93f3 77bc 058d 303c c813 8f3c 642c 66bc
000003e0: 8848 c73b 3487 4dbc eeb6 4f3c 978f 0cbc
000003f0: 203a 193d 3e7a 7a3d 709c 8dbb 0c45 1a3c
0.023851821 0.01689883 -0.0344204 -0.032778155 0.023076927 0.0027385398 -0.029684626 -0.0039266436
-0.03354244 -0.012726793 0.02747422 0.01950769 -0.008465861 -0.015500359 0.008639494 -0.0034624469
0.028723842 0.0065111606 0.032865692 -0.030976616 -0.010303911 0.004145959 0.01704953 -0.026862329
0.01386631 -0.0046377527 0.028453812 0.02790997 -0.025949705 -0.017205546 0.024142003 0.02601241
0.0075652967 0.003379599 -0.033033606 0.025438927 -0.005716666 -0.039215248 -0.037208043 -0.038339134
-0.029116815 0.011796879 0.06396122 0.03715802 0.036749717 -0.042545635 -0.044615906 0.0018643194
-0.006737106 -0.019643528 -0.09926003 -0.053335134 -0.026343765 0.017268233 -0.004213278 -0.0045189178
-0.0037161794 0.032818485 0.0064648143 -0.009378731 -0.028153153 -0.038691513 -0.057080526 -0.026009724
0.019241001 -0.02508513 0.006708915 -0.017287131 -0.036343977 -0.06573795 0.0065933424 -0.0012215623
-0.047260743 -0.0049655777 0.011286985 -0.020343779 4.144074e-05 -0.009716115 0.018071763 -0.026749726
-0.0021416505 0.031637132 0.004551351 0.014854492 -0.013903044 -0.02205297 -0.024479298 0.010306723
-0.059536688 -0.08131024 -0.047453295 -0.07813581 -0.06288811 -0.025298718 0.0077176183 -0.008598306
0.02439471 -0.018673966 0.016475758 0.049367335 -0.0105840275 0.007323297 -0.004860646 -0.043447215
0.01405867 -0.018941782 -0.0033919574 -4.3661266e-06 -0.0124316905 0.0031698996 -0.0048435 -0.027706321
-0.0006943388 -0.007973878 0.006695961 0.013781762 0.013193345 -0.059043687 -0.049791627 -0.015161775
-0.06121226 -0.014147004 -0.023733629 0.015614673 0.008403504 -0.0160647 -0.021383598 0.0007046333
-0.01090406 -0.03212408 0.00090668886 -0.02332437 0.026957579 0.010438781 0.034934066 -0.020556366
-0.020322582 0.009591535 0.004693973 -0.017212305 -0.008442598 -0.01166414 0.06426608 0.05146579
0.010867025 -0.031761732 -0.03421929 0.030164914 0.032701172 0.0029630144 -0.019107794 -0.03742829
-0.0036727698 -0.016350346 -0.013368603 -0.019868504 -0.022173751 -0.0013949104 0.0114863515 0.008651241
-0.03444699 -0.04851226 0.055914372 0.05243692 -0.0045438316 0.039120406 -0.020589262 -0.034960978
0.014598 -0.03135601 -0.0071097906 -0.027653828 -0.013852907 0.012502854 -0.026090968 0.009520933
-0.000531112 -0.028133044 -0.010419752 0.0069522443 -0.002640782 -0.031647637 0.0067816675 0.003907127
-0.017643975 -0.015138826 0.032730404 0.010843985 -0.046033096 0.030215377 0.01778188 0.046092782
-0.0017406966 0.0024505816 -0.014568449 0.0056377286 -0.01514197 -0.09872349 -0.06572276 -0.054694362
-0.013892791 0.0067896727 -0.019745208 -0.023310028 0.0050898464 -0.037826702 0.01052396 -0.016073309
0.0016128492 -0.0325885 0.027163487 0.0033221003 -0.022502031 -0.010783773 -0.027572649 0.014125916
-0.013391656 -0.019125335 -0.008724165 0.016282698 0.0152860815 0.042969637 0.04494617 -0.029409954
0.011005549 0.02479392 -0.028766923 -0.01291627 -0.00026652488 0.0246535 0.03716133 -0.011067009
-0.037755918 -0.009637043 -0.020315763 -0.037854645 0.024418592 -0.012669919 -0.012762121 -0.007796231
-0.03460331 -0.02496655 0.029414196 -0.004335121 -0.015133756 0.010775809 0.017465487 -0.0140486695
0.0060816444 -0.012544442 0.012677891 -0.008579156 0.037408948 0.061151735 -0.0043216273 0.009415876

layer.0.bias f4 [256]
00000000: 7264 a6be 7a1b ab3d d501 bd3d 7d81 473d
00000010: 5cbb 38bd 2bb8 e23d a65b fc3b 7cbc 163e
00000020: e8ad f73c e2d4 98bc 6fb3 433f a915 0c3d
00000030: 06a7 2e3e 109f dd3d d098 0cbe 9914 003c
00000040: 59e1 93ba 05b7 e23d 931e ad3d f746 84bc
00000050: 698a 1b3e 754f d23d 97a2 8b3d b42a 56be
00000060: 597c 23bd 13e9 803d 14c5 343e bb2f 093e
00000070: d6f9 913d 95d3 123f c66d 30bd 4d15 eabc
00000080: 3159 023e 61e6 abbc f371 333c 2af6 bcbb
00000090: 6318 5f3e 6579 323d 21fe 2e3d a476 8c3d
000000a0: f00f db3c adfe 133e 2538 abbc 9f76 213d
000000b0: 4dd7 063e a54e 1e3e 5010 e43c 66ca 1a3f
000000c0: 1496 273d e1d8 be3c e943 753f a4ae 8a3c
000000d0: e02d d8bc 0cef fd3d 09d8 303d 23aa 9f3c
000000e0: 19b7 083f b7c4 8f3e 1c76 233b 58e3 d63e
000000f0: 98b0 fe3e 3f35 1a3e ab06 f33d 9c98 a9bc
00000100: 2f39 9e3b 229d 1f3f 0f96 2a3d 9323 4a3d
00000110: 500d 703d f522 023c 19f3 a83f 16e2 ef3d
00000120: 8df8 bc3c 8f40 0f3e 88e6 18bd f9eb 383d
00000130: 3ae8 383e bb7a d73c 936d cf3d c394 b53d
00000140: ba01 d43d 4c08 9d3f b751 e4bc f3bf 19bd
00000150: d8ce d1bc aea2 093e ad6e 0abd a384 ee3d
00000160: 8fc5 5f3d c873 ec3d 3d74 ba3d 67cd f5bb
00000170: 5a5a 083f 679f 323e e9dc 423e 764b 153b
00000180: 3e43 1a3e 95ef b03d 5957 2e3e df21 0a3e
00000190: e9c0 abbc 2b86 e73c a1ca ee3d 064b 5c3e
000001a0: fa0c 823d c728 c03d 88d3 e33d 9ca6 0e3d
000001b0: 46b2 d93d d921 4f3d 47e0 fe3c 4095 683f
000001c0: dd4c e23d 983d 1f3d 17db a43d 41ae af3d
000001d0: 6009 ed3c e5f2 7f3e 589d 81bb 6793 33be
000001e0: 1d28 293e 5dd7 1b3e 07dc 473e 56ab 83bd
000001f0: fd07 d93d 514a 01bd b151 ca3c 9166 923d
00000200: a1a8 8b3d a991 0a3e 9111 1a3d 44f9 be3d
00000210: 92ae 213f f811 193e c7e9 473d 1697 8e3c
00000220: 75f6 af3d aa22 083e 5078 c4bb 2b9b 55b9
00000230: 5647 0e3e a00a 51bb e5ab e9bc c5bf da3d
00000240: a198 0bbe 6030 61bb b3bd e3ba 62c5 ba3c
00000250: 8f2d 5e3c 4af4 3c3d 0416 d83d 1638 f93d
00000260: 97ac 8a3d 6f3e 033f 4e47 cb3f fef9 0abd
00000270: 43da a43b 9ec6 133d cca8 223e 3146 5d3d
00000280: 6abc 1e3e bf9b 0d3d a8f8 723d 46fa 353f
00000290: 9847 5e3f 07d8 c2bc a9bf 693e c8ca 0e3e
000002a0: ffb5 913b 866e 14bd 827c 6f3c 9445 1ebd
000002b0: e072 023e 7892 ef3d d63f 95bd b914 ff3d
000002c0: df00 033e 4b2c 203e ca7a 2b3e c0c9 253c
000002d0: 8e18 243d 593a f0bc 769a a93c ebeb f43d
000002e0: 5c80 323e 19ef 013e 5a08 0e3e 8d06 df3c
000002f0: d01b c63d d072 1f3a eb07 cb3d 83a2 483e
00000300: 8151 493e 593c d73d dc58 6f3e bb10 973e
00000310: f733 b53d 6fb3 7c3d 75ca 46bd 23c3 903c
00000320: 577b 2ebd 6f12 7c3f d7d8 1a3b e245 28bd
00000330: 704c c53d 26ab 21bb 1cf6 563e 1f4d 953d
00000340: 05bf 6c3e 5a96 5d3e d09a 253e 0e51 3a3e
00000350: f352 083e 9899 433d 7bc7 a63d 5939 2abc
00000360: 3fcd d7bd 2ac6 163e f0fd 1c3e 0de0 903d
00000370: d8d9 ddbb 37db 2bbd 75eb 0a3f ca2b 863d
00000380: 034d 293e 9be8 363e e2b8 07be 65e8 c33a
00000390: 3da7 7f3f 4b43 843e 5157 5c3d 9a58 52bd
000003a0: e4d6 aa3d 0fd2 1d3d 8670 933c 45a3 a63d
000003b0: 020f 85bb 24b9 323e df01 503e 7403 813e
000003c0: 6dbf f43d c925 cabc 94ce 443f 8480 343c
000003d0: 0194 823d 25a0 243c 90f4 f3bc d560 2d3e
000003e0: c783 473e fd34 a53e 1b48 bb3d 03df 753d
000003f0: 776d 023e 973e 293e 35f8 44be 9a7c 323e
-0.3249851 0.0835485 0.09228865 0.048707474 -0.045100555 0.110702835 0.007701355 0.14720339
0.030234292 -0.018656198 0.7644567 0.034200344 0.17055902 0.108213544 -0.13730168 0.007817411
-0.0011282369 0.110700645 0.08453097 -0.01614712 0.15189518 0.102690615 0.06818121 -0.20914727
-0.03991351 0.062944554 0.17653304 0.13397114 0.071277305 0.573541 -0.043073438 -0.02857461
0.12729336 -0.020983877 0.010952461 -0.0057666497 0.21786647 0.043572802 0.042722825 0.068585664
0.026740998 0.1445262 -0.020900795 0.039419767 0.13168068 0.15459688 0.02783981 0.60465086
0.04091461 0.023296775 0.9580675 0.016928978 -0.026389062 0.1239911 0.043174777 0.019490307
0.53404385 0.2807977 0.0024942225 0.41970325 0.49744105 0.15059374 0.11866506 -0.020702653
0.004828594 0.6234914 0.041647013 0.049350332 0.058606446 0.007942905 1.3199188 0.11713044
0.023067737 0.13989471 -0.037329227 0.045146916 0.18057337 0.02630364 0.101283215 0.08866265
0.10351892 1.2268157 -0.027870996 -0.037536573 -0.025611326 0.13440964 -0.033796955 0.11646392
0.054631766 0.11545521 0.09104202 -0.0075012925 0.53262866 0.1744362 0.19029583 0.0022780574
0.15064713 0.08639447 0.17025508 0.13489483 -0.02096601 0.028262218 0.11659742 0.21512994
0.06350131 0.09382778 0.11124331 0.03482686 0.10629706 0.05056939 0.031112803 0.9085274
0.11049817 0.0388771 0.080496006 0.08578158 0.028935134 0.24995 -0.0039555244 -0.17536698
0.16519208 0.15218873 0.19517528 -0.06429164 0.10597227 -0.031565014 0.024697157 0.07148469
0.06819273 0.13532127 0.03761441 0.093248874 0.63157 0.14948261 0.04880693 0.017406028
0.0859193 0.13294473 -0.0059957877 -0.00020371068 0.138944 -0.0031897202 -0.028524349 0.106811084
-0.13632442 -0.003436111 -0.001737526 0.022799198 0.013560667 0.04613141 0.10551074 0.12168901
0.067712 0.5126714 1.5881135 -0.033929817 0.0050309016 0.036078088 0.15884703 0.054022018
0.15501562 0.03457236 0.05931917 0.7108501 0.86827993 -0.02378465 0.22827019 0.13944542
0.0044467445 -0.036238216 0.014617087 -0.038640574 0.12739134 0.116978586 -0.07287566 0.124551244
0.12793301 0.15641896 0.16746059 0.010118902 0.04006248 -0.029324697 0.020703536 0.1195906
0.17431778 0.12688865 0.13870373 0.027224803 0.096732736 0.0006082477 0.099136196 0.19593243
0.19659998 0.10509557 0.23373741 0.29504952 0.08847802 0.06169456 -0.04853292 0.017671173
-0.042598095 0.9846563 0.0023627782 -0.04108227 0.0963372 -0.0024668663 0.20992321 0.072901
0.23119743 0.21639386 0.16172338 0.18194982 0.13312893 0.0477539 0.08143517 -0.010389649
-0.105371945 0.14724031 0.15331244 0.07073984 -0.0067703538 -0.041957106 0.5426553 0.06551321
0.16533284 0.1786217 -0.13254121 0.0014946578 0.9986456 0.2583259 0.05379421 -0.05135403
0.083417684 0.038530406 0.017997991 0.0813661 -0.004060627 0.17453438 0.20313214 0.25197947
0.11950574 -0.02467622 0.76877713 0.011016969 0.06375886 0.010047947 -0.029779702 0.1693147
0.19483863 0.3226699 0.091446124 0.060027134 0.1273707 0.16527782 -0.19235308 0.17430344
