autoencoder_mpi_pipelining/layer1.pth (torch, 807837 bytes, 2 tensors)

layer.0.weight f4 [784, 256]
00000000: 52cb 21bd b89f fabc 8677 5dbd 8279 41bd
00000010: 1d6d efbc 3a46 cfbe 3579 c0bd fe7b 17bd
00000020: d889 a1bd 6697 ddbc 9619 07bc f9d7 90bd
00000030: cf9c 4bbd 59be 7bbd 6cc8 1bbd 8702 87bd
00000040: d162 6ebd ff7c 90bd dd51 a5bb 6cf3 d5bc
00000050: 0141 38bd b5ef 17bc 7efc d63c 899f 613c
00000060: 943a a9bd d79e 2fbd d273 d8bc 644a 06c0
00000070: 25b0 9abd 22c6 0ebd 7b42 393d c31e 423d
00000080: bce4 16bd d449 11bd ebe4 27bb 39bd 033c
00000090: 393c f4bc 9c71 5a3d 0d0e 52bd 4a1e 10bd
000000a0: bfc0 a8bd 613f 90bc 3237 de3b 8550 92bc
000000b0: db94 00bc e7fc 2ebd 8eef c8bd d968 5d3c
000000c0: 1d63 06bd 4a0a 37bd 6e64 953c f3e5 d33c
000000d0: 49b1 65bc 5c9c 6bbd 3b7f 343a 1d1c 00bd
000000e0: 2c44 96bb 3e23 15bd 82e0 cd3c c483 0abc
000000f0: 6484 41bd d1af 49bd 643d a83c 0fd3 983c
00000100: f176 a7bd 2f3c 92bc 0cdb 713c 1f67 8abc
00000110: 1902 833c ac67 adbe 627d a3bd 108c a23a
00000120: 3059 52bb 3818 c2bd 1b61 3bbd a7e6 9dbd
00000130: 98a5 993c e433 6d3a 8835 76bd bec3 9bbd
00000140: 1905 ce3c 9b47 c63c 67a3 afbd a0be ccbe
00000150: bb6f f53c 2d7b ab3c 44c5 1ebc 5361 443b
00000160: 5dfd b5bd 2c8b 11bd 8321 76bd 8a6a a3bd
00000170: 6f6d 36bc 0ec2 503d 2b4b 053c 9cf1 76bd
00000180: 4d9a 2dbd 16d8 49bd 4a77 2ebd 970d 98bd
00000190: 60ac 593d 612d 893c cbab 13bd 833a c4be
000001a0: 7d46 093b f8f5 213c 6f06 f1bc 3e8a b5bd
000001b0: 64f7 18bd bf7c 16bd 67fc 9ebd a613 96bd
000001c0: 7516 3bbd ffde a0bd 0a18 cbbd 66a4 5abd
000001d0: 85ef 143c cd74 7e3c 623a bb3c ddc2 bf3c
000001e0: 6c80 92bd a025 89bc cfeb 06bd 4c62 46bd
000001f0: 1569 55bd c9c1 c7bd 4634 1cbd 34b4 3abd
00000200: b10d f0bc b19f 703c 9b63 e43c 6512 79bc
00000210: ffd1 af3c 7b62 4bbc 5a95 b5bc f1d7 c6bc
00000220: 5637 a3bd 855e ed3b 5716 19bc ae88 c73c
00000230: 4fe9 9fbd 248d 3ebc b6d2 88bd 355b 9dbc
00000240: ef45 1cbd 162d bcbd 2c09 6fbd 527c c4bd
00000250: 6657 bbbd 48c6 b0bb e723 5c3c d039 abbd
00000260: 2b9a acbd 98c8 0e3d 598c 043d e985 62bd
00000270: b0df 64bb d76a 173c 26ed 3b3c 3e4e bfbd
00000280: 496e 8dbd b689 b0bd 371e 8ebd 2da7 a7bd
00000290: c0ef 1c3d fc93 18bd 9c85 b43c 739c 21bf
000002a0: fa28 bbbd a6f3 44bc 5ef9 4abd 6f4b 08bc
000002b0: 40f0 23bb 614e 993c 3656 5c3c 134e b9bd
000002c0: 1e15 01bd f2b0 03bc 1ee1 41bb a30e 87bd
000002d0: f694 a43c 6954 8abd 970b 13bd 95b1 c7bc
000002e0: 1933 55bf 4c16 0a3d e733 afbd 1c27 3abc
000002f0: 5ab1 6a3c 5fb9 b5bd 014b 82bb 4209 58bd
00000300: 25ba 2dbb 5a92 683c ddb6 c2bc 445d 31bd
00000310: 7d96 02bf 0f34 6dbd 363e 36bd 03ba 25be
00000320: 27a1 f6bb 39af 91be f934 abbd 4254 b13b
00000330: d4e3 9bbd b735 cdbd 0d6a b5bd 3628 7ebd
00000340: 11ec 67ba 695a 3fbc 3b0d ffbc 5660 3f3d
00000350: 0237 3bbd d279 adbb fa5a b2bc 2159 113c
00000360: 3201 873c e860 6cbc 9b51 b7ba 8b0f dabd
00000370: c7ce 02be 4f74 0cbc d3dc e2bb 7205 52bd
00000380: b7ef 63bd 0a51 8cbc 16a1 5dbd ea96 66bd
00000390: b067 09bc 7f29 8bbd 146a 933c 7fc4 8dbc
000003a0: c73a 973b 954d 683c 321a 81bd 847b 57bd
000003b0: bfb3 88bb 33e9 62bd fc8a 92bd eb7b 9dbd
000003c0: c6bb b0bd 1b31 54bd 6ce5 d63c 37ab 66bd
000003d0: c1e9 15bc d387 e7bb fef1 5abd 940f cfbc
000003e0: cb9b 953a 1a67 9cbb 4d68 dc3c f512 ad3c
000003f0: c178 bbbc b45c 15bd 6658 b1bd ccf2 ed3c
-0.039500542 -0.030593738 -0.054069065 -0.04723502 -0.029226834 -0.40483266 -0.093981184 -0.036983483
-0.0788762 -0.027049731 -0.008245846 -0.070724435 -0.04971009 -0.061460827 -0.038032934 -0.06592279
-0.058199707 -0.07055091 -0.0050451593 -0.02611705 -0.044983868 -0.009273459 0.026243445 0.013770946
-0.08263126 -0.04287609 -0.026422415 -2.0982904 -0.07553128 -0.034856923 0.045229416 0.047392618
-0.03683923 -0.0354708 -0.0025618623 0.00804072 -0.029813873 0.053331003 -0.05128293 -0.035185136
-0.082398884 -0.017608346 0.006781482 -0.01786066 -0.00784799 -0.042721655 -0.098113164 0.013513767
-0.032809366 -0.044687547 0.018236365 0.025866484 -0.014019319 -0.057522163 0.0006885414 -0.03127681
-0.0045857634 -0.036410563 0.025131468 -0.008454267 -0.0472454 -0.049239937 0.020537086 0.018655328
-0.08176983 -0.017850963 0.0147616975 -0.016894875 0.015992211 -0.33868158 -0.07982899 0.0012401361
-0.0032096617 -0.094772756 -0.045746904 -0.07710009 0.018755719 0.0009048565 -0.060109645 -0.07605694
0.025148915 0.024204066 -0.085760884 -0.39989185 0.029960504 0.020932758 -0.0096905865 0.0029965236
-0.08886216 -0.035533115 -0.060090553 -0.07979305 -0.011134489 0.050966315 0.008135597 -0.06028901
-0.04238348 -0.04927834 -0.04259423 -0.07424467 0.053142905 0.016745271 -0.036052506 -0.3832589
0.0020946555 0.009885304 -0.029422013 -0.08864258 -0.037345305 -0.03674006 -0.07762986 -0.073279664
-0.045675714 -0.07855033 -0.099166945 -0.05337944 0.009090309 0.015530777 0.022854988 0.023408348
-0.07153401 -0.016741574 -0.03293973 -0.048433587 -0.052102167 -0.097537585 -0.03813579 -0.04558201
-0.029303404 0.014686511 0.027879527 -0.0152021395 0.021462439 -0.012413616 -0.022165943 -0.02427289
-0.07969539 0.0072439336 -0.009343705 0.024357166 -0.07808172 -0.01163033 -0.06680815 -0.01920853
-0.03815263 -0.09188287 -0.058358356 -0.09594025 -0.09147529 -0.0053947307 0.013436294 -0.08360636
-0.08427843 0.03485927 0.03236041 -0.055303488 -0.0034923367 0.009241781 0.011470115 -0.093410954
-0.06905801 -0.08620016 -0.06939357 -0.08186183 0.03831458 -0.037250504 0.022036366 -0.6312935
-0.09138675 -0.012020981 -0.04955422 -0.008318766 -0.0025015026 0.018714132 0.013448289 -0.090480946
-0.03151428 -0.0080377925 -0.0029583643 -0.065945886 0.020090561 -0.06754381 -0.035899725 -0.02437667
-0.83281094 0.03371267 -0.085548215 -0.011361863 0.0143245105 -0.08873247 -0.0039762263 -0.052743204
-0.0026508656 0.014195049 -0.023768837 -0.043301836 -0.51010877 -0.057910975 -0.044492923 -0.16184239
-0.007526535 -0.28453997 -0.08359713 0.0054116556 -0.07611814 -0.10020011 -0.08858118 -0.062050067
-0.00088471273 -0.01167927 -0.031134238 0.046722732 -0.045706756 -0.005294063 -0.021771897 0.008871348
0.016480062 -0.014427401 -0.0013986112 -0.10647496 -0.12774192 -0.008572652 -0.006923297 -0.051274724
-0.05564853 -0.017128486 -0.0541087 -0.056296267 -0.008386537 -0.06795024 0.017994918 -0.01730561
0.004615161 0.014178653 -0.063038245 -0.052608028 -0.004171818 -0.055398177 -0.071554154 -0.07689651
-0.08629565 -0.051804643 0.026232444 -0.056315627 -0.00914997 -0.007065752 -0.053453438 -0.025275983
0.0011414228 -0.004773033 0.026905203 0.021127203 -0.022884728 -0.03646536 -0.08659439 0.029046439

layer.0.bias f4 [784]
00000000: 6995 f0bd 0f71 89bd 8eb3 f8bd ebac 3fbd
00000010: 2f26 8abd 3a79 cebd 8f29 aebd 80fe 4dbd
00000020: de9f 76bd daf0 babc 2435 75bd c13e 4fbd
00000030: e689 00bc 802f b2bd 9637 e0bd 5dbc a7bd
00000040: 60e4 ebbd d480 89bd f8d9 2fbd 4e00 50bd
00000050: ab7a 6dbd 5374 9abd 2f30 18bb 67e3 96bd
00000060: 6b55 e0bd 7d49 f4bc 86c7 26bb 8a78 66bc
00000070: bf7b 97bd 14ca 5bbd e5cf 49bc 86a6 02bd
00000080: 765c dfbd 1644 bfbd 4744 bfbd 02c6 cfbd
00000090: f19a 6abd ae2b c7bd 3467 15be a1b3 58bd
000000a0: 591d 01be 8afe 82bd e894 22be 090b b2bd
000000b0: 520f c3bd e06f 01be 3810 91bd 8699 a2bd
000000c0: e562 bbbd 4e19 b4bd e084 3bba 38ac c1bd
000000d0: 0e31 86bd 6465 e6bd 329c fcbd 417d 47bd
000000e0: 0cd3 d1bc 3ee3 95bc f6da ddbc b1c5 aebd
000000f0: 98be 30bd b8a3 fdbd 2451 84bd 5353 10be
00000100: d13f b8bd ff72 37be 44bd 6ebe 9edc 9bbe
00000110: 3738 b7be 462b c9be add7 f3be 2fa7 00bf
00000120: a289 dabe 9f3c ecbe b177 d3be 3b00 dbbe
00000130: eeef 91be 2691 3bbe 1846 cbbd 4b74 32bd
00000140: cd5a 23bd 6eea e8bd 711b dcbd dd3d 50bd
00000150: 058b 4bbd f15f f8bd a329 d5ba 515f 1abd
00000160: 886b 99bc 3479 dfbd a0c8 73bd a04d 3ebe
00000170: e989 87be dbcf adbe 1bea 02bf bee1 08bf
00000180: 9142 18bf 818f 2bbf e601 37bf 39a4 39bf
00000190: 0021 25bf c4d4 21bf 62f7 0fbf 52d6 1ebf
000001a0: 580b f9be 7188 b8be 7c0a a3be da0a 27be
000001b0: e3f1 cdbd fe01 eabd db6c c0bc d037 60bc
000001c0: 312b f6bd 7a47 d8bd 3793 f9bd 9d6c a1bd
000001d0: 2154 96bd 0b4a 07be d6d7 a6be ecad babe
000001e0: df71 16bf cb48 0fbf 60f8 28bf 9a61 3dbf
000001f0: f1f7 35bf f04c 2cbf 1e1d 34bf 0ed7 2dbf
00000200: 80c5 2cbf 8569 33bf c61b 2cbf c1a2 2fbf
00000210: 72a4 3ebf d8c8 1abf afb7 0fbf fe68 b0be
00000220: 6f54 9dbe ac35 1ebe 8103 e2bd fb87 a1bd
00000230: ab46 efbd 24f8 b1bd f183 03bc 10aa ecbd
00000240: a760 26be 19df 9bbe a9c0 dabe c57e 12bf
00000250: cc8b 2cbf 317a 35bf 3450 41bf 9206 2ebf
00000260: daf6 13bf 2c95 dbbe f33f a7be e2ac a7be
00000270: 2096 a0be 6e2a c8be e4b8 febe f9e8 25bf
00000280: 1514 3abf e9d9 3dbf 2cd3 2dbf 0795 25bf
00000290: dfae f2be 3326 a2be 98bc 08be 9f7d f9bd
000002a0: 3189 cbbb d7e1 9ebd cea8 6fbd 261c 5cbd
000002b0: 273a a8be 0a6b eebe 367d 28bf f86d 37bf
000002c0: cd1f 45bf a065 3ebf 60a4 1abf 9891 01bf
000002d0: cdfa a7be 9cf2 2cbe 7b36 b1bd 38fc babc
000002e0: 4b52 3bbd 0c45 f7bd 627c 89be 7b9e d6be
000002f0: eb0c 13bf 6b01 34bf 41d2 36bf a14f 2dbf
00000300: 9beb 1cbf c20e bbbe ba5b c3bd dabd 86bd
00000310: 20db d0bd 2270 b6bd 82c7 3fbd c905 47be
00000320: c5e4 d7be b2a7 0ebf 37be 30bf affe 34bf
00000330: 3cd8 31bf d5a7 19bf e061 e5be a6c6 88be
00000340: 6fab e1bd f1b9 9dbb 4c1e d33c 8b45 453d
00000350: 4a31 8f3d 8a61 e53c 2ddf ccbd eed7 7dbe
00000360: 46c0 edbe b2ce 1fbf 1bb4 33bf bf21 28bf
00000370: d5aa 21bf 81ab debe af87 48be eb6a 66bc
00000380: efd3 72bd 8529 84bd 9f10 06be 7168 8dbe
00000390: da19 0abf 3fa2 12bf 644b 2cbf cf74 3fbf
000003a0: ab9f 1bbf fd5b f2be 699b a7be bb54 21be
000003b0: 7b7e 89bd 9667 0dbd a126 e6bc bfac 0fbd
000003c0: d468 7bbd a27b 6bbd 3263 b4bd d84c 5ebe
000003d0: 820e e3be f734 19bf 94f5 37bf 3816 2cbf
000003e0: 272d 27bf f699 e9be f601 36be 18cc e8bd
000003f0: 84be c1bb 601d 6ebd 7060 4dbe 872b a3be
-0.11747248 -0.06711017 -0.12143622 -0.046795767 -0.06745564 -0.10081716 -0.085040204 -0.05029154
-0.060211055 -0.022819925 -0.059865132 -0.050596956 -0.007845378 -0.08700466 -0.10948102 -0.08190224
-0.115181684 -0.06714025 -0.04293248 -0.05078154 -0.057978313 -0.07541718 -0.002322208 -0.07367592
-0.10953792 -0.029820198 -0.0025448515 -0.014066825 -0.073966496 -0.053659514 -0.012317632 -0.03189709
-0.109063074 -0.09339158 -0.09339195 -0.10145189 -0.05727667 -0.09725128 -0.1459015 -0.052905682
-0.12608851 -0.06396206 -0.15877116 -0.08693511 -0.095244065 -0.12640333 -0.070831716 -0.079394385
-0.09149722 -0.08793889 -0.0007153284 -0.09456676 -0.06552325 -0.112498075 -0.123344794 -0.048703436
-0.02561333 -0.018296834 -0.027081948 -0.085338004 -0.043150514 -0.123847425 -0.06460789 -0.14094286
-0.08996547 -0.17914961 -0.23314387 -0.30441755 -0.35785076 -0.39290828 -0.47625485 -0.502551
-0.4268313 -0.4614 -0.41302255 -0.42773613 -0.28503364 -0.18317088 -0.09925479 -0.043567937
-0.039881516 -0.11372839 -0.107474215 -0.050840247 -0.049693126 -0.12127674 -0.0016263019 -0.037688557
-0.018728033 -0.109117895 -0.059517503 -0.18584299 -0.26472405 -0.33947644 -0.51138467 -0.53469455
-0.5947657 -0.67015845 -0.7148727 -0.7251621 -0.6450348 -0.6321528 -0.5623685 -0.62045777
-0.48641467 -0.36041597 -0.31843936 -0.16312733 -0.10055902 -0.11426161 -0.023489406 -0.013685182
-0.12019957 -0.10560508 -0.12186282 -0.078820445 -0.07340265 -0.13211839 -0.32586545 -0.36460817
-0.58767503 -0.5597045 -0.6600399 -0.73977053 -0.71081454 -0.673049 -0.7035693 -0.6790627
-0.6748886 -0.70082885 -0.6722988 -0.6860772 -0.74469674 -0.60462713 -0.56139654 -0.34455103
-0.3072848 -0.15450162 -0.110358246 -0.07887264 -0.11683401 -0.08689907 -0.008027063 -0.11555874
-0.16247807 -0.30443648 -0.42725113 -0.57224685 -0.67400813 -0.70889574 -0.75513005 -0.67978776
-0.5779854 -0.42887247 -0.32665977 -0.32749087 -0.31364536 -0.3909487 -0.49750435 -0.64808613
-0.7268689 -0.7416063 -0.6790035 -0.6468052 -0.4739904 -0.3166977 -0.13353193 -0.121821634
-0.006211423 -0.07757919 -0.058510594 -0.053737782 -0.32856867 -0.4656604 -0.65816057 -0.71652174
-0.7700165 -0.7437382 -0.60407066 -0.50612783 -0.32808533 -0.16889423 -0.086529694 -0.022825345
-0.045732778 -0.120737165 -0.2685271 -0.41917786 -0.57441586 -0.70314664 -0.7141457 -0.6769963
-0.61297005 -0.36534697 -0.0953898 -0.0657918 -0.10198045 -0.089081064 -0.046821125 -0.194358
-0.42166725 -0.5572463 -0.69040245 -0.70701116 -0.6947057 -0.60021716 -0.44801235 -0.26714057
-0.110190265 -0.0048134257 0.025771283 0.048162024 0.06991823 0.028000612 -0.10003505 -0.24789402
-0.46435755 -0.62424767 -0.70196694 -0.6567649 -0.63151294 -0.43490222 -0.19583009 -0.014063577
-0.059284147 -0.06453232 -0.13092278 -0.27618745 -0.53945696 -0.5727882 -0.67302537 -0.7478761
-0.6079051 -0.47335806 -0.32735756 -0.15754978 -0.06713577 -0.034522615 -0.028094592 -0.035076853
-0.06137927 -0.057490952 -0.088079825 -0.21709001 -0.44347006 -0.5984644 -0.718591 -0.67221403
-0.6530327 -0.45625275 -0.17774186 -0.11367053 -0.005912604 -0.058133483 -0.20056319 -0.31869146
