autoencoder_mpi_pipelining/layer1.pth (torch, 18397 bytes, 2 tensors)

layer.0.weight f4 [32, 128]
00000000: 0892 a63d 043f 58bd 1576 c73c d90a bfbc
00000010: 162c 83bb b715 d13c 78af 93bd 27e6 1abe
00000020: 0159 bfbd 4736 53bd 6157 f83c f116 883d
00000030: e2fa a13c ea4d a4bc 64bd 473b 3a48 99bd
00000040: 5498 5e3c 0b29 99bd e65f bfbc bf77 b03c
00000050: dc21 803d d69d 493c bbb2 55bc 299e a4bd
00000060: cc97 14be fc1a 84bd 1b3d 3e3c 97da dcbd
00000070: cb01 4cbc f904 8e3b 3bd1 fdbd c896 ed3b
00000080: da0d c83c a52a 6dbd 8946 1fbe 8270 1abc
00000090: 2ef8 f2bc 693b 663d da86 26bd 740c ecbd
000000a0: 4ca2 a9bd c600 3b3d 8058 1fbd 7273 0d3d
000000b0: 2cae 2d3c 8c28 99bd 2ebb c53c 6095 34bc
000000c0: 48fe aabd e9b6 3dbd ef79 27bd 02f0 da3d
000000d0: 20e7 a93c e67a 18bd 12ec d0bc 9efc e3bc
000000e0: 97fd d63d 0923 7ebd c700 343d 5bfc 8f3c
000000f0: 9c3a c9bd 09e4 933b 034a 42bd d526 373d
00000100: 6b6e c3bd d3e4 d2bd 1478 5cbd 1845 a73b
00000110: 7e07 2dbd 921c 253c 463d 343d c4ff 83bd
00000120: ef8a 8fbd 345a 423d 84a7 aebc cacd a2bd
00000130: eb28 b4bd 8c9e 0bbe 233f 293d c837 52bd
00000140: 7ccd 0ebe 17d9 913c 6ce0 9abb c46c dfbc
00000150: e2a4 493d 6a6f acbc 3110 a8bd cffe d93c
00000160: 95d9 f6bb bf0d b43b d8f0 e43d b33e 97bd
00000170: d215 0cbd b018 943d 26da 2cbd 4423 f3bc
00000180: c2e8 98bd 09a3 f33c 4cce 61bd f59f 06be
00000190: aa6b afbd 5195 8b3c 1962 18bc 3d69 6ebd
000001a0: 57fa 62be 0bf8 483d 5c69 cebc 8ceb 20bd
000001b0: d704 c4bd fad7 c2bd 1fcd d93b b72b 663d
000001c0: 2104 bdbd 3e01 6fbd fb02 7abd 3854 8bbd
000001d0: b7cf 193d d23a d43b 5f51 70bc 8a03 d8bd
000001e0: dc70 043d 2476 eabd 735d a0bc 2e25 41bd
000001f0: d545 23bc 661c 2fb8 0301 e83c 54f8 a6bd
00000200: db7c 94bd eb13 b0bd 7b32 923a 451a 773d
00000210: d284 2dbc 63eb 583a 7d49 143c 34a6 04be
00000220: 1d6d a8bd db31 c73c 043b 983c 1bba 97bd
00000230: c201 2aba ef43 653c 8275 8a3d 55d3 d3bd
00000240: fa32 453d 8274 e33d fc83 06be 71f7 46bd
00000250: a5c2 b7bc 85c2 703d bcbf 21be 357d 97bd
00000260: 51e6 bfbc ae21 05bd 0819 c8bd 52e1 8cbc
00000270: a856 9cbd 4790 843c 9b50 763a 5b98 673d
00000280: 78c0 b5bc a267 44bd 4427 99bd fd84 f4bc
00000290: 0d7a 1c3d 0448 813d f63b 0dbd 3660 b9bd
000002a0: a0d8 ab3c e2d5 023e 95c1 033d 163c fd3d
000002b0: c49f f0bd 5beb 12be d712 f4bb 2ee9 debc
000002c0: f64e dbbd adf7 bd3d abee a4bd 6bb6 653d
000002d0: d53a 2abe 2da3 dcbc da30 70bd 5164 25bd
000002e0: 0011 acbd 3ba0 84bd 3907 5abd 1d86 efbd
000002f0: fee9 46bc 59ad 4dbe 6585 a6bc f0de 34bc
00000300: 49d7 a83b e0c4 9dbd 5d1a bf3b 714b b4bd
00000310: a947 15bd 36a3 d5bd cad9 debd e46e c6bc
00000320: 1320 e73d 6cbb 10be 2660 e33c 7760 c4bd
00000330: 45c2 a2bd b81a 35bb 6337 863d 2ea2 14bc
00000340: 2694 70bd 0146 ccbd 5be5 56bd 285d c0bd
00000350: d1a2 eb3d f5c2 edbd 0687 aebd 2f1d 1ebe
00000360: 3a03 983d 34a4 00be 014a 603d 424b 95bd
00000370: a7c8 00be 5958 353c 1c34 01be b5c6 1dbd
00000380: 7d10 d5bd 7e8f 84bd f6a2 6fbd 3196 4ebe
00000390: 0719 d7bc f405 3abd cb7d 533d 3f71 fbbd
000003a0: 24f2 933c 4b31 92bd 72ed fabd 6f95 113d
000003b0: ed29 5abd 77cf f6bc e78f cebd fcc4 1c3c
000003c0: c484 3bbd be22 fdbd f007 37bd 979c 93bd
000003d0: cb9d 11be cd14 44bc dfab b5bd 55e9 1fbc
000003e0: 81fc 48bd ebcc 0dbd 25f7 88bd 6873 7bbb
000003f0: 4c8d 283d 6b67 a9bc 81cd e5bd c647 d3bd
0.08133322 -0.05279447 0.024348298 -0.023320602 -0.004003058 0.02552305 -0.072112024 -0.15126859
-0.09343148 -0.051565435 0.030315103 0.06645001 0.01977295 -0.020056684 0.0030477876 -0.07484479
0.013586123 -0.074785315 -0.023361158 0.021541474 0.06256458 0.012305697 -0.013043101 -0.08037979
-0.14511031 -0.06450459 0.011611248 -0.1078388 -0.012451599 0.004334089 -0.12393423 0.0072506405
0.024420667 -0.057901997 -0.15554251 -0.009426238 -0.029659357 0.056209 -0.04065595 -0.11525813
-0.08282909 0.045655034 -0.03890276 0.034533925 0.010600608 -0.07478437 0.024137106 -0.011021942
-0.083492815 -0.046317015 -0.04088777 0.10690309 0.020740092 -0.03722658 -0.025503192 -0.027830418
0.10497587 -0.06204513 0.043946054 0.017576387 -0.09825632 0.004513268 -0.047433864 0.044714767
-0.09542545 -0.10297551 -0.053825453 0.005104672 -0.042243473 0.0100776125 0.044003747 -0.06445268
-0.07008921 0.047449306 -0.021320112 -0.079494074 -0.08796867 -0.136347 0.041319977 -0.05132273
-0.13945574 0.017803712 -0.00472646 -0.027273543 0.04922951 -0.02104922 -0.08206213 0.02661076
-0.007533262 0.0054948027 0.1117875 -0.07385006 -0.034200497 0.07231271 -0.04220023 -0.029679902
-0.0746627 0.029740827 -0.05512838 -0.13146956 -0.08565457 0.017038973 -0.009300732 -0.05820583
-0.2216581 0.049064677 -0.025196724 -0.039287135 -0.095712356 -0.095138505 0.006646767 0.056194033
-0.09229303 -0.058350794 -0.061038 -0.06803173 0.037551608 0.0064767385 -0.014667838 -0.1054755
0.032334194 -0.11448315 -0.01957581 -0.047154598 -0.00996538 -4.17497e-05 0.028320795 -0.081528336
-0.07250377 -0.08597549 0.001115396 0.060327787 -0.010590749 0.00082748214 0.009050724 -0.12954026
-0.08223937 0.024315765 0.018582828 -0.07408544 -0.0006485247 0.013993247 0.06760694 -0.10343043
0.04814432 0.111062065 -0.13136286 -0.048575822 -0.022431681 0.05877926 -0.15795797 -0.07396928
-0.023425253 -0.032502823 -0.09770399 -0.017197285 -0.07633716 0.016182078 0.00093961664 0.056541782
-0.022186503 -0.047950394 -0.074781924 -0.02984857 0.038202334 0.06312564 -0.03448101 -0.09051554
0.020977318 0.12776902 0.032167036 0.12364976 -0.11749223 -0.14347593 -0.007448535 -0.027210798
-0.1070842 0.09275756 -0.08053335 0.05608217 -0.16624005 -0.026933277 -0.05864034 -0.040378872
-0.0840168 -0.06475874 -0.053229544 -0.11695502 -0.012140749 -0.20085658 -0.02032728 -0.011039481
0.005152617 -0.077035666 0.005832 -0.08803452 -0.036445294 -0.10431521 -0.10881384 -0.024222799
0.112854145 -0.14133996 0.027755808 -0.09588712 -0.0794721 -0.0027634334 0.06553533 -0.00907187
-0.058735035 -0.0997429 -0.052464824 -0.09392768 0.11505664 -0.11609451 -0.085218474 -0.1544082
0.074224904 -0.12562639 0.054758076 -0.07289745 -0.12576543 0.011068427 -0.12617534 -0.03851958
-0.104035355 -0.064726815 -0.05850502 -0.20174481 -0.026257051 -0.045415834 0.051633637 -0.12277459
0.018059798 -0.07138308 -0.1225232 0.0355429 -0.05326264 -0.030128224 -0.10086041 0.009568449
-0.045780912 -0.12360142 -0.044685304 -0.072076015 -0.1422035 -0.01196785 -0.088706724 -0.009760221
-0.04906893 -0.034619253 -0.06687764 -0.0038368348 0.041150376 -0.020679196 -0.112208374 -0.10316424

layer.0.bias f4 [32]
00000000: 1d9d c83c c917 983d b0f7 b4bc 43b1 463e
00000010: bbbe fa3c c6d0 1ebd 3aa6 b03d 5fd0 4c3d
00000020: c86c 2bb9 f4fb ef3b 3031 bbbd 622f 94bd
00000030: 48c0 993d 4c9b d1bc 5dec a73d 4658 fe3c
00000040: c774 57bd 6f69 0a3c 128b 8a3d d2b7 c13d
00000050: 0708 3f3d c5cf 583d a7bf 7a3e 840e 71bc
00000060: adea 533d 5278 573d 8f28 b9bd b775 acbd
00000070: 98b0 173d 36c0 c2bc 1b69 e13d abb8 633d
0.02448898 0.07426412 -0.022090763 0.19403557 0.030608525 -0.03877332 0.08625455 0.050003406
-0.00016348355 0.0073237363 -0.09140241 -0.072356 0.07507378 -0.025586747 0.081993796 0.031047951
-0.052601602 0.008447989 0.06764807 0.09458889 0.046638515 0.05293252 0.24487172 -0.014712933
0.051737476 0.05260498 -0.09040939 -0.0842089 0.037033647 -0.023773294 0.110063754 0.055596035
