autoencoder_mpi_pipelining/layer0.pth (torch, 805725 bytes, 2 tensors)

layer.0.weight f4 [256, 784]
000000 01 f4 2d 3b 52 38 04 3d dc db 94 bb 45 00 c8 bc
       0.0026543143 0.032280274 -0.004542811 -0.024414191
000010 d7 45 9c 3c 27 4b 05 bd c1 85 c6 bc 30 b5 01 3d
       0.019076271 -0.032542374 -0.0242337 0.031666934
000020 3c f8 5f bc 6e 22 a7 3a 1c fb 76 bc 40 a5 09 3c
       -0.0136700235 0.001275135 -0.015074518 0.008401215
000030 fa 82 bf 3c 04 47 63 3d 1c 26 33 3d 5d a4 dc 3b
       0.023377884 0.055487648 0.043737516 0.006733461
000040 cd a4 11 3d ce e4 f1 bc 8a ab 31 3c 13 b9 6c 3c
       0.035557557 -0.029528048 0.010844121 0.014448422
000050 8e 7a 38 3c 53 57 5d bc 7e 4c 92 bc 6e 78 89 bc
       0.011259688 -0.013509589 -0.01785874 -0.016781058
000060 b5 04 88 3c 01 8e eb bb ee 4e 4e bc 54 54 08 bd
       0.016603807 -0.007188559 -0.0125920605 -0.033283547
000070 8e 42 98 bc 05 4a df bc dc 93 94 3c 6e ca 67 3b
       -0.018586423 -0.027256975 0.018136911 0.003536846
000080 7f 37 8b 3c ea 12 6f 3c 67 94 22 3d c6 51 97 bd
       0.016994236 0.014591912 0.03969231 -0.07388644
000090 98 19 17 3d 1b 51 40 3d bc 00 2d bc e7 73 dc bd
       0.036889642 0.04695235 -0.010559257 -0.10764294
0000a0 ca 42 8e bd 0b 04 a4 3c ad 04 1e 3e 5a ca dd 3d
       -0.06946333 0.02002146 0.15431471 0.10829611
0000b0 51 df ea 3b d6 b9 e3 bc cd 77 ab bc 6a 80 ae 3d
       0.0071677347 -0.027798574 -0.020931149 0.08520587
0000c0 3b 68 fe 3d 74 c5 8b 3c 13 d0 74 3d ad b4 6f 3d
       0.12422224 0.017061926 0.059768748 0.058521915
0000d0 45 6e d9 3c 3c b6 bc bc ba ea ab 3c d0 71 10 bd
       0.026541838 -0.023036115 0.02098595 -0.03526479
0000e0 9e 87 8f 3c 8e 38 3a bc bb 00 59 3d 6c 73 5c 3d
       0.017520722 -0.011366023 0.052979212 0.053821012
0000f0 fb 7f 8a ba 99 94 22 bd bf 43 95 3d fa c9 6a 3d
       -0.0010566706 -0.039692495 0.07288312 0.057321526
000100 1f 76 36 3e 60 7d 1d 3e 74 0d 0e bb 87 fa 80 3c
       0.17818497 0.15379858 -0.00216755 0.01574446
000110 03 24 b2 bc 0a 5e 20 3d 5e ab da 3d 5a be 15 3e
       -0.021745687 0.039152183 0.10677217 0.14623395
000120 3c c6 d0 3d 5f 28 37 3d 16 66 78 bd 95 a4 cc bd
       0.1019406 0.044716235 -0.06064423 -0.09992329
000130 37 a1 19 bd f9 0e 3b bd de 79 07 3e d9 79 73 3e
       -0.037507262 -0.045668576 0.13230082 0.2377695
000140 23 df a0 3d f1 6d e7 bc b7 61 4b 3b f3 c4 fc bc
       0.0785506 -0.028250666 0.0031033584 -0.030855631
000150 c0 5c 80 3b f1 79 ad 3c 88 0f 0a 3d 63 84 f9 3c
       0.0039173067 0.02117631 0.033706218 0.030458635
000160 ab 1a 60 bd 15 5e f0 3c 9a e0 a8 3d 3f 52 9a bd
       -0.054712933 0.029341737 0.08245964 -0.075352184
000170 82 b7 f8 3b 7e a0 e4 3d 6f 09 a5 3d 61 cd 62 3d
       0.007590235 0.11163424 0.0805844 0.055371646
000180 51 7d 22 bd 1d de 7b bc 24 f5 ad 3c a0 67 5e bb
       -0.039670292 -0.01537278 0.021235056 -0.0033936277
000190 64 6f c1 3c 98 32 60 3d aa 41 d2 bd df 6d dd bd
       0.023612686 0.05473575 -0.10266431 -0.10811972
0001a0 c3 d8 0c be 2f d2 13 bd 1b 14 dd bc cf 6f af bd
       -0.13754563 -0.03608912 -0.026987126 -0.08566248
0001b0 aa 8a 7c bd 6e e3 ae bb 2f ca 3e 3d 25 e7 5f ba
       -0.061655678 -0.0053371703 0.046579536 -0.0008541218
0001c0 f3 89 8a 3c 20 fa f5 3d f3 e8 d1 3d dc bf ed bd
       0.016911482 0.12010598 0.1024951 -0.1160886
0001d0 21 07 66 bd 27 49 13 bb 59 2c 6e 3c cb 8e f8 bd
       -0.056159142 -0.0022474022 0.0145369405 -0.121366106
0001e0 2f a4 c4 bc 76 c7 1c 3d 03 84 f2 bb 10 8e 42 3b
       -0.02400407 0.03827616 -0.007400991 0.0029686727
0001f0 8e eb 97 bd e6 5f af bd 3a 50 c9 bd 31 ff bb bd
       -0.07417975 -0.08563213 -0.09829755 -0.09179533
000200 bf 08 86 bd 11 11 2f bd 14 a0 b7 bd f6 4b 86 bd
       -0.06544637 -0.042740885 -0.08966079 -0.06557457
000210 12 ec ba bd 0f 15 1a bc 80 6a a5 bc d4 f1 0c bc
       -0.09127058 -0.009404435 -0.020192385 -0.008602578
000220 c2 3a 91 3d 0d 02 30 bd da 4a 26 bc d5 f7 58 3d
       0.07091285 -0.042970706 -0.010149682 0.052970726
000230 87 7b 0b 3d 6e b2 08 bb 7a c3 1a be ff cb 06 be
       0.03405335 -0.0020858306 -0.15113631 -0.13163756
000240 1d 09 e6 3a e6 6d fe 3d 48 73 60 3d 8b f1 fb 3b
       0.0017550323 0.12423305 0.05479744 0.0076887063
000250 f0 b4 a7 bc 46 17 01 bd b1 c8 8b 3c bb bd db bc
       -0.02047202 -0.031516336 0.01706347 -0.026823869
000260 58 55 9e bd 7d b6 e1 bd 50 b4 e6 bd 9d 10 d7 bd
       -0.07731122 -0.11021135 -0.11264861 -0.105012156
000270 ce 0c 60 bd fa 15 9a bd d9 26 3b bc 0a d9 63 ba
       -0.05469971 -0.07523723 -0.011422836 -0.0008691704
000280 f0 44 ca bd 2c cd ff bd 55 0e 07 be 50 e7 5c bd
       -0.0987643 -0.12490305 -0.13189061 -0.053931534
000290 d5 a5 f0 bb 7a 13 17 be 75 c7 67 bd 0a 7b 55 3d
       -0.0073439875 -0.14753523 -0.0565867 0.052119292
0002a0 81 f4 f7 bb 20 47 a9 bc 4e 3d 85 bd 04 7d a0 3d
       -0.007566989 -0.020663798 -0.065058336 0.07836345
0002b0 7b a3 4f 3d bd ba b4 bc f2 77 b4 3d ae bb e7 3d
       0.050693016 -0.0220617 0.0881194 0.11315094
0002c0 7e e8 d7 3c 82 b7 a9 3c 99 e3 51 ba c6 99 2e bd
       0.026355978 0.020717386 -0.0008006632 -0.04262712
0002d0 c0 4f a7 bd 5d d4 02 be bd dd 02 be 6e 7b 2b be
       -0.08169508 -0.12776323 -0.12779899 -0.16746303
0002e0 39 39 33 be 14 b0 20 be 60 cd 0e bc 94 5a 22 bc
       -0.17502297 -0.15692168 -0.008715957 -0.009909291
0002f0 c8 83 21 bd 17 fa a1 bd 15 89 e7 3c 50 b5 36 39
       -0.039432317 -0.07909029 0.028263608 0.00017424417
000300 57 36 13 3c 54 94 79 bd ef 23 cd 3c ed 5f 03 bd
       0.008985124 -0.060932472 0.025041549 -0.032073904
000310 ca 3a 76 bd c1 d6 97 bb 5a c9 02 3e 01 cc af bb
       -0.06011466 -0.004633755 0.12772122 -0.0053648953
000320 a4 09 4e bc cf 41 16 bd bc 23 5a bc 44 89 05 bd
       -0.012575541 -0.036683854 -0.013314184 -0.03260161
000330 99 90 ff bd e6 98 0f bb 0e fd b7 bd ab 05 16 3d
       -0.12478752 -0.0021911203 -0.08983813 0.0366265
000340 a6 80 c0 bc 01 e1 b1 bd e8 1f 09 be c1 d0 48 be
       -0.023498844 -0.08685494 -0.13391078 -0.19610883
000350 c1 dd 47 be af 0f 29 be ba 17 39 3c e9 51 41 3d
       -0.19518186 -0.16509889 0.011297161 0.047197256
000360 db 90 31 3c c8 2e 34 bd 6f 1a 6c bd 4c fd e1 bc
       0.010837759 -0.043989927 -0.057642397 -0.027586602
000370 cf 99 c8 3c 4d 98 09 bd 7d 35 39 3c bc 23 25 be
       0.024487404 -0.03359251 0.0113042565 -0.16126913
000380 43 d8 1b bd d9 bd c9 3c 6e 3b 31 3c 39 06 b9 3c
       -0.03804804 0.02462666 0.010817392 0.022585975
000390 64 01 df bc 29 c2 a3 bd 69 e6 21 be 57 a1 e9 bd
       -0.027222343 -0.079960175 -0.15810551 -0.11407726
0003a0 fb 90 43 be 34 2d 96 bd 3f e4 3c bd 29 b9 00 3d
       -0.19098274 -0.073328406 -0.04611611 0.031426582
0003b0 ac 00 2e bd d6 e3 50 be f9 df 0f be 39 cf 41 be
       -0.04248111 -0.20399413 -0.14050283 -0.18926705
0003c0 89 45 47 be 1d 23 1c be 1b 3a c3 bc 15 40 8e 3d
       -0.1946012 -0.1524777 -0.023831418 0.069458164
0003d0 5c 29 4d 3c 27 d4 42 bd 41 12 c4 bd af 35 e4 bd
       0.012522068 -0.047565605 -0.09573794 -0.11143052
0003e0 f9 47 b1 bd 6b 94 eb bc 75 f7 c2 3b a3 86 a4 3c
       -0.08656306 -0.028757295 0.0059499093 0.020083731
0003f0 17 e2 9c bc 20 e3 a7 3c a8 81 25 bc 42 b5 34 bd
       -0.019150777 0.020494044 -0.010101713 -0.044118173

layer.0.bias f4 [256]
000000 ef 66 2a 3f c2 0a 11 3e 57 51 09 3d e0 0b 11 3e
       0.66563314 0.1416426 0.033524837 0.14164686
000010 1e b8 1a 3d 8a 6a 28 3f 3f d3 80 3b 24 6e 0c bd
       0.037773244 0.65787566 0.0039314325 -0.034284726
000020 19 ac 63 be d5 df 0a 3e 5b 64 2b bd 6b 16 9e 3d
       -0.22233619 0.13561948 -0.041843753 0.0771912
000030 5d d5 69 3d 3e c9 b9 3d db 77 54 bd 0b 4d 9b 3d
       0.057088245 0.09071587 -0.051872116 0.07583054
000040 b4 69 a8 3d 85 b8 1f 3e 5b 97 ba 3d 4a dd 35 3e
       0.08223286 0.15597732 0.091109 0.17760196
000050 e0 3a d2 3d d4 3e 1a 3e 19 52 e9 3c db dc b9 3d
       0.10265136 0.1506303 0.02848153 0.09075328
000060 dc b4 18 bd 30 77 6c 3d d5 03 9d 3d 9f 0a 98 bb
       -0.037281856 0.057730854 0.076667465 -0.004639938
000070 5b 6c 62 3c 8b f3 df bc 8f 00 f3 3d 6a 84 d5 3d
       0.013819779 -0.02733781 0.11865341 0.104256466
000080 7f 2d c3 3c 0f 7b d4 3c 4f f7 6d 3d c0 fb 23 3d
       0.023825405 0.025937585 0.05809718 0.04003501
000090 17 76 0b bd 11 b6 35 bc a3 84 31 3e d1 6a 2e 3e
       -0.034048166 -0.011090771 0.17335753 0.17032935
0000a0 33 3f b6 3d ce 71 61 bc 38 f0 fa 3c 29 00 ac bc
       0.08898773 -0.013760043 0.030632123 -0.02099617
0000b0 ce 38 4b 3e a3 bb ce 3d 4a e8 2d 3e eb 2c 71 3c
       0.19845888 0.100943826 0.16983142 0.014720182
0000c0 a2 69 29 3e 1c 81 99 3d f5 27 e6 bc a6 f0 64 3d
       0.16544202 0.07495329 -0.028095225 0.055893563
0000d0 69 95 87 3d d7 71 9a bc 33 63 38 3e 15 1b 18 3e
       0.066202946 -0.018853111 0.18006591 0.14854081
0000e0 fb de 38 3d 3d 46 83 bc ce 1c 83 3d d8 5e 00 3e
       0.045134526 -0.016024703 0.064019784 0.1253618
0000f0 e5 de 02 3e b7 49 15 3d 66 c2 8a 3c c6 3e 21 3e
       0.1278034 0.036447253 0.0169384 0.15746602
000100 f8 cc 86 3f 1f 94 1f 3e a3 3a 9f 3b ce c2 9e be
       1.0531301 0.15583847 0.004859285 -0.31008
000110 3c 18 49 3d 5a 7e 44 bd 25 2c 31 3e cc 6a b9 3d
       0.049095377 -0.04797206 0.17301996 0.09053573
000120 5c 44 45 bb eb 71 8b 3c 3d 27 03 3e c1 77 12 3e
       -0.003010056 0.017022094 0.12807937 0.14303495
000130 8f 0e cb 3d b6 bf 70 3d 40 cf 2e 3d 37 a3 7a 3d
       0.09914886 0.05877658 0.042678118 0.06119081
000140 85 a2 93 3c 87 00 a5 3d 06 70 86 3d dc 13 d7 bc
       0.018021831 0.08056741 0.065643355 -0.026254587
000150 77 70 cc 3d da b4 ee 3f 85 f5 b2 3d 62 0f 4c 3e
       0.099823885 1.8648942 0.087382354 0.19927743
000160 35 b4 2b b9 a9 27 0d 3d f5 8e 1c 3e ec 55 79 bd
       -0.00016374963 0.03446165 0.15288909 -0.060872957
000170 e4 4e 6e 3d 10 46 d4 3d 51 14 4b 3d 76 0f 4d be
       0.058180705 0.10364926 0.049579922 -0.20025429
000180 a1 5d 63 3c 64 14 d3 3e b6 2a 3b 3e aa 26 7b 3d
       0.013877303 0.41226494 0.18278012 0.06131617
000190 30 2f 49 3e de 10 0f bd b2 fa 05 3e f0 a2 4d bc
       0.19646907 -0.034928195 0.13083914 -0.012551054
0001a0 46 9a ec bc 42 92 c9 3c 3d ee 19 3e 56 e9 2b 3e
       -0.028882157 0.024605874 0.15032287 0.1678823
0001b0 f6 f5 0e 3e fa aa 00 3e 02 78 47 bc 47 b1 12 3e
       0.13961014 0.12565222 -0.012174608 0.14325438
0001c0 7e 2f 22 3c a8 4a 83 bc db 1e 6b 3e 1c 1f 39 3b
       0.009899018 -0.01602681 0.22960989 0.0028247302
0001d0 d6 76 85 3d 60 b3 ec 3d 97 a9 a2 3f 1d a1 24 bd
       0.06516807 0.115576506 1.2708005 -0.040192712
0001e0 c6 ce 50 be 07 23 48 bd 82 23 83 3c ac 9f 4d bd
       -0.20391378 -0.04886153 0.016008142 -0.050201103
0001f0 a6 c8 ff 3c 38 cb 45 3d df 38 06 3f 74 45 f6 3d
       0.031223606 0.048289508 0.5243053 0.12024966
000200 d5 cf 43 3d 94 f8 de 3f ee d4 8e 3d 0f c1 03 3e
       0.047805626 1.741961 0.06974207 0.12866615
000210 d6 26 5e 3e c9 16 d9 3d cf 1f 78 bc 56 45 0c 3f
       0.21694502 0.10600049 -0.0151443025 0.547933
000220 c4 ed 05 3d ea 71 02 3e e7 65 e9 3d 1e 9a 9b 3c
       0.032697454 0.12738767 0.113963895 0.018994387
000230 a5 ef ac bd 0d 54 35 3e 9f e5 9a 3d b7 6a f6 bd
       -0.08444146 0.17707844 0.07563328 -0.12032073
000240 bc e6 81 3f 6f c4 42 bd 2d ff b5 3b 18 fc ce bc
       1.014854 -0.047550615 0.005554101 -0.025266692
000250 f1 46 80 3d 66 8a a5 3d e7 02 ac 3e f6 21 04 3f
       0.06263531 0.08083038 0.33595964 0.5161432
000260 fa 0b 4b 3e 9d 90 05 be 4e fb 89 3c ef a2 35 3d
       0.19828787 -0.13043447 0.016843464 0.04434484
000270 6a cc e2 b9 ac 71 20 3d c2 5a 08 bd 62 9c 05 3e
       -0.0004325838 0.039170906 -0.03328968 0.13047937
000280 66 fe 2b bc ed 33 45 3d 38 5e c9 3c f4 10 93 3d
       -0.010497665 0.048145223 0.02458106 0.07180968
000290 a2 a9 2b 3d b4 4f 72 3d 81 5c 20 3d 61 a8 c2 3f
       0.04190982 0.059158042 0.03915072 1.5207635
0002a0 93 d7 4b 3d 25 b0 55 bd 1a 22 e9 3d 4a 42 63 3e
       0.049766134 -0.052169938 0.113834575 0.22193256
0002b0 78 ce d0 3d cf 81 39 3e a1 71 da 3e ea 17 c4 3c
       0.10195631 0.18115924 0.42664817 0.023937184
0002c0 2d 12 2b 3d aa a4 99 3d fd b7 b0 3b 41 0f f4 3d
       0.04176538 0.0750211 0.005393027 0.11916972
0002d0 fb b8 48 3e 44 15 78 3d 0c d5 15 3e 36 41 06 3e
       0.19601814 0.060567155 0.14632052 0.13110813
0002e0 8e 79 df 3e 19 75 d3 3d 34 78 47 bb bd 32 7e 3d
       0.43647426 0.10325069 -0.0030436637 0.062060107
0002f0 7e d2 a7 3c f7 32 09 3f e0 15 82 3d 78 e9 25 3d
       0.020486113 0.5359339 0.063518286 0.040505856
000300 74 ad 8e bc c6 9b c6 bb cb d8 ca 3c bb cb ea 3d
       -0.017416693 -0.00606105 0.024761578 0.1146464
000310 69 1c 1b 3e 7c 0b bf bb de 9b 7a 3d bb 46 71 3b
       0.15147556 -0.0058302265 0.061183803 0.003681584
000320 10 2e 53 3e cb 53 c9 3c 5a e3 a2 bc c0 6a 19 3e
       0.2062304 0.024576088 -0.0198838 0.14982128
000330 22 3a 02 bc 81 ff 00 3e ac c9 b4 3d 37 c1 db 3d
       -0.00794843 0.12597467 0.08827528 0.10730212
000340 8c f2 1f 3e d6 66 51 bb 20 d5 2c 3e 06 c0 94 3d
       0.15619868 -0.0031952164 0.16878176 0.07263188
000350 46 8f 00 3f a2 e5 2d bd 2b 5f ab 3d a6 d4 4c bc
       0.5021862 -0.042455323 0.08367761 -0.012501871
000360 22 07 c6 3d 04 2a 94 3d 50 f4 41 3e 25 f7 b9 3d
       0.09669329 0.07234576 0.18940854 0.09080342
000370 67 a8 38 3d 98 6b 10 bd a4 e4 19 3d 53 69 08 3d
       0.045082476 -0.03525886 0.037571564 0.03330357
000380 bf 69 7c 3c 40 53 51 3f bd 69 d3 3d cd a2 22 3e
       0.015406071 0.81767654 0.10322902 0.15882416
000390 f2 19 69 3e 1e 4e e9 bd 3f ab e6 3d 18 0c bf 3c
       0.22763804 -0.11391853 0.11263131 0.023321196
0003a0 4a 9d 08 3d ab d1 d3 bc 16 b3 01 bd fc 6a cc 3d
       0.033353128 -0.025856813 -0.03166493 0.09981343
0003b0 d8 2a e7 3d 94 65 05 bd 3d aa 0e bd ae 27 f9 3d
       0.11287469 -0.032567576 -0.03483032 0.121657714
0003c0 b8 1b 3d 3d 92 0c ed bc 78 45 69 3d c9 51 b4 3d
       0.046169013 -0.028936658 0.056951016 0.08804662
0003d0 26 32 24 3e 18 69 6b 3d a9 00 ff 3c c3 0a 5f 3e
       0.16034755 0.057473272 0.031128244 0.21781449
0003e0 bf 48 e1 3d c3 42 b2 bd 81 e7 ca bd aa 3a 0c 3e
       0.11000203 -0.0870414 -0.09907437 0.13694254
0003f0 b4 f5 da 3d a0 63 27 3e f5 d7 be 3f ec 07 f3 3d
       0.106913954 0.16346598 1.4909655 0.11866745
