autoencoder_mpi_pipelining/layer2.pth (torch, 68445 bytes, 2 tensors)

layer.0.weight f4 [256, 64]
00000000: 940f 2cbd f417 963b 27ee 8abd 56b7 963d
00000010: c2eb f53d 81e4 5a3d 2c89 723c 8dd2 803d
00000020: b724 3c3b 758f acbb 0f03 42bd ac98 87bd
00000030: 2437 8d3d a2a6 c0bd 0930 fabc c565 003e
00000040: 2d5d a4bd 4194 813d 730f a63d 1266 b8bd
00000050: 5947 e63d 9d91 1f3d 9cf4 ffbd abd4 6fbd
00000060: 500a 753d d24e b63c 13b2 283d 39be 07bd
00000070: 9042 a63c 8ebc 773b ee1d 29bd 3d9b c8bd
00000080: fdcb 993c f40b eabc 6be4 6dbd 3c37 0abd
00000090: 65c5 d9bc a795 673d db35 8f3d be3b ff3d
000000a0: d6e0 6d3d 1346 79bd 25bd 073c 3cc5 733b
000000b0: 4f9c 273d 93a3 803d 6efb 2f3d c71e 07be
000000c0: 3dcc 0ebd 10a7 32bc 085a ebbd 7b44 5cbd
000000d0: c14f 89bd 4c26 efbb c359 b93d 9a78 7cbd
000000e0: 9c31 ba3d 8b73 b3bd e99f 073d 13b0 a13d
000000f0: b8f0 71bd c871 5ebd d1d2 b33d bce8 043e
00000100: 0609 cdbd a39c 88bd 78f8 dabd 600e e43d
00000110: c671 463d e6e7 d53d 0f3f 84bd 19f4 7bbd
00000120: 5c5e e7bd 0f80 193d f29b bebd 7acb ca3c
00000130: cc73 553d 270f 983c f5ce bdbd 3faa 013e
00000140: 2220 ba3d 9b4c 67bd 7b38 18bd d0af debd
00000150: bfa1 c0bc 0686 dc3d 204c 06bd bd83 283e
00000160: 8134 c63d 8f9a 32bd 153a 043d fe7b 8e3d
00000170: 679c 213d e67b cd3d f830 48bc 9764 d13d
00000180: 92b5 eabc 1ede 883d 3b13 86bd 526a a63d
00000190: 1e1e 993d 148d 5bbb 4dec be3d 6b3a ed3d
000001a0: 88b0 573d ddaa a93d 3452 7abc a67e 7ebd
000001b0: 2aa5 113d bd9b 5b3d 4a91 df3d ccd4 d93d
000001c0: f99a e93b 6dc6 fdbd 26f7 883d 8cc3 e03c
000001d0: 9d8b 3f3c 966d 3abc 8275 c63d 5462 6f3d
000001e0: c91c 9a3d e5ce 093d a65d a5bc c2bf 57bd
000001f0: f891 bf3d 7c07 66bd a4f2 a83d 6585 e6bd
00000200: 96c4 b63d 2037 303d 642e afbb dcf8 ccbd
00000210: b6c8 d5bb 75a6 98bd 3250 93bd 26d7 dabd
00000220: a37a c63d b724 9dbd e016 7cbd a7a1 16bd
00000230: 6f8b 5ebd c47d 1fbd 813e e3bd d03c 023d
00000240: f812 e5bd c7e7 8b3d d084 8fbc 77ac 663d
00000250: a85d 45bd 62e3 a93d 5a6a d13d c501 833c
00000260: dded f3bd f8bc a73d 572a f1bc 24a2 cb3d
00000270: 9476 ddbd e004 04bd fbf4 cabd 240a f2bc
00000280: ad9d febd 1813 15be a146 b13d 2165 b0bb
00000290: 4628 12bc 407b d7bd 758d aabd fc1e 81bd
000002a0: 3408 de3d 001d 0abc c066 8c3d cefe a3bd
000002b0: a6ca ae3d 69f4 adbd 2348 8dbd a6c7 01be
000002c0: 89cf 813d 0cf3 a33d 2825 cfbd cb11 56bc
000002d0: b1d3 b9bc bde0 f6bd 23f8 c83d c679 33bd
000002e0: 7996 cdbb 277c 943c 0101 4ebd 5e32 fe3c
000002f0: 7988 8b3d c70f 8bbd 333f b9bd 50d3 b03d
00000300: 4086 9e3b b414 d63d 6cf2 753d d40d 80bd
00000310: 54d1 5abd dc13 103d 0055 8aba 9496 39bd
00000320: 9e0a a53d 88bd df3d 8a2b 93bd cae0 de3d
00000330: 340c 94bd 40b8 b33c 7ec9 f5bd 04c0 7c3d
00000340: 6813 ecbc a0ba 183c fc34 0c3d 2caa ba3d
00000350: a2bf c13d 90fc 283d d068 bfbd 301a 28bd
00000360: fcb2 aa3d e0be 83bb e220 febd e0fd babb
00000370: d6f6 ebbd c895 cd3d ac42 8e3d 22c6 99bd
00000380: 4867 7abd 2c3b dfbd 1a17 d1bd 384d 85bd
00000390: 6077 ae3d ca06 cdbd 9c5d c83d b48c cabd
000003a0: 08a3 9dbc 101e ed3c 706b 693c 301b 843c
000003b0: 18ba 51bd 3a24 c4bd 80e0 94bd aea5 c6bd
000003c0: 6428 8ebd 50f6 433c 003f 773d 3a8e fcbd
000003d0: 1003 293d d4f4 f03d 3232 e3bd 34ba 593d
000003e0: 6827 463d 00b1 fdbb 0848 853c 762e fabd
000003f0: 9039 f73c 6c74 3fbd b4d1 4bbd 80f1 a2bb
-0.042007044 0.004580492 -0.06783705 0.07359187 0.12007858 0.053440575 0.014803212 0.062901594
0.0028708407 -0.005266125 -0.0473662 -0.06620917 0.06895283 -0.09406783 -0.030540483 0.12538822
-0.08025584 0.06327105 0.081084155 -0.09003843 0.11244077 0.038957227 -0.124978274 -0.058552425
0.059824288 0.022254381 0.04118545 -0.033140395 0.020295411 0.0037801596 -0.04128831 -0.09795234
0.018774027 -0.028570153 -0.058079164 -0.03374408 -0.026583383 0.056539204 0.06992694 0.12462567
0.05807575 -0.060857844 0.008284842 0.0037196418 0.040920552 0.06281199 0.04296439 -0.13195334
-0.034862746 -0.010904089 -0.114917815 -0.053776246 -0.06704665 -0.0072982665 0.09050324 -0.061638452
0.090914935 -0.087622724 0.033111487 0.078949116 -0.059067458 -0.05430773 0.087804444 0.12979406
-0.10011487 -0.06670501 -0.10691923 0.11135554 0.048448347 0.10444622 -0.0645734 -0.061512087
-0.112972945 0.03747564 -0.09307088 0.024755228 0.052112386 0.018561913 -0.092679895 0.126626
0.0908816 -0.05646954 -0.03716324 -0.10873377 -0.023514627 0.107677504 -0.032787442 0.16456504
0.09677983 -0.04360443 0.032281954 0.069572434 0.039455798 0.100333974 -0.012218706 0.10224264
-0.028651033 0.066829905 -0.06546637 0.08125748 0.074764475 -0.0033500837 0.093224145 0.11583408
0.052658588 0.08284543 -0.015278388 -0.0621325 0.035557903 0.05361532 0.109163836 0.10636291
0.00712907 -0.12391362 0.06687765 0.027436994 0.011691001 -0.011378666 0.096903816 0.058443382
0.075250216 0.033644576 -0.020186257 -0.05267311 0.09354013 -0.05615948 0.08249405 -0.11255912
0.089242145 0.04302132 -0.0053461064 -0.10008404 -0.0065241707 -0.07453624 -0.071930304 -0.106855676
0.0969136 -0.076730184 -0.061545253 -0.036775257 -0.054332193 -0.0389383 -0.11095906 0.031796277
-0.111852586 0.068313174 -0.017519385 0.05631682 -0.04818502 0.08295323 0.10225363 0.015992055
-0.11910603 0.0819034 -0.029439135 0.09943035 -0.108136326 -0.03223121 -0.099100076 -0.029545851
-0.12432418 -0.14558065 0.086560495 -0.0053831493 -0.008920735 -0.10521555 -0.08327762 -0.06304738
0.10841408 -0.008429766 0.068555355 -0.080075845 0.08534746 -0.08493883 -0.068985246 -0.12673816
0.06338412 0.08005342 -0.10114509 -0.013065766 -0.02268395 -0.12054584 0.09812953 -0.043817304
-0.0062740413 0.018125607 -0.050293926 0.031029876 0.068131395 -0.06790119 -0.090452574 0.08634055
0.004837781 0.104531676 0.060045645 -0.062526375 -0.053422287 0.03517519 -0.0010553896 -0.045309618
0.08058666 0.10924822 -0.07186039 0.10882719 -0.0722889 0.021938443 -0.12001322 0.061706558
-0.028817847 0.009321839 0.034230217 0.09114489 0.09460379 0.041256487 -0.09346163 -0.0410406
0.0833492 -0.004020557 -0.12408616 -0.005706534 -0.115216896 0.10038334 0.069463104 -0.07508494
-0.061133653 -0.10899958 -0.102094844 -0.06508869 0.08518863 -0.100110605 0.097834796 -0.09890118
-0.019242778 0.028944999 0.0142468065 0.016126245 -0.051202863 -0.09577222 -0.072693825 -0.0969957
-0.06941298 0.011960581 0.060362816 -0.12331815 0.041262686 0.11765447 -0.11093558 0.053156093
0.048377424 -0.0077420473 0.016269699 -0.12215893 0.030178815 -0.046741888 -0.049760535 -0.0049726367

layer.0.bias f4 [256]
00000000: 5177 9e3c a7a2 14bd 40bb 85bc b61f a9bd
00000010: 73ea 54bb f624 07bc 81e5 96bd 44a7 3c3c
00000020: b03b 84bb eed2 9d3d 6c01 c2bd dad4 1c3b
00000030: 0529 4abd 885f 33bd 1e6a 08bb f662 653d
00000040: 4534 6a3d 474e 5f3c c2e9 943c 20ef debd
00000050: 9d74 d5bb e515 403c 49ce c5bd 8623 c53b
00000060: 1f10 67bb a05e 47bd d880 2f3c ad2c 08bd
00000070: 8e51 9b3d fec3 49bd 2343 c63b 3bed e4bd
00000080: b4ef fe3c ac02 f2bd 66b3 c1bd 18a8 83bc
00000090: 6048 c2ba 3f3a cbbd e1ab b2bd 3617 eabd
000000a0: 95de c5bd a45e 63bc 1b49 a7bd aaa5 fabd
000000b0: 2342 04be bd6d f6ba 0b28 82bc ceb8 8cbb
000000c0: 6c9f a73b 2321 bebd 1459 8cbb 592f aebb
000000d0: 763f e03d d703 873b b967 65bd d265 aa3c
000000e0: ae51 9cbd aeb0 a2bd f1e1 7cbd 4964 e3bc
000000f0: 63eb c03b 3015 2d3d fd73 d6bd f3ca 22bd
00000100: 1f94 46bb 2e91 8bbc df94 ab3d d839 59bd
00000110: acaf 3abb 5ee9 a7bd 3426 793c 8a0f ffbd
00000120: f56f 153d b783 2dbc 7546 2c3c 76a4 cdbc
00000130: 88a9 e1bd e6ef 643c 1985 6b3c ba33 e9bc
00000140: 894b ccbc dcf2 a1bc 67b0 483c 689e babd
00000150: 70c6 84bd 0c8f 1a3c 170b 373d bd06 ec3c
00000160: 061a f8bd 3a90 d3bd f24a b0bd e1d6 91bb
00000170: 305b 743b 0b4d c6bd 3b66 b33d 3bba c03d
00000180: 12c7 c4bd 9414 f3bd b05d 293c 86f9 babd
00000190: c3c1 28bc 01e0 27bd 7538 1cbb bc9e 4abd
000001a0: fa8d a3bd a43d a83c 1f5e d0bc 5632 0c3e
000001b0: b7ca 13bb eb94 b0bc f1d8 4b3d 886a 84bd
000001c0: d6fb f4bd 7b55 053c aeac 9fbc b39d 693d
000001d0: a40f 3cbd 2bde 16ba 3880 8abd 94d7 613d
000001e0: ff94 c6bb 920c d9bd 5312 9fbc f84b 85bd
000001f0: 25ef 353c 7e20 17bd cd63 64bd fda6 6bbd
00000200: 6ea9 64bb 0c7b 183d 0989 89bc 6b92 00be
00000210: 3eda cfbc 08cb eebd bbbc 52bd 7858 13bb
00000220: 9009 593d 0e69 92bd c04d 01bb cf45 7b3d
00000230: f1dc 4fbb e9f9 d93d 3df4 7bbc 65b6 37bc
00000240: 9e43 1f3c 3cf5 28bd 72d1 0d3e 6e3e 21bd
00000250: a4cc b5bc ddd2 82bc 525e d7bd dbb3 06bc
00000260: c624 863b 548e 9ebc 640e 4ebd ffec a53c
00000270: e876 31bb 55af b8bd 2736 03be 2326 1abc
00000280: be2c acbd 8758 a93c b793 8bbc 9a20 dbbd
00000290: 3ee4 ccbb a8fe 20bc 3292 3cbb 4298 02bc
000002a0: c12d 9e3d b2d9 093d ab4a 74bc 1dcb 55bc
000002b0: 714e c03b 8ebf cebd 40df 74bd 214e 84bc
000002c0: c00e c9bc c5db 53bc 9812 61bd feec e3bc
000002d0: ee66 a6bd 99a1 273d b16d a13d 77e4 61ba
000002e0: 5a8b 81bc acc1 d23d 0078 fbbd 1cc0 c4bb
000002f0: b5ff 32bc feb6 19bb f66e 04be e4bf 9abd
00000300: 3e01 05bd e517 99bd 7682 cb3c 79e4 beba
00000310: 61c3 86bc c6c7 953c 3722 0fbc 2301 113e
00000320: dd94 dd3d 3b9c d9ba 1ec7 223c b7d4 caba
00000330: 0789 bbbd 424d a83c 303e 3dbd f58a 27bc
00000340: 9879 be3c 63b3 3dbb c5ba 1aba 2204 ecbb
00000350: b81b b33d 10bd 7fbd abd3 29bb 0767 edbd
00000360: 0c69 1b3d 5266 e0bd 1025 123e 387f 9abc
00000370: 5bba a4bb f275 febd 40b6 36bc f05f 80bc
00000380: 3483 8abb a4b8 a33d 7e3b 12bd 2eca 28bb
00000390: 9e04 81bc 57e5 33bb 5b23 083c 3619 ffbc
000003a0: ebda a43d 3c38 50bc 485e 703d 7020 94bb
000003b0: 17fe 1abd fb0d 0c3d aab5 fdbb 3ce2 d7b8
000003c0: d819 b6bd f99e 983d d06e fcbd f19a c3bc
000003d0: ddea babd d627 37bb 38ea b13d c6ec 2fbd
000003e0: dbf2 58bc 141c 04bd 5c5b 923c 31ca c83d
000003f0: 9a1d 5abd 8a8f d5bd d8fd b03c 729f fdbd
0.019344004 -0.03628793 -0.01632464 -0.082580015 -0.0032488375 -0.008248558 -0.07367993 0.011514489
-0.0040354356 0.07706247 -0.094729275 0.002393058 -0.049355526 -0.043792278 -0.0020815204 0.05600258
0.057178754 0.013629503 0.01817787 -0.10885453 -0.0065141455 0.01172397 -0.096584864 0.0060161976
-0.0035257412 -0.048674226 0.010711871 -0.03324573 0.07583915 -0.04925918 0.006050484 -0.111780606
0.031120159 -0.11816916 -0.09458046 -0.016071364 -0.0014822595 -0.09923219 -0.087241895 -0.114302084
-0.09661595 -0.013877545 -0.08168241 -0.12238629 -0.12915854 -0.0018801015 -0.015888235 -0.0042944914
0.00511544 -0.09283664 -0.00428308 -0.005315703 0.10949604 0.004120331 -0.05600712 0.020800505
-0.07632767 -0.07943855 -0.061738912 -0.02775778 0.0058874353 0.042256534 -0.10471342 -0.03974433
-0.003030069 -0.017037 0.08378004 -0.05303368 -0.0028486056 -0.08198808 0.015206862 -0.12454136
0.036483724 -0.010590485 0.010514845 -0.025102835 -0.11018664 0.013973212 0.014374995 -0.028467048
-0.024938362 -0.019769125 0.012249089 -0.09112245 -0.064831614 0.009433519 0.04468831 0.028811807
-0.121143386 -0.103302434 -0.08608045 -0.0044506644 0.0037285797 -0.096826635 0.08759733 0.09410521
-0.09608282 -0.11869159 0.010337278 -0.09129624 -0.010300103 -0.04098511 -0.0023837362 -0.049467787
-0.07986064 0.020537205 -0.025435505 0.13691077 -0.0022551247 -0.021555385 0.04976744 -0.06465632
-0.119620964 0.008138056 -0.01949152 0.05703516 -0.045913354 -0.00057551515 -0.06762737 0.055137232
-0.006060242 -0.10598101 -0.019417917 -0.065086305 0.01110438 -0.03689622 -0.05575924 -0.0575323
-0.0034891027 0.03722672 -0.016788976 -0.12555854 -0.02537262 -0.11659819 -0.05144952 -0.0022483151
0.052987635 -0.07148944 -0.001973018 0.06134587 -0.0031717385 0.1064337 -0.015378055 -0.01121292
0.009720711 -0.0412495 0.13849428 -0.03936618 -0.022192307 -0.015969688 -0.10516037 -0.008221592
0.004093739 -0.019354977 -0.050306693 0.02025461 -0.002707893 -0.09017817 -0.12813626 -0.009408507
-0.084069714 0.020672096 -0.01703821 -0.10699578 -0.0062527945 -0.00982634 -0.0028773663 -0.007970871
0.077235706 0.033654876 -0.01491038 -0.013048914 0.005868726 -0.1009513 -0.05978322 -0.016150536
-0.024543166 -0.012930815 -0.054949373 -0.027822968 -0.08125101 0.040925596 0.0788225 -0.0008617113
-0.015813518 0.10290846 -0.122787476 -0.0060043465 -0.010925223 -0.002345502 -0.12932953 -0.075561315
-0.032471888 -0.07475261 0.024842482 -0.001456394 -0.016450586 0.018283736 -0.008736185 0.1416059
0.10819409 -0.0016602346 0.009935169 -0.0015474771 -0.09156995 0.020544652 -0.046201885 -0.010226001
0.02325134 -0.0028946034 -0.00059024646 -0.007202641 0.08745521 -0.062436163 -0.0025913517 -0.115919165
0.037941977 -0.10957016 0.1427195 -0.01885949 -0.005027098 -0.1242484 -0.01115185 -0.015670747
-0.0042270664 0.07994202 -0.035701267 -0.0025755274 -0.015749272 -0.002744993 0.008309211 -0.031139951
0.08049568 -0.01270872 0.058683664 -0.0045204684 -0.037839975 0.03419302 -0.0077426033 -0.00010294138
-0.08891648 0.07452197 -0.12325823 -0.023877593 -0.09126828 -0.0027947328 0.08687252 -0.042950414
-0.013241495 -0.03225334 0.01786583 0.0980419 -0.053250886 -0.104277685 0.021605417 -0.123839274
