autoencoder_mpi_pipelining/layer0.pth (torch, 403805 bytes, 2 tensors)

layer.0.weight f4 [128, 784]
-0.02316481 -0.031893283 0.014286966 -0.0020984754 0.006094179 -0.025905581 -0.01900779 -0.025483144
0.032882836 0.011578561 -0.017729424 0.028215772 0.0067966585 -0.034446295 0.019961555 0.002706004
0.01399274 -0.023298848 0.0020690945 0.029636415 0.03009456 -0.014174534 -0.01632147 0.01412072
-0.03566791 0.032290082 0.006137614 0.02745932 0.033981048 0.019246597 -0.00013881922 0.019331813
-0.002431708 -0.02912011 0.01270943 -0.015755637 -0.00267799 0.010316087 -0.011808975 0.02350076
0.0133530805 0.008906003 0.0252912 -0.022006882 0.021239141 0.024270676 0.022634396 0.030327994
0.004708703 -0.0039109634 -0.03103863 -0.024466868 0.02336808 -0.034189727 -0.016945563 -0.018464204
0.0032100594 -0.0053981845 -0.016967744 -0.02004217 0.034112453 -0.009622034 -0.0019369466 0.028291725
-0.01948585 -0.029743737 -0.02554104 0.0038418006 0.018379629 0.025929742 -0.0067545944 -0.0031668418
0.023088457 0.002156777 0.02274911 0.025152756 -0.0041148793 -0.022680467 -0.028601354 0.022182887
0.015299866 -0.035047106 -0.009936035 -0.033353854 -0.0345962 -0.033899292 0.014212524 0.03459452
-0.0045510363 -0.023357656 -0.031526275 0.011638952 0.02530436 0.0056377226 0.028413096 -0.009539111
-0.022388617 0.015152532 -0.01830245 0.01836194 0.027293373 0.03186379 -0.012819354 -0.03032263
0.006570195 -0.03374602 -0.022068633 0.026621891 -0.018608576 0.0026064047 -0.03320509 0.026943931
0.032763645 -0.019684708 0.0062800776 0.030971235 0.0031658327 -0.029747535 -0.020166177 -0.0120318625
-0.021052327 -0.034327798 0.019258164 -0.032447904 0.016483095 0.018212788 -0.010587902 0.0075003677
0.0013108168 -0.0049683666 -0.024174096 0.0125765 -0.017068498 -0.011205984 -0.022872321 0.016487796
-0.021863313 0.025980415 -0.009918004 -0.024719639 0.033372607 -0.007863803 -0.0046782154 -0.010528753
0.008544049 0.032589454 0.014317692 0.019208824 -0.023371805 0.021402037 -0.0030708485 -0.028626312
-0.005706834 0.0057895654 -0.004134221 0.03142157 0.03546145 -0.0092585515 0.020329028 0.01730474
0.01594541 0.035274874 0.004586582 -0.014020376 -0.00595989 0.014772607 -0.01336377 -0.016623983
-0.0076195984 -0.013995541 -0.020817233 0.008245085 0.0074031656 -0.0021450394 0.0034136008 0.01993326
0.033495303 0.012241373 0.02331965 0.0017900383 -0.030848416 -0.031725448 -0.015622374 -0.03164379
-0.028337408 0.016668925 -0.01529801 -0.022683438 -0.023430267 0.021163972 -0.027464297 -0.015002439
0.020362923 -0.004526113 0.0023098674 -0.028759992 -0.00408437 -0.0193523 -0.00784533 -0.0033315974
0.006451743 -0.02767824 0.009412719 -0.0131177185 -0.026179992 -0.02784603 -0.014907505 0.021026673
0.014664535 -0.0025892684 0.02919437 -0.0064240866 -0.029699113 0.019557681 0.00832361 0.03403319
0.012710134 0.028061677 -0.013117846 0.019620245 0.013280724 -0.022092463 -0.016348163 -0.03308462
0.035323758 -0.016700942 -0.028630372 0.02382342 -0.014439443 -0.029623186 -0.027658362 -0.0077457177
0.024842348 0.03458029 0.026515426 -0.013141999 -0.0032592204 0.027944425 0.010148535 0.0072212606
-0.016385872 -0.004303366 -0.021469804 -0.012119017 -0.028109254 -0.028093684 0.029495202 0.00027572684
0.0009242807 0.018323798 -0.012661598 0.035423096 -0.008992553 -0.020740433 -0.0053746533 -0.016794223
00000000: 21c4 bdbc 88a2 02bd e113 6a3c 9386 09bb
00000010: aeb1 c73b f137 d4bc 3ab6 9bbc 07c2 d0bc
00000020: 27b0 063d 01b4 3d3c 4c3d 91bc c324 e73c
00000030: 81b6 de3b 8f17 0dbd 6a86 a33c 3757 313b
00000040: ce41 653c 3add bebc a599 073b 11c8 f23c
00000050: de88 f63c 4e3c 68bc 9ab4 85bc 985a 673c
00000060: 8418 12bd 9b42 043d 0a1e c93b 5ef2 e03c
00000070: b62f 0b3d 0aab 9d3c 0090 11b9 c05d 9e3c
00000080: 4a5d 1fbb 4c8d eebc 373b 503c f711 81bc
00000090: 3781 2fbb ce04 293c 6e7a 41bc aa84 c03c
000000a0: e1c6 5a3c 7cea 113c 7e2f cf3c c747 b4bc
000000b0: b5fd ad3c 4cd3 c63c c56b b93c 6a72 f83c
000000c0: 774b 9a3b 8a27 80bb ba44 febc be6e c8bc
000000d0: 6a6e bf3c 870a 0cbd 6cd1 8abc 3e42 97bc
000000e0: dc5f 523b 41e3 b0bb f0ff 8abc 7a2f a4bc
000000f0: 80b9 0b3d bca5 1dbc 25e1 fdba 0cc4 e73c
00000100: caa0 9fbc 23a9 f3bc 713b d1bc b8c6 7b3b
00000110: e090 963c 9c6a d43c a555 ddbb ca8a 4fbb
00000120: 0124 bd3c b758 0d3b 575c ba3c 270d ce3c
00000130: 1cd6 86bb 63cc b9bc 634d eabc e3b8 b53c
00000140: 4aac 7a3c 8e8d 0fbd c0ca 22bc 0d9e 08bd
00000150: bfb4 0dbd fcd9 0abd a5db 683c fcb2 0d3d
00000160: dc20 95bb 8e58 bfbc b221 01bd 4eb1 3e3c
00000170: 174b cf3c a5bc b83b 95c2 e83c ee49 1cbc
00000180: 5568 b7bc 5342 783c 05ef 95bc c76b 963c
00000190: 5a96 df3c 9b83 023d 4508 52bc 2a67 f8bc
000001a0: ca4a d73b 4439 0abd 47c9 b4bc 2716 da3c
000001b0: 0371 98bc 37d0 2a3b 0f02 08bd 85b9 dc3c
000001c0: 2c33 063d d341 a1bc 1cc9 cd3b 63b7 fd3c
000001d0: dc79 4f3b 1ab1 f3bc 8a33 a5bc 4a21 45bc
000001e0: ee75 acbc 4e9b 0cbd 4cc3 9d3c 18e8 04bd
000001f0: 8e07 873c fc32 953c e178 2dbc a5c5 f53b
00000200: b7cf ab3a aecd a2bb c108 c6bc aa0d 4e3c
00000210: 3cd3 8bbc 4e99 37bc bc5e bbbc 6a11 873c
00000220: b11a b3bc e1d4 d43c 207f 22bc d780 cabc
00000230: b7b1 083d 2ed7 00bc b74b 99bb ca80 2cbc
00000240: 57fc 0b3c 857c 053d c194 6a3c d35b 9d3c
00000250: 3a76 bfbc 5353 af3c 4a40 49bb ba81 eabc
00000260: 6500 bbbb 65b6 bd3b 5c78 87bb e7b3 003d
00000270: 0740 113d 2eb1 17bc 1089 a63c acc2 8d3c
00000280: f39f 823c 637c 103d 0a4b 963b b8b5 65bc
00000290: 2e4b c3bb ce08 723c b7f3 5abc 052f 88bc
000002a0: d3ad f9bb 8e4d 65bc e788 aabc 6516 073c
000002b0: 4196 f23b ca93 0cbb b8b6 5f3b 134b a33c
000002c0: 5f32 093d 0a90 483c da08 bf3c b89f ea3a
000002d0: d1b5 fcbc 8bf2 01bd fcf4 7fbc eb9c 01bd
000002e0: da23 e8bc 458d 883c 81a4 7abc 9ed2 b9bc
000002f0: d5f0 bfbc 1160 ad3c cefc e0bc cacc 75bc
00000300: 25d0 a63c ca4f 94bb 2561 173b 139a ebbc
00000310: 2ed6 85bb b788 9ebc b389 00bc ee56 5abb
00000320: 2569 d33b 7abd e2bc ce37 1a3c b3eb 56bc
00000330: 6c77 d6bc 5c1d e4bc 9c3e 74bc 2140 ac3c
00000340: 8543 703c b7b0 29bb 0829 ef3c 2581 d2bb
00000350: 8e4b f3bc 6e37 a03c c05f 083c 6366 0b3d
00000360: 2a3e 503c 9ae1 e53c 3cec 56bc a3ba a03c
00000370: 6597 593c 41fb b4bc 95ec 85bc bd83 07bd
00000380: a5af 103d 6ad0 88bc 3e8a eabc 5529 c33c
00000390: 6a93 6cbc 53ac f2bc ca93 e2bc cacf fdbb
000003a0: 2e82 cb3c 10a4 0d3d e136 d93c 8a51 57bc
000003b0: a598 55bb b5eb e43c 0a46 263c 53a0 ec3b
000003c0: aa3b 86bc 4003 8dbb 71e1 afbc d78e 46bc
000003d0: 6145 e6bc ba24 e6bc ec9f f13c 6e8f 9039
000003e0: 6e4b 723a ca1b 963c 9772 4fbc cf17 113d
000003f0: 8055 13bc d7e7 a9bc dc1d b0bb 0a94 89bc

layer.0.bias f4 [128]
0.025142927 0.033774145 -0.014496447 0.013857962 0.0012875412 -0.035343546 -0.026368989 0.0031135806
-0.012247584 -0.02548476 0.0059936857 -0.008414507 -0.010582788 0.028282601 0.015957057 -0.032930084
0.023862619 0.0038145697 -0.014997394 0.012949387 0.030430164 -0.029931465 0.00073852285 0.012573758
0.0138829695 -0.007631021 0.0022712138 -0.019106036 -0.028110795 -0.012432976 -0.029837223 -0.030719265
-0.014676435 0.01853472 -0.013405809 0.013585879 -0.012256052 0.009491006 0.00040956057 -0.01651173
0.0042404067 0.009725627 -0.01905017 0.024933403 -0.005281253 0.015788846 -0.01765284 0.028151693
-0.0147256 0.030515749 -0.025913658 -0.019237673 0.011160855 -0.027394595 -0.0039602094 0.017217875
-0.009201144 -0.02135428 -0.00927659 -0.03221449 0.0059865885 -0.012855705 -0.0004996615 0.019607473
0.02949508 0.03063191 -0.019964946 0.030516025 0.009195 0.024322975 0.0103876935 -0.006587135
0.008243791 -0.019091798 0.016673524 -0.028691182 -0.01576754 0.033553347 -0.026804559 -0.015235531
-0.033256557 -0.02892004 0.009335676 0.035094 0.0061382996 0.014536271 0.028422292 -0.0036468592
-0.02914405 0.018697735 0.034047734 -0.030262098 -0.013899021 0.008302966 -0.019198142 0.028734345
0.015931765 -0.0027784365 -0.016236804 -0.022039069 0.0012185532 0.029568363 0.0132181905 0.03071522
0.0054854583 0.019100755 0.02281671 0.0021705884 -0.018834762 -0.03163337 -0.011462799 0.029883582
0.01541469 -0.0316902 0.0052569 -0.012035919 -0.01379401 -0.013851758 -0.0018481698 -0.0303974
-0.021956457 -0.0059939497 -0.01200805 -0.0011104388 0.0294496 0.03460508 -0.021291925 0.009955419
00000000: 8af8 cd3c c256 0a3d 8182 6dbc 810c 633c
00000010: b7c2 a83a 65c4 10bd c703 d8bc 370d 4c3b
00000020: 17aa 48bc 6ac5 d0bc ae66 c43b 00dd 09bc
00000030: 6e63 2dbc eab0 e73c 60b8 823c b2e1 06bd
00000040: 8a7b c33c dcfd 793b a1b7 75bc aa29 543c
00000050: ae48 f93c d532 f5bc 6e99 413a 2a02 4e3c
00000060: 6575 633c a50d fabb a5d8 143b 4384 9cbc
00000070: 9c48 e6bc aeb3 4bbc 316d f4bc f8a6 fbbc
00000080: 6e75 70bc 20d6 973c 0aa4 5bbc 4e97 5e3c
00000090: 9ccd 48bc 2a80 1b3c 4aba d639 9c43 87bc
000000a0: 1cf3 8a3b 3c58 1f3c 1a0f 9cbc 2341 cc3c
000000b0: 5c0e adbb 9c57 813c b09c 90bc 619e e63c
000000c0: a543 71bc 2afc f93c e148 d4bc 5398 9dbc
000000d0: 05dc 363c a16a e0bc a5c4 81bb 800c 8d3c
000000e0: 65c0 16bc 2cef aebc d7fc 17bc 57f3 03bd
000000f0: 252b c43b bca0 52bc b7fb 02ba da9f a03c
00000100: aa9f f13c c5ef fa3c 878d a3bc befc f93c
00000110: a0a6 163c fa40 c73c 2531 2a3c e5d8 d7bb
00000120: f710 073c 6766 9cbc ea96 883c c509 ebbc
00000130: ee2a 81bc 3c6f 093d 3c95 dbbc 739e 79bc
00000140: 0738 08bd b8e9 ecbc aaf4 183c babe 0f3d
00000150: ca23 c93b 8a29 6e3c ded5 e83c 2500 6fbb
00000160: 81bf eebc fe2b 993c a375 0b3d 38e8 f7bc
00000170: b8b8 63bc 2a09 083c 6c45 9dbc 4a64 eb3c
00000180: 5583 823c 6e16 36bb 0c03 85bc 478b b4bc
00000190: dcb7 9f3a 5a39 f23c 1c91 583c 7c9e fb3c
000001a0: 5cbf b33b 3079 9c3c 1cea ba3c 6e40 0e3b
000001b0: 5c4b 9abc fe91 01bd 77ce 3bbc 6ace f43c
000001c0: e58d 7c3c 95cd 01bd 1342 ac3b 4e32 45bc
000001d0: 4500 62bc 7cf2 62bc 4a3e f2ba f803 f9bc
000001e0: 07de b3bc e568 c4bb 6abd 44bc 258c 91ba
000001f0: 4a40 f13c 0ebe 0d3d 676c aebc 0e1c 233c
