autoencoder_mpi_pipelining/layer1.pth (torch, 807837 bytes, 2 tensors)

layer.0.weight f4 [784, 256]
-0.047782905 -0.031278934 -0.026268637 0.004286802 -0.09613682 -0.010524822 -0.053266566 -0.011881772
-0.061039142 -0.04311942 -0.04853501 -0.05321803 -0.029546924 -0.04360191 -0.018382825 0.009005703
0.031370293 0.022028247 -0.058275867 0.0049581844 0.014522512 -0.069725 0.017849863 0.007413984
0.014253315 -0.026517915 -0.070194885 0.007106329 -0.050235387 -0.012725863 -0.027201109 -0.015216009
-0.036991823 -0.011627013 -0.05682085 -0.069962956 -0.051728167 -0.08035621 -0.023313247 -0.07071338
0.015060461 -0.061468273 -0.051690195 -0.05987432 -0.05858297 -0.017919255 0.003599899 -0.14671738
-0.037159204 0.048657652 -0.43655947 -0.04600081 -0.07863969 -0.045641687 -0.026293226 0.050022878
-0.117719315 0.018093655 -0.030151905 -0.06256698 -0.17284086 -0.06552724 -0.041586205 -0.024092996
0.0026485578 -0.16302545 -0.020568172 0.0007207937 -0.09439421 -0.017303204 -0.96558195 -0.09176197
-0.057005085 -0.08617699 0.037537523 -0.08580242 0.021287879 -0.018106448 -0.07765656 -0.023793692
-0.018778948 -0.36501345 -0.0619978 0.03749709 -0.046432864 -0.05908957 0.0012347352 -0.055542532
-0.036226217 -0.035224985 -0.020137196 0.0062559033 -0.04550299 -0.027618805 -0.062439077 -0.051601425
-0.025505135 0.034028877 -0.027992899 -0.034408584 -0.00042473117 -0.008934563 -0.043514814 -2.2177333e-05
-0.008755831 -0.035388846 -0.027865335 -0.048915353 -0.06467871 -0.009395114 -0.071361616 -0.109090336
-0.02813603 -0.041805204 -0.05759704 -0.037534177 -0.080461025 -0.020843808 -0.060758375 -0.031539664
-0.043604765 0.013138897 -0.07060438 -0.036644563 -0.032021668 -0.049841896 -0.033185855 -0.060699396
-0.02410413 0.013093946 -0.011293357 -0.09496839 -0.0454661 -0.062154826 -0.044047996 0.022978833
0.012500918 -0.034767106 -0.057238102 -0.037535135 0.014450566 -0.12993085 -0.0350848 -0.07278873
-0.019557904 -0.011740484 0.031944085 -0.019198608 -0.031191012 -0.03081421 -0.09099404 -0.07433667
0.0017760973 -0.15772463 -1.703935 0.012587845 -0.012949349 -0.025782049 -0.0041019 0.0028598418
-0.094516605 -0.041378755 -0.0877445 -0.16125195 -0.21077217 -0.03168918 -0.055314943 -0.014363446
0.004527665 -0.022435678 0.027112093 -0.0135953855 -0.047631375 0.0143532455 0.004972174 -0.091543265
0.0038641433 0.0047029555 0.008012161 -0.044056617 0.023899566 -0.008621227 -0.057776928 -0.034423314
0.01721636 -0.095135376 -0.0724515 -0.05676037 -0.035788964 -0.020831442 -0.08716561 -0.09336229
-0.054022573 -0.0010911926 -0.0406135 -0.08700648 -0.06015961 -0.045920197 -0.06445398 0.0009243546
-0.04923365 -0.0664603 -0.038470507 0.03282042 -0.030501885 0.042785197 -0.09521334 -0.057806987
-0.019292638 -0.06276482 -0.061493132 -0.079574846 -0.045620482 -0.013818906 -0.010012074 0.003893961
-0.060504094 -0.08251016 -0.04208593 0.00063382636 -0.04156138 -0.054415286 -0.09656731 -0.010695269
0.022454416 0.022926303 -0.09632366 -0.018731495 -0.3394385 -0.07576004 -0.037828848 -0.079085104
-0.021833014 -0.064930126 0.0289924 -0.05055756 0.018330563 -0.034464765 -0.008932708 -0.069037974
-0.038002007 -0.019283416 -0.2642882 -0.06617184 -0.035872895 0.03630763 0.009253159 -0.09274575
-0.058077108 -0.04891879 -0.037138008 -0.0930749 -0.035676926 -0.04468045 -0.042471197 -0.00068692886
00000000: 02b8 43bd 571e 00bd 5331 d7bc 4d78 8c3b
00000010: 62e3 c4bd 4e70 2cbc 0b2e 5abd c4ab 42bc
00000020: 2e04 7abd fd9d 30bd a6cc 46bd 26fb 59bd
00000030: 640c f2bc eb97 32bd 9497 96bc a88c 133c
00000040: 237e 003d 9574 b43c adb2 6ebd 4478 a23b
00000050: d5ef 6d3c fbcb 8ebd e039 923c 01f1 f23b
00000060: bc86 693c 193c d9bc 56c2 8fbd 35dc e83b
00000070: 9fc3 4dbd 2380 50bc dcd4 debc 914c 79bc
00000080: bd84 17bd 3a7f 3ebc fbbc 68bd bd48 8fbd
00000090: eae0 53bd cc91 a4bd 6cfb bebc 2dd2 90bd
000000a0: 27c0 763c 28c6 7bbd 19b9 53bd c63e 75bd
000000b0: b2f4 6fbd 67cb 92bc 48ec 6b3b 153d 16be
000000c0: 4034 18bd 3f4d 473d b984 dfbe 586b 3cbd
000000d0: d90d a1bd c7f2 3abd e464 d7bc cae4 4c3d
000000e0: d316 f1bd 2539 943c 2101 f7bc 1e23 80bd
000000f0: 32fd 30be 2533 86bd 4c56 2abd ad5e c5bc
00000100: 6d93 2d3b 25f0 26be 957e a8bc a5f3 3c3a
00000110: c051 c1bd 73bf 8dbc 6130 77bf b3ed bbbd
00000120: 2a7e 69bd 907d b0bd f2c0 193d 2eb9 afbd
00000130: eb63 ae3c f953 94bc 670a 9fbd fdea c2bc
00000140: 4fd6 99bc 0be3 babe 68f1 7dbd 8c96 193d
00000150: 6330 3ebd e807 72bd d7d6 a13a 9180 63bd
00000160: f161 14bd 1348 10bd c3f6 a4bc 52fe cc3b
00000170: 5861 3abd d540 e2bc 1ec0 7fbd 045c 53bd
00000180: 25f0 d0bc dd61 0b3d 5d51 e5bc 04f0 0cbd
00000190: 74ae deb9 4662 12bc 973c 32bd 7609 bab7
000001a0: 9e74 0fbc e5f3 10bd d845 e4bc 775b 48bd
000001b0: 4676 84bd f7ed 19bc 0a26 92bd c16a dfbd
000001c0: 887d e6bc ef3b 2bbd e0ea 6bbd 70bd 19bd
000001d0: c0c8 a4bd a2c0 aabc c6dd 78bd bc2f 01bd
000001e0: e99a 32bd 8744 573c 0799 90bd 9c18 16bd
000001f0: 2729 03bd 0427 4cbd e4ed 07bd ee9f 78bd
00000200: 0676 c5bc fd87 563c c607 39bc ca7e c2bd
00000210: a93a 3abd 0f96 7ebd ac6b 34bd 1b3e bc3c
00000220: a6d0 4c3c f467 0ebd 8072 6abd 71be 19bd
00000230: 11c2 6c3c 980c 05be 14b5 0fbd 4212 95bd
00000240: e637 a0bc 295b 40bc cdd7 023d 6646 9dbc
00000250: 4b84 ffbc 156e fcbc 155b babd d33d 98bd
00000260: f0cb e83a 9182 21be 8b1a dabf 403d 4e3c
00000270: 8229 54bc e034 d3bc 3b69 86bb 2f6c 3b3b
00000280: ec91 c1bd c57c 29bd 63b3 b3bd 3b1f 25be
00000290: a9d4 57be 83cc 01bd ec91 62bd a954 6bbc
000002a0: cf5c 943b 07cb b7bc 2e1a de3c 2ebf 5ebc
000002b0: 1e19 43bd e029 6b3c 9eed a23b 097b bbbd
000002c0: 913d 7d3b 401b 9a3b 7045 033c b674 34bd
000002d0: 06c9 c33c 0c40 0dbc 80a7 6cbd 76ff 0cbd
000002e0: 5309 8d3c 56d6 c2bd 7461 94bd 907d 68bd
000002f0: 7397 12bd b3a6 aabc e283 b2bd ba34 bfbd
00000300: c646 5dbd 5906 8fba 575a 26bd 7430 b2bd
00000310: ec69 76bd d116 3cbd 7300 84bd 6350 723a
00000320: 39a9 49bd 561c 88bd 4093 1dbd b46e 063d
00000330: 17df f9bc 883f 2f3d 36ff c2bd 05c7 6cbd
00000340: 980b 9ebc d88a 80bd 39e0 7bbd 23f8 a2bd
00000350: 8bdc 3abd b168 62bc af09 24bc d331 7f3b
00000360: 24d3 77bd 16fb a8bd 4c62 2cbd 5e27 263a
00000370: 443c 2abd 90e2 5ebd 15c5 c5bd 363b 2fbc
00000380: 53f2 b73c f1cf bb3c 5745 c5bd cb72 99bc
00000390: e2ca adbe 1428 9bbd 6cf2 1abd 5ff7 a1bd
000003a0: 26db b2bc 16fa 84bd 7881 ed3c 7215 4fbd
000003b0: fa29 963c ed2a 0dbd 7e5a 12bc c863 8dbd
000003c0: fea7 1bbd 41f8 9dbc c850 87be 1a85 87bd
000003d0: 75ef 12bd 4fb7 143d 909a 173c 7cf1 bdbd
000003e0: 43e2 6dbd 125f 48bd 061e 18bd 0e9e bebd
000003f0: f821 12bd d902 37bd 47f6 2dbd 0413 34ba

layer.0.bias f4 [784]
-0.08897765 -0.012605359 0.012305812 -0.07147474 -0.06375927 -0.03607977 -0.07054545 -0.004404075
-0.07299747 0.030545944 -0.046572603 -0.07760075 0.010736913 -0.020787174 -0.06603884 -0.07450481
-0.043638587 -0.058395162 -0.074407205 -0.08770204 0.011276872 -0.046435982 -0.015434183 0.014375261
-0.07040039 -0.037763048 -0.022569438 -0.05338534 -0.015035166 -0.046687055 -0.067652665 -0.01594488
-0.031044092 -0.0656508 -0.060679298 -0.07098199 -0.0023400772 0.0013390484 -0.041388813 0.027172036
-0.022261368 -0.07952334 -0.042514835 0.015546622 -0.09032399 0.025125837 -0.03915284 -0.07073182
-0.017368678 0.028746426 -0.044132065 -0.029301442 -0.018554006 -0.010733776 0.011907188 -0.09109901
0.03277447 -0.025006829 -0.006062758 0.015085718 -0.07608046 -0.04689152 0.026481153 -0.054533772
-0.044863842 -0.0950933 -0.10587461 -0.06640002 -0.07122832 -0.17438494 -0.09526557 -0.23609464
-0.24092494 -0.13478544 -0.066123135 -0.1420662 -0.09715327 0.018974464 0.017917005 0.016054172
-0.055306587 -0.020492435 0.025821295 -0.07580551 -0.03488067 0.030702122 0.0091649555 -0.029727148
-0.071227424 -0.06251314 -0.026356619 -0.018014833 -0.0046375263 -0.06784585 -0.21285567 -0.29255763
-0.29236317 -0.2831685 -0.3142037 -0.3175533 -0.3485942 -0.34857807 -0.410635 -0.32228854
-0.23696098 -0.11494532 -0.053546093 -0.025828153 0.025509458 -0.004661791 -0.080593005 -0.009816656
-0.04401869 -0.07326192 -0.00023293242 -0.04580811 -0.08829454 0.02466512 -0.10267395 -0.091439635
-0.20515925 -0.39596108 -0.44932133 -0.46630427 -0.4379484 -0.5331444 -0.4811409 -0.4557902
-0.4457522 -0.49512428 -0.4237961 -0.43530184 -0.41587564 -0.28087133 -0.16799384 -0.08290539
-0.056557737 -0.015927745 0.005043582 -0.001942616 0.00976851 -0.049702764 0.01681488 -0.0066491915
0.008750928 -0.10631623 -0.18139873 -0.3519554 -0.42178538 -0.40064985 -0.5162271 -0.4911085
-0.38021526 -0.35467508 -0.26204798 -0.24692464 -0.23109983 -0.31923756 -0.39026466 -0.41228434
-0.510897 -0.45512015 -0.43051916 -0.32258236 -0.080362454 -0.08434644 0.024626298 0.02778058
-0.080707386 -0.06418646 -0.060226567 -0.03391154 0.0027752353 -0.13861354 -0.33219624 -0.42804533
-0.42166218 -0.5102217 -0.45955464 -0.3110752 -0.2134066 -0.114043295 -0.03812085 -0.046407793
-0.011530762 -0.10673431 -0.1503858 -0.34012824 -0.38741577 -0.4721584 -0.44649482 -0.40124676
-0.23203503 -0.07571607 -0.074256204 -0.012864364 0.028792601 0.024675675 -0.04264489 -0.02272493
-0.12699017 -0.24203347 -0.33322322 -0.45797327 -0.46519816 -0.4352389 -0.29624918 -0.20192775
-0.12596194 -0.018482735 0.051022854 0.038005687 0.055399485 0.003683127 -0.10549299 -0.19755544
-0.3717835 -0.43520883 -0.4569679 -0.46910015 -0.27205595 -0.12905294 -0.043907482 -0.00661547
0.019995613 -0.08221989 -0.076402254 -0.030599935 -0.14016841 -0.3034372 -0.444129 -0.45799264
-0.4846649 -0.37048268 -0.21636607 -0.10534474 -0.04812222 -0.00505593 -0.049766358 0.011615527
-0.04439494 -0.029137956 -0.024548598 -0.17999144 -0.29727814 -0.40287644 -0.44752285 -0.40228796
-0.32451743 -0.1898407 0.019918505 -0.07851737 -0.026044369 -0.024848955 -0.08074697 -0.084327675
00000000: ea39 b6bd b586 4ebc 519e 493c 5961 92bd
00000010: 3894 82bd 62c8 13bd 227a 90bd 0f50 90bb
00000020: b37f 95bd 7d3b fa3c eac2 3ebd 24ed 9ebd
00000030: e1e9 2f3c dd49 aabc 5f3f 87bd fa95 98bd
00000040: 60be 32bd c42f 6fbd ce62 98bd 219d b3bd
00000050: a1c2 383c a833 3ebd a8df 7cbc 3786 6b3c
00000060: 142e 90bd 6dad 1abd 8be3 b8bc 96aa 5abd
00000070: 0f56 76bc ed3a 3fbd 7b8d 8abd d69e 82bc
00000080: 2e50 febc ed73 86bd db8a 78bd 015f 91bd
00000090: fb5b 19bb 0283 af3a 5187 29bd e497 de3c
000000a0: 795d b6bc 22dd a2bd 0924 2ebd 42b7 7e3c
000000b0: c9fb b8bd b3d4 cd3c ba5e 20bd d8db 90bd
000000c0: c248 8ebc a07d eb3c d3c3 34bd 9409 f0bc
000000d0: 92fe 97bc b8dc 2fbc 5e16 433c 1e92 babd
000000e0: 863e 063d 1fdb ccbc 1aaa c6bb 162a 773c
000000f0: 12d0 9bbd 5311 40bd 01ef d83c ce5e 5fbd
00000100: 26c3 37bd 47c0 c2bd cad4 d8bd bcfc 87bd
00000110: 27e0 91bd f791 32be 981a c3bd cbc2 71be
00000120: 07b5 76be 3205 0abe 916b 87bd cd79 11be
00000130: 4bf8 c6bd 5670 9b3c afc6 923c 0a84 833c
00000140: 2989 62bd c0df a7bc 2e87 d33c eb3f 9bbd
00000150: 09df 0ebd 0483 fb3c 9c28 163c 5986 f3bc
00000160: afdf 91bd e406 80bd d6e9 d7bc d893 93bc
00000170: 64f6 97bb c4f2 8abd d6f6 59be 1dca 95be
00000180: a0b0 95be 76fb 90be 4fdf a0be 5996 a2be
00000190: f07a b2be d378 b2be c03e d2be 0103 a5be
000001a0: e6a5 72be 7468 ebbd 2653 5bbd 9095 d3bc
000001b0: 36f9 d03c f0c1 98bb f20d a5bd 0ad6 20bc
000001c0: f14c 34bd 580a 96bd 523f 74b9 49a1 3bbd
000001d0: c5d3 b4bd 810e ca3c b846 d2bd b444 bbbd
000001e0: 4415 52be 69bb cabe 720d e6be 6fbf eebe
000001f0: c63a e0be 277c 08bf 1a58 f6be 555d e9be
00000200: a239 e4be ee80 fdbe cdfb d8be e2df debe
00000210: a7ed d4be 5ece 8fbe 9406 2cbe 4dca a9bd
00000220: 16a9 67bd e77a 82bc a244 a53b 609f feba
00000230: 1a0c 203c 2095 4bbd 5cbf 893c 76e1 d9bb
00000240: 0d60 0f3c 53bc d9bd 97c0 39be 8033 b4be
00000250: 41f4 d7be fa21 cdbe 7627 04bf 9372 fbbe
00000260: 93ab c2be f997 b5be 272b 86be d0d9 7cbe
00000270: 6fa5 6cbe 1b73 a3be c5d0 c7be ef16 d3be
00000280: 25ca 02bf 8205 e9be 026d dcbe 8429 a5be
00000290: 1295 a4bd d4bd acbd 17bd c93c 1994 e33c
000002a0: ea49 a5bd 3174 83bd 22b0 76bd d4e6 0abd
000002b0: b9e0 353b b5f0 0dbe a015 aabe c228 dbbe
000002c0: 1be4 d7be e49d 02bf bf4a ebbe 4045 9fbe
000002d0: 4287 5abe 888f e9bd 9c24 1cbd 1916 3ebd
000002e0: 85eb 3cbc 8597 dabd bcfe 19be 4a25 aebe
000002f0: 5c5b c6be bfbe f1be f89a e4be 3770 cdbe
00000300: 979a 6dbe 0711 9bbd a313 98bd 0ec5 52bc
00000310: 76de eb3c a424 ca3c 68ac 2ebd a229 babc
00000320: b609 02be 9fd7 77be 3c9c aabe 797b eabe
00000330: 742e eebe a2d7 debe f9ad 97be 26c6 4ebe
00000340: 2bfc 00be 1b69 97bc 57fd 503d daab 1b3d
00000350: 92ea 623d 9e60 713b b50c d8bd f94b 4abe
00000360: 685a bebe b1d3 debe b2f7 e9be e52d f0be
00000370: eb4a 8bbe 7426 04be 55d8 33bd 96c6 d8bb
00000380: d7cd a33c e762 a8bd c978 9cbd b7ac fabc
00000390: 4f88 0fbe 1f5c 9bbe e064 e3be 037e eabe
000003a0: ff25 f8be e8af bdbe 118f 5dbe fcbe d7bd
000003b0: ce1b 45bd 37ac a5bb cfd7 4bbd 0d4f 3e3c
000003c0: 78d7 35bd b9b2 eebc 241a c9bc ad4f 38be
000003d0: d734 98be d245 cebe b721 e5be b0f8 cdbe
000003e0: 2627 a6be 9a65 42be 222c a33c b7cd a0bd
000003f0: 005b d5bc 0990 cbbc ab5e a5bd fdb3 acbd
