autoencoder_mpi_pipelining/layer3.pth (torch, 807773 bytes, 2 tensors)

layer.0.weight f4 [784, 256]
000000 ee 45 2e bd 10 c6 42 38 db ea 1a 3b d4 df 7d bc
       -0.04254716 4.6437664e-05 0.002363852 -0.015495259
000010 d5 0c 60 bc a7 2c 91 3c 2f 8d 74 3c b4 a5 18 bb
       -0.013674934 0.017721487 0.014926239 -0.0023292126
000020 28 51 1e bd 55 d7 34 3c 48 db 41 3d 0d 93 0b bd
       -0.038651615 0.011037667 0.047328264 -0.034075785
000030 52 fb 13 3c eb a1 4f 3a 68 25 d8 bb 27 82 16 3d
       0.009032087 0.0007920551 -0.006596256 0.036745217
000040 25 c3 46 3c 55 96 5d bc a0 51 c7 3b 47 84 70 39
       0.012131487 -0.0135246115 0.0060827285 0.00022937461
000050 79 1c 8f bc dc 8e 68 bd e3 e8 c7 3a 09 29 5b bc
       -0.017469632 -0.056776866 0.0015251901 -0.013376483
000060 b3 21 f9 bb 64 8d c8 39 9f 21 02 bb dc 4b 67 3c
       -0.007602894 0.00038252317 -0.0019856466 0.014117207
000070 00 a5 d4 b9 2a 25 6c 3b cf d0 40 ba 44 45 b8 bc
       -0.00040558726 0.0036032894 -0.00073553337 -0.022493966
000080 d0 c3 06 bb a4 16 d6 ba ca cb 22 bc 1d f1 c7 bb
       -0.002056349 -0.0016333652 -0.009936282 -0.006101741
000090 0e 33 20 bd 37 43 6c bb 06 3e d1 bb 61 52 3f bc
       -0.03911119 -0.0036050805 -0.0063855676 -0.0116773555
0000a0 a3 1f d4 3a 12 c3 0f 3a f2 e2 2a 3d 33 8a e3 3a
       0.0016183745 0.0005484085 0.04172034 0.0017359912
0000b0 c4 cb f1 3a d8 c7 b3 3b b7 ce 16 3c c1 c3 e8 3c
       0.0018447568 0.0054864697 0.009204558 0.028413655
0000c0 ed c9 29 bd 6a b7 88 bc 15 78 76 3c 4c a6 0f bd
       -0.041452337 -0.016689021 0.015043278 -0.035070702
0000d0 b8 73 69 3b 34 93 df 39 28 45 7c bd 57 70 7f 3c
       0.0035621952 0.0004264355 -0.06158939 0.015590749
0000e0 b1 1f 78 ba 47 80 92 3b 00 7c 99 ba 10 65 a7 3a
       -0.00094651716 0.0044708583 -0.0011709929 0.0012771208
0000f0 1c 25 76 3c 48 ef ba b9 78 32 0c bc da 6b 6c 3d
       0.015023496 -0.00035654963 -0.008556955 0.057720043
000100 dc ed 0f 3c 94 c2 83 bc b3 9b 0e bb 4a 3e 52 3c
       0.008784737 -0.016083993 -0.0021760284 0.012832234
000110 10 b7 af 3b 18 88 7c bc 5c 85 b4 3b af ad e7 b8
       0.005362399 -0.015413307 0.0055090617 -0.000110472894
000120 48 a2 3e 3d 32 1a 55 3c a6 11 8d bc 3c 29 2f bd
       0.046541482 0.013006734 -0.01722033 -0.042763934
000130 0e a0 2a 3a 7b 57 89 3c 84 a2 6e 3a a1 34 65 bb
       0.00065088354 0.016765347 0.0009103196 -0.0034973996
000140 f6 58 22 b9 f6 70 81 ba 52 d2 a0 3c 40 98 b0 b8
       -0.00015482664 -0.0009875584 0.019631539 -8.420693e-05
000150 c9 d0 28 3d 06 1a 29 bb 82 01 1d bd 78 5e 92 3c
       0.041214738 -0.0025802865 -0.038331516 0.017867312
000160 97 90 57 3a e3 b2 b0 bc d0 a8 44 bd ae 24 3e bd
       0.00082231447 -0.021569675 -0.048012555 -0.0464217
000170 97 4f d2 3b 55 9c 11 3c b9 33 da b8 67 76 91 3c
       0.0064181793 0.00888737 -0.00010404684 0.017756654
000180 e0 f6 61 3c 9b 1a 70 3b b5 17 14 3d 3c 99 7a 3c
       0.01379177 0.0036636952 0.03615542 0.015295323
000190 8c 52 8f ba 6c 67 df b9 84 93 eb 3c 00 57 c5 b9
       -0.0010934635 -0.0004261093 0.028756864 -0.00037639588
0001a0 95 85 28 3c 3c 2e fd bc d3 80 7f 3b 50 a1 4f bb
       0.010285755 -0.030905835 0.0038986697 -0.0031681843
0001b0 74 d3 c9 3c ba c8 37 bc d0 7b 88 bb 07 0f 67 ba
       0.024636962 -0.011217291 -0.00416515 -0.000881419
0001c0 06 b8 0d b9 8d 7d a4 3b 6c 71 e2 bc ff 4a 49 3b
       -0.00013515362 0.0050198496 -0.027641974 0.0030714867
0001d0 3d 7c 92 3c 38 96 6f bd 65 bf d7 b8 ff 3d c2 3b
       0.017881507 -0.05849287 -0.00010287649 0.0059278007
0001e0 5e b0 fa bc 17 67 2f bb 29 64 c5 3b cf e4 3d 3c
       -0.030601677 -0.0026764327 0.006023903 0.011590197
0001f0 58 5a 3d bd 00 9d 88 36 b7 33 9b bc e4 4a 81 bc
       -0.046228737 4.071393e-06 -0.018945558 -0.015782781
000200 f1 be 1f ba 51 c0 47 bb df 4e 6e ba d2 11 d2 bb
       -0.0006093821 -0.003047962 -0.0009090732 -0.0064108158
000210 4a d7 e6 3c 7e 2a 8a bb 80 85 56 3d 90 75 b9 3c
       0.02817883 -0.0042164912 0.05237341 0.022639066
000220 3c c0 9d bc fc fb b0 3b ce 0a f2 bc 5d d1 a8 ba
       -0.019256704 0.0054011326 -0.029546168 -0.0012879778
000230 23 17 8c 3b 69 b3 c7 3b 5f ba c7 bc 52 bc 7a bc
       0.004275219 0.0060943854 -0.02438086 -0.015303688
000240 3c 5b 80 3c ab b4 98 3a 64 ef 3d bd a0 ee a1 3a
       0.015668504 0.0011650523 -0.04637088 0.0012354441
000250 23 59 56 bc 4f 85 8c ba 5c 66 d6 bb 23 cd ee 3b
       -0.013082775 -0.0010720881 -0.006542964 0.007287638
000260 ef 03 1e 39 d4 cb 0b bd 64 7f 03 3c a4 cc 44 3b
       0.0001506952 -0.034129933 0.008025978 0.0030029202
000270 2b 1c cf b9 7f 8a db 3b e4 9b 7a bd 39 bb d7 3a
       -0.00039503103 0.0066998596 -0.061183825 0.0016458995
000280 36 af 6a 3b b7 cd 07 3c 2f a2 4f bb 07 b0 b9 bc
       0.003581 0.008288792 -0.0031682362 -0.022666944
000290 27 71 0c bc 0a 6a 65 3c 07 8f 0a ba c8 9e ff 3c
       -0.0085718995 0.014002332 -0.0005285595 0.031203642
0002a0 85 90 a9 3b 95 2b 1a 3c 88 c9 fc bc 4b 30 85 bc
       0.005174699 0.009409805 -0.030857816 -0.01625838
0002b0 93 aa 66 bb aa 45 5d 3d aa fc 02 3d 64 3b a8 bc
       -0.0035196885 0.054021515 0.03197924 -0.020536132
0002c0 ec 35 8a bc ae ad 15 bd 69 4f ea 3a d6 61 ec bc
       -0.016871415 -0.036542587 0.0017876449 -0.028855246
0002d0 a8 41 97 bc ef 4a e4 3b 09 2c 45 bc 60 b3 9a 3b
       -0.018463925 0.0069669406 -0.012034425 0.00472109
0002e0 e8 79 2c bb ba cd 70 3b f2 e4 c0 3c 24 bb 4b 3d
       -0.002631778 0.0036743716 0.02354667 0.049739018
0002f0 a1 a2 ad ba 2e 6e 2d 3d 49 76 0f bb 2d 80 a3 ba
       -0.001324732 0.042341404 -0.0021890572 -0.0012474112
000300 09 32 2e bc 47 d4 8d 39 74 19 49 bc 05 fd 12 3d
       -0.0106320465 0.00027051775 -0.012274135 0.03588583
000310 a8 46 d6 ba 16 9f 5e 3d 52 4f 7a 3c a6 9b 6d ba
       -0.0016347962 0.054350935 0.0152777005 -0.0009064026
000320 95 5b 82 3a 55 fd 8b 3b 02 e8 25 3b 89 e4 d7 bb
       0.0009945506 0.004272143 0.002531529 -0.006588523
000330 9f f5 93 ba 03 6e 1a bc d3 0d 1c bd ed 14 b9 bc
       -0.0011288411 -0.009425643 -0.03809912 -0.022592986
000340 38 3a 91 3c 84 a5 e7 3c fc dd 3d bc 1d d0 14 3b
       0.017727956 0.028277166 -0.01158857 0.0022707053
000350 2c 2b 9b bc 39 45 e5 3a 2b e2 de ba b2 9e 62 3a
       -0.018941484 0.0017491943 -0.0017004659 0.0008644863
000360 6a e9 42 bc 7f 0c a3 bb d2 80 28 3d b9 02 59 ba
       -0.011896471 -0.004975855 0.041138478 -0.0008278299
000370 f6 66 0e 3c ca c0 05 bd 62 be 6a bd 76 ed 2b bd
       0.00869154 -0.03265456 -0.05731047 -0.041974507
000380 0d 32 6a bb 77 05 b4 ba 10 fc 0e bb c8 cf ce 3c
       -0.00357354 -0.0013734539 -0.0021817721 0.025245562
000390 38 28 97 3c 07 0a 7e ba 97 23 b0 3c da 0e 14 bb
       0.018451795 -0.0009690825 0.021501346 -0.002259186
0003a0 aa ef 75 3b ec 4d 19 3a 41 a1 c9 ba 33 00 96 39
       0.0037526884 0.0005848098 -0.001538314 0.00028610378
0003b0 40 be e7 ba 3a 71 41 3d 80 3e 3b bb 14 4c f2 3a
       -0.00176806 0.047227122 -0.0028571188 0.0018485808
0003c0 84 85 76 3d c7 a6 1a 3d 34 73 dc 3c 7d d4 7d 3c
       0.060185924 0.037756708 0.026910402 0.015492556
0003d0 bc fb 54 3d fd 61 88 3b d9 6d 0f bd 50 0b 47 bb
       0.051997885 0.0041620717 -0.03501687 -0.0030371733
0003e0 d5 2d 47 3b f1 8e 47 bb a5 08 b2 bb c1 d1 bf 3c
       0.0030392308 -0.003045019 -0.0054331594 0.023415448
0003f0 1e 62 11 3d 4d ce c5 b8 b8 ec fd bc 98 2d 07 3d
       0.035493962 -9.4321185e-05 -0.030996665 0.033002466

layer.0.bias f4 [784]
000000 48 fc cc bc 25 f3 a7 bc 57 77 b6 bc b0 03 5d 3c
       -0.02502264 -0.020501683 -0.022273703 0.013489649
000010 70 40 e4 3c 4e 9b 8d 3c 75 16 0d bc 76 53 cd 3c
       0.027862757 0.01728597 -0.008611311 0.025064211
000020 f6 a2 ff bc e4 81 0a 3d 60 53 9a bc 12 ee 69 3c
       -0.031205636 0.03381528 -0.018838584 0.014277952
000030 d1 0b 39 bc ae cc ee bc 58 1f f8 3c 91 0e f5 bc
       -0.011294321 -0.029150333 0.030288383 -0.029914172
000040 87 61 23 bd 98 e5 d6 bc 07 98 b0 bb eb b1 b1 3c
       -0.03988793 -0.026232526 -0.005389217 0.021691283
000050 e4 29 10 bb a2 11 20 bd bd 24 d0 3c f8 4e c2 3b
       -0.0021997625 -0.039079316 0.025408143 0.005929824
000060 52 a5 0f 3d 42 f4 e6 3c ab 5e 98 bc 8f cb c8 3c
       0.03506977 0.028192643 -0.018599829 0.024511127
000070 bf 0f 83 3c bf 45 07 bd 1c c1 ec 3c 57 d7 a0 3c
       0.01599872 -0.0330255 0.028900675 0.019633932
000080 a1 2f ed bb ce 1b b9 3b 3d 0b 28 bd a4 5b e0 bc
       -0.007238344 0.0056490665 -0.041026343 -0.027387448
000090 f7 30 c5 3c 45 f3 9a 3b 4a de a0 3c ca 6b f7 3c
       0.0240712 0.004728707 0.019637246 0.030202765
0000a0 aa f4 d2 bc e2 4f fc bb bb 1e 2e bd 01 1d 20 bd
       -0.02575143 -0.0076999525 -0.042509776 -0.03909016
0000b0 37 e9 28 3d 25 2e 08 3d 04 f2 3b 3d 21 84 b7 3c
       0.041238036 0.03324713 0.0458851 0.022401871
0000c0 e7 1a 12 3c 47 36 01 3b 80 3b 31 bd b9 d3 37 3d
       0.008917547 0.001971619 -0.043269634 0.04487965
0000d0 e3 03 3f 3d e0 2d 18 3d f5 f2 80 bc ce 80 28 3b
       0.046634566 0.037153125 -0.015740851 0.002571154
0000e0 1b ea 29 bd 72 fd e7 bc 60 12 f8 3c 0e 01 97 bc
       -0.041483026 -0.028319094 0.0302822 -0.01843312
0000f0 00 9a 44 bc a0 4e f1 bc 80 cd 4d 3c f6 e9 c0 bc
       -0.011999607 -0.029456437 0.012561202 -0.023549061
000100 ce c5 0c 3d 81 e2 f2 3b a7 ab b1 3b 99 6b 26 bd
       0.03436833 0.0074122553 0.005422074 -0.040629957
000110 e8 55 85 bc f8 29 2a bd e4 d2 e7 3b a3 dd 45 bc
       -0.016276315 -0.04154393 0.0070747007 -0.012076768
000120 bb 29 21 3d 22 90 0c bd 3b c5 cd 3c 32 68 8b 3c
       0.039346438 -0.034317143 0.02511846 0.017017458
000130 7e cd 6f bd 10 c7 c6 3c 03 1e 17 bd d8 ab d6 bb
       -0.058545582 0.024264842 -0.036893856 -0.006551247
000140 91 0c af 3c c4 60 cc 3c c6 af a5 3c e0 58 17 3d
       0.021368297 0.024948485 0.020225417 0.036949992
000150 52 ef 82 3c 1e 6f 13 3d c3 01 1b bc 9f ab d7 3c
       0.015983257 0.03599464 -0.009460869 0.026326953
000160 2f f1 c1 3c 12 8f 3e bd a8 5c 44 bc 13 d2 3e bc
       0.023674576 -0.04652316 -0.011984982 -0.011646765
000170 66 48 34 3d 6f 6e 24 3c b9 84 af 3c 51 51 3f 3a
       0.044014357 0.010036095 0.021425592 0.0007298189
000180 e6 de 81 3d 2f 4c 70 3d c4 4f ed 3b b1 a6 ac 3c
       0.06341343 0.058666404 0.007242175 0.021075578
000190 1a b0 83 3c 78 64 57 3d 04 1e 65 3d 41 6b 6b 3c
       0.016075183 0.05258605 0.05593683 0.014368833
0001a0 46 3f 5e 3d 59 c4 65 3d 10 71 55 bc 54 f2 3e bd
       0.05425956 0.056095455 -0.0130274445 -0.04661782
0001b0 5f dc 03 3d 7a fd 8b bc f4 2c f4 bb 4a ef 26 3d
       0.032192584 -0.01708864 -0.007451648 0.040755548
0001c0 aa 3c 2d bd 42 82 17 3d ad 3c f3 3c 11 70 2a bd
       -0.042294182 0.036989458 0.029692018 -0.04161078
0001d0 cb ce b3 bc de ff 8f bc 03 66 74 bc 9e 63 5f 3d
       -0.021949193 -0.017578062 -0.0149169 0.05453836
0001e0 2e e9 2b bd b1 62 96 bb 80 6e 0f bc ed 39 d4 3c
       -0.041970424 -0.0045894017 -0.008754373 0.025906527
0001f0 21 55 6b bb ea 7a 96 bc 59 07 07 3d 54 7d 5e bc
       -0.0035908895 -0.018369157 0.03296599 -0.013579685
000200 a7 57 85 b7 67 8d a8 bb 87 66 30 3d 6b 91 95 bb
       -1.5895652e-05 -0.0051438096 0.043066528 -0.0045644543
000210 82 2c 62 3d 7c b7 e6 bc 59 cd 1e 3d 95 16 9f 3c
       0.055218227 -0.028163664 0.038770054 0.019419948
000220 30 5f 06 bd c7 32 bc bc 1e 53 4f bc 1d fc 33 3c
       -0.03280562 -0.022973431 -0.012654094 0.010985401
000230 5b 2d 69 bc 13 af 58 bd 5c 7d a4 3b ef dc 17 3d
       -0.014232005 -0.05290134 0.005019827 0.037075933
000240 fb 65 67 3c 72 d2 2e 3d c8 8b 28 bc 40 d9 49 3c
       0.014123435 0.042681165 -0.010287233 0.012319863
000250 0e b2 a9 3b 1c c9 af 3c 82 03 19 bc 87 e1 13 bc
       0.0051786965 0.021458201 -0.009339215 -0.009025938
000260 a4 4c ae 3d 5c 4d 3b 3d f3 e0 6d 3b 2d 09 b0 bb
       0.08510712 0.045728073 0.003629741 -0.0053721876
000270 bb 2e 1a 3d e9 8c b1 3d 42 b6 d7 3c 65 bb 11 3d
       0.037642222 0.086694546 0.026332024 0.035579104
000280 9f 8d e3 bc db 03 3d 3d fd 04 c0 bc 1d 68 e3 bc
       -0.027777491 0.046146255 -0.023439879 -0.027759606
000290 44 5e 2d bd dd 7b 83 bc 61 1e a1 3c ce 81 8d 39
       -0.042326227 -0.016050274 0.019667806 0.00026990328
0002a0 6e bb 8d 3c f8 0e 96 bc ce 22 8a 3b 82 50 88 3c
       0.017301288 -0.018317685 0.004215575 0.016639952
0002b0 64 5b 0e 3d 2a c6 51 bc 38 69 1f 3d b8 2b 21 3d
       0.034755126 -0.012803594 0.038918704 0.039348334
0002c0 94 b4 5d 3d 0a 5d ba 3c 0a 7d ac bb 2c f3 a5 3d
       0.05412729 0.022749443 -0.0052639293 0.08103022
0002d0 59 fb 65 3d 44 72 01 3d 92 20 80 3d a7 27 bd 3d
       0.056147907 0.031603113 0.06256212 0.09236079
0002e0 b0 4a a1 3d a6 29 4b 3d 72 ae af 3d bb 21 0f 3d
       0.07875574 0.049600266 0.08578195 0.034944277
0002f0 a8 a0 a5 3d 66 51 49 3d e6 20 86 3d a5 58 09 bb
       0.080872834 0.049149893 0.06549244 -0.0020957377
000300 8c 1f 25 bd 68 f9 2c bd c4 bd 48 bd ef 32 32 bd
       -0.04031329 -0.04223004 -0.0490091 -0.043505605
000310 b8 71 81 3c 13 66 12 bd 87 cb fa bb 3e 05 e9 bc
       0.015801296 -0.035741877 -0.007653657 -0.028444882
000320 89 f7 ad bc b5 bb 2d 3d 27 a2 d1 38 c1 fa 71 3d
       -0.021236198 0.04241534 9.9961e-05 0.05907703
000330 12 a1 e7 3c 39 cd 0d 3c 0e 2f 34 bb 39 a7 17 3c
       0.028275046 0.008654886 -0.0027493867 0.009256178
000340 4f ef bd 3d 74 bd 16 3d 84 e3 e2 3d 75 cb b9 3d
       0.0927416 0.03680177 0.110785514 0.090720095
000350 ae c0 e8 3d 71 81 d1 3d df d8 93 3d fc f9 86 bb
       0.11364876 0.10229767 0.07219099 -0.004119156
000360 40 f4 b3 3c 89 cb 90 3d 40 5d 6d 3d e6 5c 23 bd
       0.021967053 0.07070071 0.05795026 -0.039883517
000370 fa 14 53 3c ae 3a ef bc 23 4f 20 3d ee fd e2 3c
       0.012883419 -0.029202785 0.03913797 0.027708974
000380 66 9c 07 3d dc 0e a7 bc 63 82 2e bd 01 71 11 3d
       0.033108138 -0.020392828 -0.042604815 0.03550816
000390 77 8c 2f 3d 31 7e 06 3d fd 7c e1 bc b5 a3 91 3b
       0.042858567 0.03283519 -0.02752542 0.004444564
0003a0 69 6d 75 3d 89 cf 9e 3d e0 a3 a1 bb 7d 10 44 3c
       0.059918795 0.07754428 -0.0049328655 0.011966822
0003b0 17 68 e7 3d e5 7f 75 3d d9 cf b7 3d 96 e4 0b 3d
       0.112991504 0.059936423 0.08975191 0.034153543
0003c0 47 f0 b0 3d 9f 20 25 3c 5c 6e c4 3d 2b e1 b9 3c
       0.08639579 0.010078578 0.09591362 0.022690376
0003d0 bb 78 1a bb 27 61 8f 3d 46 49 00 bb 14 98 07 3c
       -0.0023570496 0.07000952 -0.0019574924 0.008276004
0003e0 a1 8d 0d bd 0a 3f 52 bd a2 bf 51 3d 9f 9d 71 3c
       -0.034558896 -0.05132965 0.051208146 0.014747052
0003f0 89 47 f7 bc 96 d7 19 bd 19 bc 12 bd be a2 7d 3b
       -0.030185478 -0.037559114 -0.035823915 0.0038701738
