autoencoder_mpi_pipelining/layer3.pth (torch, 406429 bytes, 2 tensors)

layer.0.weight f4 [784, 128]
00000000: ecee 27be 7018 be3c 3d9b 793d ce15 0fbc
00000010: c845 ca3b 57ff adbd 75b7 08be 4d0b dabd
00000020: 3392 f9bd d389 adbd edc2 b23b fd8b c5bd
00000030: 2722 3dbd d07b e7bc 4e58 f3bc e529 03bc
00000040: adab 11be b911 0abe 085c a2bd 2c02 843d
00000050: 6274 fb3b e62d cdbd d547 823d e17e 943c
00000060: a45f 51be 9f4f 3cbd 90b9 5c3c a5c7 293c
00000070: b539 8cbd 6510 96bd ab51 edbc d1cf cabb
00000080: 510c 103d 9734 d8bd 518e 0fbe f14c bcbd
00000090: c2c5 25bd 839a 073b ae20 7dbd 57ec 71bd
000000a0: 3d53 df3c cdd2 3dbf 848e f43c 3a1f 08be
000000b0: c4d6 4dbc 5ab0 b3bc 5c28 57bd 803a 08be
000000c0: 26da fbbd 24b7 e1bc 3f54 273d 9be7 68bd
000000d0: 636c 3ebc 9d12 8cbd 6a38 9bbd ae2f 23be
000000e0: ac61 0cbe 9b6b da3c 4d80 f0bc ebf4 a03c
000000f0: 7b5b c3bd c682 03bc 8c91 7abd e4cb e4bd
00000100: 4a14 fdbd bdcc c6bc bd7d 4b3d b8e6 1fbe
00000110: ed59 10be bb49 13be 7eda 99bd 78ee f9bd
00000120: 9041 cebc 9dd6 c6bd c255 723d 13f6 85bd
00000130: 091f 02be 3d76 26bd 80ed 16bc 49ac 6dbc
00000140: a666 30bd 030a dbbd c2ff 0abd 25ac 113d
00000150: eabe 45bd a428 0abe 188e 10be 5473 9b3c
00000160: 959a c6bd 215a a5bd 09f8 f7bd d987 283c
00000170: 8c05 bfbd db4d 1abd 2475 9dbd 4584 8c3c
00000180: 0aaf 94ba a99b e3bc b2ad 8fbd f978 283d
00000190: db8d 9dbd 3753 8bbd 3713 3dbc b906 8b3b
000001a0: 9a55 a3bd 888a 00be 0562 c3bc fa85 0bbe
000001b0: f719 1bbd 6fb1 5dbd cecc 943c bb46 0b3d
000001c0: ecc9 29bd 8ef0 f53b 1791 5dbd 1abc b3bd
000001d0: a42a 2fbd aeaa 0bbe 9f73 cfbd 6a9b 8d3d
000001e0: 849a 7dbd 7e32 0fbe 743d 63bc c9e9 b23d
000001f0: 149a da3b 58b4 acbd b180 e1bd ae81 dabd
00000200: 3006 f4bc 1a8d aa3c fdb4 973d c457 8e3c
00000210: ea58 cbbc bcc1 0cbe d788 dfbd a8b0 89bd
00000220: fcf7 f83b 3688 eabd 646b 07be 89f1 b8bd
00000230: 0daa 173d c3fc f0bd 169c b3bd bade e1bc
00000240: 1b0a d3ba 0ed9 d6bd 632d c3bd 854e dd3c
00000250: 5bde a03a 33c9 aebd 2f24 883d f16b 773d
00000260: 0688 21be 8cf3 6dbc fb54 6ebd eede 8bbd
00000270: 2dc3 d1bd 1422 acbc 41a7 1bbd 29e7 9cbb
00000280: 75e3 ce3c 7021 25be 4f5e 09be aa69 73bd
00000290: 8152 53bd 350c 9abc e6f8 12be 1399 21bd
000002a0: a256 91bc 6034 38bf ce69 a8bd 3dda 3cbd
000002b0: c1c7 893c b7f5 01bd 9cce 25be 2532 f7bb
000002c0: 15fe 11be c6c5 0bbe 7514 f03a 33c9 d2bc
000002d0: dde3 38bd 2130 50bd 1806 b6bc 9545 43be
000002e0: fbd0 00be 8f16 583d b6e4 80bd a0a1 22bd
000002f0: 707f 11be ffd1 cfbd 328d 413c d6fb 65bd
00000300: ae70 04be db73 a3bb 27b8 343d a01f d1bc
00000310: 14ba a03c 8067 40bd ad50 563c b160 2abe
00000320: 60cb 28bd bba4 0fbe 069f 63bd 9caf 8f3d
00000330: 785a d2bd 730f 96bd 2dc7 483c 6d3f 863d
00000340: 6e42 abbd b483 73bd 3dbb 01be 7fa2 a53c
00000350: 4c79 36be 5f93 08be 6fb8 6f3c 857c a6bd
00000360: 2b30 03be 5d77 fd3c 1377 22bd a1b3 0ebd
00000370: 7ffe febd 403e 3fbd 8daf 03be 3ebf f9bb
00000380: d81c 14bd 40ba d4bb 9bea bc3c b3de c53c
00000390: 9bce b1bd 970c 16be f751 ffbd afbe 37bd
000003a0: e62f b1bd d443 6abd 7e93 b7bd 05a4 e5bd
000003b0: d9ec debc 9218 e5bd e3bb 69bd c095 f03b
000003c0: 3b06 b7bd b8c4 eebd 38e1 3ebd bfa9 05be
000003d0: 0bf6 8dbb b0d4 babd 5573 2ebd 5765 a9bd
000003e0: 5512 183c 603f 30be 06b1 94bd 0be8 f83b
000003f0: dd98 dcbd 26cf 89bd ee64 98bb dcde 47bc
-0.16399735 0.023205012 0.060939062 -0.008733226 0.0061728694 -0.08495968 -0.13351233 -0.10646687
-0.121860884 -0.084735535 0.005455366 -0.09645841 -0.04617515 -0.02825728 -0.029705193 -0.008005594
-0.14225645 -0.13483323 -0.0792771 0.06445727 0.007673786 -0.1001852 0.06361357 0.018126907
-0.2044664 -0.04597437 0.013471976 0.01036254 -0.06846944 -0.07327346 -0.028969606 -0.0061893244
0.035167996 -0.10556906 -0.14019133 -0.09194363 -0.0404718 0.0020691461 -0.061798744 -0.059063282
0.02726137 -0.7414978 0.029853113 -0.13293162 -0.012563411 -0.021934677 -0.052528724 -0.13303566
-0.12297468 -0.027553149 0.040851828 -0.0568615 -0.011622521 -0.06839488 -0.075791195 -0.15936157
-0.13709134 0.026662638 -0.029358054 0.019648036 -0.09538933 -0.008026784 -0.06117396 -0.111717016
-0.123573855 -0.024267549 0.04968046 -0.15615356 -0.14096804 -0.14383595 -0.07512377 -0.122036874
-0.025177747 -0.09708903 0.059163816 -0.065410756 -0.12707151 -0.040640105 -0.009211898 -0.014506408
-0.043066643 -0.10695269 -0.033935316 0.03556456 -0.048277773 -0.13492066 -0.14116704 0.018975891
-0.09697453 -0.08073831 -0.12107856 0.010286295 -0.0932723 -0.037671905 -0.076883584 0.017152915
-0.001134367 -0.027784185 -0.070155516 0.041130994 -0.076930724 -0.06802981 -0.011540226 0.0042427448
-0.079753116 -0.12552845 -0.02385045 -0.13625327 -0.03786656 -0.054124292 0.018164065 0.034003
-0.041452333 0.007505483 -0.054093447 -0.08776112 -0.042765275 -0.13639328 -0.10129475 0.069144085
-0.061914936 -0.13984105 -0.013869632 0.08735997 0.0066711996 -0.08432835 -0.11010874 -0.10669266
-0.029788107 0.020819236 0.07407568 0.017375834 -0.024822671 -0.13745779 -0.10914772 -0.06723148
0.0075979214 -0.114517614 -0.1322456 -0.09030444 0.037027407 -0.117669605 -0.087700054 -0.027572025
-0.0016101034 -0.10490619 -0.09530141 0.02701498 0.0012273298 -0.085344695 0.066475265 0.060405675
-0.15774545 -0.014523398 -0.058186512 -0.0682963 -0.10242305 -0.021012343 -0.038001303 -0.0047882986
0.025254944 -0.16126037 -0.13414882 -0.05942694 -0.051592354 -0.018804649 -0.1435276 -0.039452624
-0.017741505 -0.7195492 -0.08223306 -0.046106566 0.016818883 -0.031728473 -0.16192096 -0.0075438195
-0.14257081 -0.13649663 0.0018316644 -0.025730705 -0.045139182 -0.05082715 -0.022219703 -0.19069512
-0.1257972 0.05275589 -0.06293623 -0.03970492 -0.1420877 -0.101474755 0.011813449 -0.056148373
-0.12933609 -0.0049881763 0.044120934 -0.025527775 0.019619979 -0.046973705 0.013080758 -0.16638447
-0.04120958 -0.14027683 -0.05557158 0.07015917 -0.10271162 -0.073271655 0.012254518 0.06555066
-0.0836228 -0.059451774 -0.12669082 0.020219086 -0.17819709 -0.13337468 0.014631375 -0.08129219
-0.12811343 0.030940706 -0.03966434 -0.034839276 -0.12450885 -0.046690226 -0.12859936 -0.007621675
-0.03616032 -0.0064919293 0.023061087 0.024154043 -0.08681985 -0.1465324 -0.124668054 -0.044859584
-0.08651714 -0.057193592 -0.08963679 -0.11212925 -0.027212547 -0.11186327 -0.05706395 0.0073420703
-0.08936735 -0.11658615 -0.046601504 -0.13053034 -0.004332309 -0.09122598 -0.042590458 -0.08271282
0.009281714 -0.17211676 -0.07260327 0.007596021 -0.10771344 -0.067289636 -0.0046507036 -0.01219913

layer.0.bias f4 [784]
00000000: 4ef6 fabd e533 33bd e007 50bc 404a ddbd
00000010: 6b4c 19bd dcda 5bbb 9ee7 e2bd 6a17 953a
00000020: 2e21 babd 548f 52bd 1466 adbd 6661 9fbc
00000030: e8b3 78bd 7208 e5bd 3cd4 31bd 8e55 47bd
00000040: 825c d7bd b950 c2bd cd00 053d afe4 39bd
00000050: bc29 b4bd 2d2d e5bc 2a0a 11bd 27b5 67bd
00000060: 626f f5bc 759f 68bd 1f40 a4bd 7b36 06be
00000070: 8a4d adbb c1cb fbbd d467 83bd c41b 5dbd
00000080: 9435 ddbd 162a bfbd e941 00bd 07e1 b6bd
00000090: bf11 cabc bf88 173d 2ce3 aebc 0cd0 013d
000000a0: 69b5 2a3d 229a febd 52f0 a5bb dd6a 01be
000000b0: 0633 a6bd 5a47 133d 70b5 cfbd 4e68 c23c
000000c0: 9338 01be be84 d8bd 9e0c a43b df3b 98bd
000000d0: aa8c 56bd 499e 57bd e380 ffbc 0ab0 00be
000000e0: 6686 40bd 990d dc3c 066f bdbd 6c33 01be
000000f0: ca2c 43bc ea72 84bc cc6b 3b3d ea78 87bd
00000100: 6da5 07be e3a0 39bd 7ea3 a6bd 5362 74bc
00000110: 1693 bbbc 5415 91bd 0d0c 0fbc 7d6c 59bd
00000120: ba42 e0bd 3c94 cabd aace 883c d9bf 8ebd
00000130: bca8 4b3c 42e3 5cbc 4886 34bd 66d8 72bd
00000140: 3545 62bd ab13 6d3c 1d49 efbc 9fef 6dbd
00000150: 3139 3ebd a059 a2bc 2475 9bbc 4b92 033a
00000160: c70f abbd b09e d7bd 4e5a 093d ef86 35bd
00000170: 09b6 3a3d 2463 b2bd 0f18 b3bc 3168 113d
00000180: badb ccbb 8a3f c3bc b665 0cbd c1ae b6bd
00000190: 01ec 7ebd a70e cdbd 6fda d6bd 296d 0dbd
000001a0: 6146 03be 0ec9 ddbd c0d0 2fbd 1c50 993c
000001b0: b228 58bd 5856 abbd 2511 fb3c 7e71 1dbc
000001c0: d96d 99bc b9ac 24bd 6740 b3bd f258 00bd
000001d0: 5759 3cbd fe62 c33c 7987 dc3c e0af 793c
000001e0: 02fe 0bbd f64d 04bb 068c 07bd 49f7 e53c
000001f0: edc5 06be eb58 b9bd dbfc 04bc f105 b6bc
00000200: e8e6 dbbb ccf1 0abe 3c47 abbd 22af 1abd
00000210: 78c8 00be 2636 26bd 79da 53bd 0f09 55bc
00000220: 303b edbd 5de2 c1bd 5f11 9abc 1041 04be
00000230: 6d15 f0bd 0e93 b2bd fcea 03be 73a1 2a3d
00000240: 79a0 7dbd 1c49 6d3a c4ba adbd 36d5 d6bc
00000250: 462b 09be 5cd7 593c e43a 663c 6fd2 8abd
00000260: 7ae1 043c 8f26 0cbe 53ec 28bd 6c19 33bd
00000270: 3b0a 4b3d 7353 8cbd 0b28 d73b efab 60bd
00000280: 4fa9 05be 9cec 57bd f552 82bd d394 d33c
00000290: 634a debd 73f6 d1bd 0348 81bb 306c febd
000002a0: c253 22bc 05ed 42bd 20b1 023c dc9a bebd
000002b0: 4f39 fabd 6d41 22bd 74b3 923c aa7b e1bc
000002c0: 4db8 bebd ef8e 06bd 7bf6 c0bd dce5 c6bb
000002d0: 969b d9bd 93e2 98bc f52e 623d 3f86 15bd
000002e0: 6d18 1f3d c36c bebc fa3c 28bc 25cc 94bc
000002f0: 07c9 8bbb dd3a eabd f8dc d3bd e531 c3bd
00000300: 696b 5c3a 2ef9 aebd f281 b4bb 3302 d7bd
00000310: 1926 d7bd 7bfb a53c ea51 a83a c3ca 5bbd
00000320: 09fe 8cbc 13be 1f3d aad9 f7bb b936 f6bd
00000330: cc17 bfbd f8ae 3bbd 0087 2dbd 8210 953c
00000340: 15cd e0bc 17b4 d73b dcf7 233b 7c7d 84bc
00000350: 45e5 2dbd 2c9f d8bc 1c4e ee3b 8e1a d4bd
00000360: 5566 f1bb e927 01be dd63 f2bc b211 d23c
00000370: 7f41 173d f71f a5bd d7be e9bd e65c 62bc
00000380: eaba 3a3c 3a70 313d 325c aebd 15a8 2d3d
00000390: d7e0 483c 4745 43bc 9546 efbd 2e3c c6bd
000003a0: 0cd0 9ebd 72f3 56bd 040c 91bc 27a8 abbc
000003b0: d86d 7c3d dfc4 84bd 08c8 883d de3f 6ebd
000003c0: 31e7 3e3d f311 51bd 330f 96bd fe66 a4bd
000003d0: c05c e2bd 3c2c 12bd fea8 d7bd 21db 88bd
000003e0: 8d49 00be c2b1 d2bc 6f9c 37bd f58a 97bc
000003f0: 0281 ecbd 7f1b 89bd 03e8 613c 555f c2bd
-0.1225401 -0.043750662 -0.01269719 -0.10805178 -0.037426393 -0.0033547198 -0.11079334 0.0011374776
-0.0908836 -0.05140622 -0.084667355 -0.019455623 -0.060718447 -0.111832514 -0.043415293 -0.048665576
-0.10515691 -0.09488053 0.032471467 -0.045384105 -0.08797023 -0.027975643 -0.035410084 -0.056569245
-0.029960338 -0.056792695 -0.08020043 -0.1310672 -0.0052887844 -0.12294722 -0.06416288 -0.053981557
-0.10801235 -0.09334199 -0.031312857 -0.08929639 -0.024666665 0.036995646 -0.021348558 0.03169255
0.041676912 -0.12431742 -0.005064049 -0.12638421 -0.08115201 0.035956718 -0.10142028 0.023731377
-0.12619238 -0.105721936 0.005006387 -0.074332945 -0.05238024 -0.052641187 -0.031189388 -0.12567154
-0.047003172 0.026861953 -0.09249692 -0.12617272 -0.011912534 -0.016168077 0.0457571 -0.066148594
-0.13246699 -0.04531945 -0.081366524 -0.01491602 -0.022897284 -0.07084146 -0.0087309005 -0.053081978
-0.10950227 -0.09891555 0.016700108 -0.06970186 0.012430366 -0.013481917 -0.044073373 -0.059288405
-0.055241782 0.014470021 -0.029209668 -0.05808985 -0.04644126 -0.019818127 -0.018976755 0.0005019053
-0.08352619 -0.10528314 0.033533387 -0.044318136 0.04558376 -0.08710316 -0.021862058 0.035499755
-0.0062517794 -0.023834009 -0.034276687 -0.089200504 -0.06223679 -0.1001256 -0.10490882 -0.03452793
-0.12819816 -0.10829364 -0.04292369 0.018714957 -0.052773185 -0.08366078 0.030647824 -0.009609578
-0.018729137 -0.040203784 -0.08752518 -0.031334825 -0.04598364 0.023850914 0.026920067 0.015239686
-0.034177788 -0.002018807 -0.03309252 0.028072016 -0.1316144 -0.09050163 -0.008116926 -0.02221963
-0.006710876 -0.135688 -0.08363196 -0.037764676 -0.12576473 -0.040578984 -0.051722024 -0.013002648
-0.11583555 -0.094670035 -0.018807111 -0.12915444 -0.11722837 -0.08719455 -0.12882608 0.041657876
-0.061920617 0.00090517267 -0.08482888 -0.026224714 -0.13395414 0.013295975 0.014052127 -0.06778418
0.008110398 -0.13686584 -0.041241 -0.043725416 0.049570303 -0.06851854 0.006566053 -0.05485147
-0.13052867 -0.052715883 -0.06363479 0.0258278 -0.10854032 -0.102520846 -0.003945352 -0.12422979
-0.009907665 -0.04758932 0.0079768 -0.09306881 -0.12217962 -0.039613176 0.017907836 -0.027524788
-0.09312496 -0.032851156 -0.094220124 -0.006069882 -0.10625379 -0.018662727 0.055220563 -0.03650498
0.038841654 -0.023245221 -0.010268444 -0.01816375 -0.0042659077 -0.114370085 -0.10344881 -0.09531001
0.00084083393 -0.08543621 -0.0055086548 -0.10498466 -0.105053134 0.020261517 0.0012841795 -0.053660166
-0.017210977 0.03899963 -0.0075637894 -0.12022156 -0.09330711 -0.04582116 -0.042365074 0.018196348
-0.02744154 0.0065827477 0.0025019562 -0.016173117 -0.042454977 -0.026443087 0.007272495 -0.103566274
-0.0073669353 -0.12612881 -0.029588634 0.025643203 0.036927696 -0.080627374 -0.11413353 -0.013816094
0.011397103 0.04331992 -0.085136786 0.042396624 0.012260637 -0.0119183725 -0.11683384 -0.09679447
-0.077545255 -0.05247826 -0.017705925 -0.020954205 0.061628193 -0.06482863 0.06678778 -0.058166377
0.0466072 -0.05104251 -0.07327118 -0.08027457 -0.11052847 -0.035686716 -0.105302796 -0.066824205
-0.12528057 -0.025719527 -0.04482692 -0.018498877 -0.11548044 -0.066946976 0.013788226 -0.094908394
