autoencoder_mpi_pipelining/layer0.pth (torch, 805725 bytes, 2 tensors)

layer.0.weight f4 [256, 784]
0.03359243 -0.014578352 0.03306219 -0.013812994 -0.03067408 -0.023416426 0.019159187 -0.020693827
-0.034652315 -0.035352275 -0.00086294755 2.3990871e-05 -0.0015882084 0.004878947 0.026256984 -0.032363724
0.017278422 0.029987678 -0.03541737 0.012249623 0.02537458 -0.022530012 0.031696033 -0.027250197
0.021535171 0.006495199 -0.0037501669 0.0014309543 0.008746344 -0.03549884 -0.03420426 -0.01730994
-0.010388796 0.017995976 0.032869846 -0.0033365914 -0.0023495897 -0.005899649 -0.009078411 0.02662635
-0.0106818285 0.025506599 -0.019368758 0.03113797 0.006857524 -0.006720742 0.010232206 -0.027305404
-0.0047365385 0.013300841 0.029290648 0.012807327 0.022331048 0.0045518153 -0.01659869 -0.013265508
-0.013586585 -0.02117757 0.0143697355 -0.027093343 0.0025997206 0.015840912 -0.011900537 -0.00030045438
-0.0029340961 -0.0346736 -0.048021283 -0.0138867255 -0.03458485 0.032059662 0.034511454 -0.008867942
-0.011253297 -0.02069046 0.017236248 0.017360039 -0.03283423 -0.034443874 0.023545805 0.009321673
0.0068297037 0.029704764 -0.0076817106 0.00777592 -0.011311302 -0.004861598 0.0016506953 -0.00207233
-0.0092806695 0.010580742 0.032684892 -0.01300002 -0.007228056 0.026114848 -0.0023052124 0.042345393
-0.0067795906 0.036952008 0.024066055 -0.030866118 0.028200334 0.02936472 -0.03485584 -0.046874017
-0.0010958352 -0.028449003 0.013958045 -0.016376754 -0.010251866 -0.039936796 -0.0023864934 0.010679203
-0.03069317 0.016293611 -0.0131565975 0.009943408 -0.005331527 -0.028060386 -0.013981757 0.0054552658
-0.0147052165 -0.024867442 0.029775048 0.036158264 -0.020297317 0.007983728 -0.0072662462 0.03885238
-0.009488451 0.026336279 0.010328074 -0.00015984366 -0.008978308 0.0024590262 -0.03256967 -0.008753416
-0.027803132 0.026682826 -0.0055816346 0.028074794 0.03492273 -0.03439015 0.025370415 -0.012928121
-0.033906765 -0.039247114 -0.047062222 0.023799153 -0.034021325 0.004901647 -0.0280899 0.024040414
0.020279702 -0.038369525 0.014226515 -0.0062863845 -0.035024673 0.023645718 -0.0017615076 -0.022344828
0.026616776 0.02371084 0.009988121 -0.04331981 0.024138976 0.035187736 0.014222827 0.028476587
0.02615704 0.018863969 -0.004484523 -0.025710102 0.035838462 0.026114713 -0.024489393 -0.034380864
-0.026084144 -0.035614062 0.021093052 -0.046052672 -0.0025621175 -0.0026302347 0.027456436 -0.0023023428
0.023322117 0.004887833 -0.03451497 0.0062276307 -0.029633885 -0.014394473 -0.037770696 0.014068617
0.027757194 0.016684756 -0.017419314 0.017672068 0.03431357 0.03648263 -0.042751018 -0.006228197
0.017978704 -0.011998506 -0.0062038335 0.023696711 -0.012906813 0.010437261 0.002882632 0.019123662
-0.019961534 0.008163636 -0.0032390985 -0.017486695 0.022924537 -0.030055964 -0.0067277984 -0.019894838
0.025239404 -0.026992066 -0.029354447 -0.016279701 -0.022240374 -0.033367366 0.020171216 -0.019723395
0.030982401 -0.016736075 -0.0865202 -0.07143508 -0.025010811 -0.018179154 0.010799877 -0.005469183
-0.011726512 -0.035854116 -0.031122489 0.027018083 -0.0077103144 -0.028657563 -0.015851451 -0.02264065
-0.0145544335 0.0029625571 -0.02277528 0.01800435 -0.023752797 -0.016205616 0.00735755 0.006351821
-0.036633387 -0.03235909 -0.012338058 -0.025815882 -0.021656191 -0.014340292 -0.020399021 -0.019213092
00000000: 3798 093d 0ada 6ebc 386c 073d e54f 62bc
00000010: 3548 fbbc ced3 bfbc baf3 9c3c 1a86 a9bc
00000020: 96ef 0dbd 8ccd 10bd 6e37 62ba 0140 c937
00000030: 6e2b d0ba 93df 9f3b e318 d73c d38f 04bd
00000040: 7a8b 8d3c b8a8 f53c ce11 11bd a5b2 483c
00000050: 5ade cf3c dc90 b8bc b3d3 013d ce3b dfbc
00000060: 876a b03c aed5 d43b 5cc5 75bb dc8e bb3a
00000070: d34c 0f3c 3b67 11bd c419 0cbd 93cd 8dbc
00000080: c535 2abc 4c6c 933c 88a2 063d b7aa 5abb
00000090: 93fb 19bb d851 c1bb 9ebd 14bc 811f da3c
000000a0: d602 2fbc 37f3 d03c 3bab 9ebc 0e15 ff3c
000000b0: 15b5 e03b ac39 dcbb fca4 273c 95af dfbc
000000c0: f734 9bbb c5eb 593c f1f2 ef3c d3d5 513c
000000d0: 9aef b63c 6527 953b faf9 87bc 9357 59bc
000000e0: 459a 5ebc 957c adbc 0a6f 6b3c dcf2 ddbc
000000f0: 1360 2a3b cdc4 813c 78fa 42bc 4e86 9db9
00000100: f749 40bb e805 0ebd f7b1 44bd 2685 63bc
00000110: d8a8 0dbd fe50 033d e25b 0d3d d84a 11bc
00000120: c05f 38bc 0a7f a9bc 0833 8d3c a436 8e3c
00000130: 307d 06bd 0515 0dbd 22e3 c03c eeb9 183c
00000140: b5cb df3b 6857 f33c dcb6 fbbb 25cd fe3b
00000150: 0a53 39bc 0a4e 9fbb 255c d83a eecf 07bb
00000160: f30d 18bc d95a 2d3c 98e0 053d 09fe 54bc
00000170: 54d9 ecbb ceee d53c 0c13 17bb 5d72 2d3d
00000180: 5427 debb fd5a 173d 2d26 c53c f1da fcbc
00000190: 6304 e73c 488e f03c ffc4 0ebd f8fe 3fbd
000001a0: 21a2 8fba e20d e9bc 49b0 643c 8b28 86bc
000001b0: 71f7 27bc c494 23bd b766 1cbb d3f7 2e3c
000001c0: 3e70 fbbc 2e7a 853c c58e 57bc ade9 223c
000001d0: 17b4 aebb e5de e5bc bd13 65bc 16c2 b23b
000001e0: 26ee 70bc ceb6 cbbc cdea f33c b01a 143d
000001f0: 8f46 a6bc 2fce 023c b119 eebb ac23 1f3d
00000200: 7375 1bbc 2ebf d73c 1537 293c b59b 27b9
00000210: c119 13bc 9d27 213b c667 05bd 7d6a 0fbc
00000220: 65c3 e3bc f195 da3c 25e6 b6bb 1cfd e53c
00000230: 230b 0f3d b0dc 0cbd 9ed5 cf3c 78d0 53bc
00000240: d2e1 0abd 95c1 20bd 51c4 40bd 71f6 c23c
00000250: f259 0bbd ff9d a03b ca1c e6bc 67f0 c43c
00000260: 9e21 a63c 5d29 1dbd 5416 693c 04fe cdbb
00000270: 0876 0fbd aab4 c13c 63e2 e6ba 800c b7bc
00000280: 6d0b da3c 3c3d c23c 37a5 233c 1d70 31bd
00000290: 1abf c53c 0421 103d dc06 693c bb47 e93c
000002a0: 4a47 d63c 9c88 9a3c e8f2 92bb fe9d d2bc
000002b0: 5acb 123d 86ee d53c fb9d c8bc f3d2 0cbd
000002c0: 6aae d5bc 0de0 11bd 56cb ac3c baa1 3cbd
000002d0: 33e9 27bb 0460 2cbb 52ec e03c e7e2 16bb
000002e0: 060e bf3c 1d2a a03b 925f 0dbd 2711 cc3b
000002f0: c3c2 f2bc ccd6 6bbc 72b5 1abd 0e80 663c
00000300: 0e63 e33c 78ae 883c f3b2 8ebc 03c5 903c
00000310: 638c 0c3d cf6e 153d b11b 2fbd e715 ccbb
00000320: 1348 933c 6295 44bc 8749 cbbb 9b1f c23c
00000330: 1977 53bc 0c01 2b3c 8aea 3c3b 3aa9 9c3c
00000340: 5f86 a3bc c5c0 053c 0e47 54bb 4240 8fbc
00000350: 3dcc bb3c ed37 f6bc dd74 dcbb 80fa a2bc
00000360: dec2 ce3c 771e ddbc bd78 f0bc 025d 85bc
00000370: 7231 b6bc 38ac 08bd 1b3e a53c f592 a1bc
00000380: cece fd3c 181a 89bc 8131 b1bd 8e4c 92bd
00000390: 79e3 ccbc 73ec 94bc f8f1 303c d536 b3bb
000003a0: 8e20 40bc c4db 12bd 97f4 febc 0755 dd3c
000003b0: cea6 fcbb 44c3 eabc e7da 81bc e278 b9bc
000003c0: b875 6ebc 7627 423b 3993 babc dc7d 933c
000003d0: 3a95 c2bc a4c1 84bc 9a17 f13b f022 d03b
000003e0: e40c 16bd f78a 04bd 9125 4abc d47b d3bc
000003f0: 5368 b1bc 8bf3 6abc d91b a7bc c664 9dbc

layer.0.bias f4 [256]
-0.0047388487 0.053713955 -0.0017932871 0.058752086 0.061311983 0.045726538 0.2945636 0.1473795
0.19598576 -0.3044219 0.091068655 0.0656362 0.04387505 0.03454443 0.09314283 0.085689165
-0.029465182 0.098059915 1.402152 0.21076365 0.13175078 0.22290134 -0.31895992 0.102529235
0.028060706 -0.17635544 0.01676008 0.47467646 0.2820632 -0.0277154 -0.07302476 0.1051085
0.08527151 0.1785164 0.09108926 0.02978767 0.15401584 0.7256723 -0.00349024 0.13158722
0.04290072 0.18481126 0.115266286 -0.08686793 0.069417834 0.02953474 0.033174783 0.4079607
0.11781659 0.12028231 0.05954013 0.124816775 0.16104497 0.19734327 -0.009287445 0.27722108
0.040587217 0.10403239 0.17825603 0.0017723696 0.04578972 0.011744221 0.09657405 0.0073136617
0.12820941 -0.018945292 0.120398775 -0.09770936 2.001435 0.14891763 0.18995692 0.079444274
-0.032818004 0.18582477 0.16391979 -0.018175852 -0.0077099893 -0.0054186364 0.055305768 0.23822568
0.0015474688 -0.05118441 -0.008240919 0.20701568 -0.1172083 -0.09736805 0.052447766 -0.066512525
0.06321747 0.29466805 0.095383555 0.48845947 0.16901843 0.068549976 0.010786928 0.009984226
1.1374438 0.14410672 0.004441899 0.10975949 0.014452256 -0.008532257 0.16198377 0.19129148
-0.019632064 0.01868195 0.06768172 0.0882176 0.058212537 0.03630915 0.04005454 0.07197559
-0.049514275 -0.18850257 0.10710267 -0.050247807 0.02167723 0.23473501 0.07176782 0.16539897
1.4484462 -0.038114816 -0.22417538 0.1557711 -0.011623694 0.08612881 -0.040789988 0.11421105
0.09012888 0.17914459 0.06444376 0.11651553 0.11935806 0.0123976 0.0045977067 0.20071402
0.12707655 0.0012688473 0.015348557 -0.0451327 -0.010363278 0.14266643 0.23690097 0.17462094
1.8443334 -0.156435 0.18733998 0.0140466895 0.124912046 0.11645269 0.11707951 0.07844642
0.19864525 0.16438924 0.18319502 0.028104758 -0.048178006 -0.0288934 0.03689625 -0.107381165
1.0098681 0.16473272 0.1191098 0.08167582 0.17151694 0.6322085 0.14099853 0.13914064
0.047457702 0.070960864 0.036384072 0.38467184 0.114293806 0.00912082 0.033731643 0.5599145
0.14088233 0.16302219 0.13789575 0.14450133 0.14916107 0.007324465 0.5911641 0.06552768
-0.07595838 0.02373291 -0.047111195 0.109854154 0.10807498 0.025145983 0.21758224 0.0019306744
0.04416534 -0.093230404 0.07385793 0.1121064 0.17539239 0.022417126 0.18884061 0.12506545
0.14439888 0.2959955 0.104523115 0.0061671264 0.10796621 0.21775894 -0.005455861 0.028881451
-0.042343874 0.1491102 0.059032552 0.040277325 0.013631023 0.12966073 0.30295092 0.18553825
1.0666449 -0.040208176 0.12513122 0.13965835 0.12738921 0.019373666 -0.067977734 0.112457655
0.035254106 0.12004177 -0.04059245 0.62222636 0.2144649 -0.02624567 0.16258973 -0.018023973
0.01615165 0.1666986 0.11175134 0.1378631 0.003783235 0.17569096 0.16188917 0.16241059
0.059240386 -0.007654853 -0.04026088 0.08215637 0.050643638 0.018594267 0.07746019 0.12923162
0.05549444 -0.0012061949 0.21788548 0.14029504 0.6620061 0.08516677 0.15029295 0.16047794
00000000: 5848 9bbb 2a03 5c3d bb0c ebba 07a6 703d
00000010: 4622 7b3d c04b 3b3d 0ad1 963e a7ea 163e
00000020: 7eb0 483e 30dd 9bbe 3482 ba3d 466c 863d
00000030: 53b6 333d 767e 0d3d abc1 be3d cd7d af3d
00000040: f760 f1bc a3d3 c83d b779 b33f 6dd2 573e
00000050: ade9 063e 4040 643e b74e a3be d9fa d13d
00000060: 91df e53c 8596 34be 6f4c 893c cb08 f33e
00000070: 966a 903e 680b e3bc 018e 95bd 2043 d73d
00000080: d4a2 ae3d 01cd 363e 028d ba3d 4605 f43c
00000090: 54b6 1d3e a9c5 393f 83bc 64bb cdbe 063e
000000a0: aab8 2f3d 2a3f 3d3e bb10 ec3d d0e7 b1bd
000000b0: f02a 8e3d d7f2 f13c 48e2 073d 3ae0 d03e
000000c0: d349 f13d 9256 f63d 5ae0 733d f09f ff3d
000000d0: f9e8 243e 5b14 4a3e 5e2a 18bc ecef 8d3e
000000e0: c83e 263d ef0e d53d c088 363e db4e e83a
000000f0: 008e 3b3d d56a 403c 9ec8 c53d 71a7 ef3b
00000100: 5449 033e 2833 9bbc a293 f63d d81b c8bd
00000110: 8317 0040 dd7d 183e 1184 423e aeb3 a23d
00000120: 2c6c 06bd d948 3e3e 97da 273e 86e5 94bc
00000130: 14a4 fcbb d18e b1bb 4d88 623d 6ff1 733e
00000140: 70d4 ca3a bea6 51bd eb04 07bc ebfb 533e
00000150: e80a f0bd e668 c7bd 78d3 563d b837 88bd
00000160: 2978 813d bbde 963e 7458 c33d 5c17 fa3e
00000170: 2b13 2d3e ee63 8c3d a8bb 303c e194 233c
00000180: c297 913f b690 133e 598d 913b 95c9 e03d
00000190: 28c9 6c3c e1ca 0bbc 13df 253e eae1 433e
000001a0: 6cd3 a0bc e40a 993c b79c 8a3d 6eab b43d
000001b0: 4570 6e3d e7b8 143d 3b10 243d f067 933d
000001c0: 7bcf 4abd d106 41be a558 db3d a5d0 4dbd
000001d0: 7294 b13c 605e 703e 02fb 923d 595e 293e
000001e0: af66 b93f 481e 1cbd 3b8e 65be 7682 1f3e
000001f0: 4e71 3ebc 4d64 b03d 6713 27bd 7ce7 e93d
00000200: 7e95 b83d ae71 373e 17fb 833d b29f ee3d
00000210: 0072 f43d 4e1f 4b3c 5ca8 963b fa87 4d3e
00000220: 5b20 023e 734f a63a 8478 7b3c 11dd 38bd
00000230: bdca 29bc 2617 123e 2b96 723e d5cf 323e
00000240: 1e13 ec3f 7f30 20be 0dd6 3f3e 1624 663c
00000250: e3d1 ff3d bf7e ee3d 62c7 ef3d 84a8 a03d
00000260: a969 4b3e a755 283e 7a97 3b3e f33b e63c
00000270: 4d56 45bd dab1 ecbc 8620 173d a8ea dbbd
00000280: 5c43 813f b2af 283e d7ef f33d a745 a73d
00000290: 23a2 2f3e 6bd8 213f eb61 103e e27a 0e3e
000002a0: 0263 423d ee53 913d 7707 153d b5f3 c43e
000002b0: df12 ea3d 7e6f 153c 312a 0a3d 8f56 0f3f
000002c0: 7543 103e 4aef 263e 8b34 0d3e 28f8 133e
000002d0: aebd 183e 1102 f03b 8856 173f 6033 863d
000002e0: 1190 9bbd 856b c23c abf7 40bd 37fb e03d
000002f0: 6a56 dd3d f3fe cd3c e1cd 5e3e af0e fd3a
00000300: b7e6 343d 95ef bebd d442 973d 0a98 e53d
00000310: 109a 333e 1fa4 b73c 6f5f 413e 2811 003e
00000320: 4ddd 133e b98c 973e 3710 d63d 9b15 ca3b
00000330: 631d dd3d 33fc 5e3e 14c7 b2bb cb98 ec3c
00000340: c570 2dbd 58b0 183e 1ecc 713d d6f9 243d
00000350: a754 5f3c c8c5 043e 621c 9b3e bdfd 3d3e
00000360: d287 883f 54b1 24bd 6622 003e 9902 0f3e
00000370: 5172 023e 86b5 9e3c e937 8bbd 3350 e63d
00000380: 9c66 103d 76d8 f53d 4544 26bd 3a4a 1f3f
00000390: b09c 5b3e 2901 d7bc ec7d 263e 03a7 93bc
000003a0: 7750 843c 0ab3 2a3e e3dd e43d fc2b 0d3e
000003b0: 27f0 773b 55e8 333e 46c6 253e f64e 263e
000003c0: 0ca6 723d 90d5 fabb 98e8 24bd 9941 a83d
000003d0: b46f 4f3d 0153 983c 73a3 9e3d 4b55 043e
000003e0: 234e 633d 2f19 9eba 5f1d 5f3e 81a9 0f3e
000003f0: 3b79 293f ea6b ae3d 65e6 193e 5454 243e
