autoencoder_ddp/autoencoder_ddp.pth (torch, 843709 bytes, 8 tensors)

encoder.0.weight f4 [128, 784]
0	0xbc0fbd8a	-0.008773217
1	0xbcd7e3ac	-0.02635368
2	0xbcef05be	-0.029177543
3	0xbd063f0e	-0.032774977
4	0x3cfde4d8	0.03099291
5	0x3b588093	0.003303562
6	0xbc99c137	-0.01876889
7	0x3cf4cd8e	0.029883172
8	0xbc37c445	-0.011216228
9	0xbcaff09e	-0.02147704
10	0x3d039550	0.032124817
11	0xbc885d3e	-0.016646024
12	0x3c49ebbb	0.012324269
13	0xbc9d35a5	-0.019190619
14	0x3c8c6291	0.017136844
15	0x3c39a83e	0.011331616
16	0x3c68222a	0.014168302
17	0x3cec1805	0.028820047
18	0x3c6f1f8e	0.014594926
19	0xbc95dd03	-0.018293863
20	0xbcbf3bae	-0.023343887
21	0xbc83f9e5	-0.01611037
22	0xbd11c277	-0.035585847
23	0x3d0a85e5	0.033819098
24	0xbd0ad9c6	-0.03389909
25	0x3cb67e17	0.022276921
26	0x3cbe7d87	0.023253215
27	0xbcdab1b7	-0.02669607
28	0xbc4a4237	-0.012344888
29	0xbb378adc	-0.002800635
30	0x3ce3f92c	0.027828775
31	0xbc7053c1	-0.014668406
32	0xbcc2b271	-0.023766728
33	0x3c3f4569	0.0116742635
34	0xbc03a099	-0.008033895
35	0xbb9a98d4	-0.0047179256
36	0x3d25f306	0.04051497
37	0xb914bd24	-0.0001418484
38	0xbb9c36ac	-0.0047672596
39	0x3cfe2a09	0.031025903
40	0x3da2b013	0.0794374
41	0x3d090bd7	0.033458557
42	0x3d5eeb1f	0.054423448
43	0x3cefdcdb	0.029280117
44	0x3dbb0545	0.091318645
45	0x3c843ea3	0.016143149
46	0x3c92eeb5	0.01793609
47	0x3d7dd902	0.061974533
48	0x3bb12179	0.0054056016
49	0xbbd2fa65	-0.0064385408
50	0xbd0d2d64	-0.034467116
51	0x3ca44912	0.020054374
52	0x3cce00b5	0.025146822
53	0x3c81e0ec	0.015854321
54	0xbc9bbfd5	-0.019012371
55	0xbc75f66e	-0.015012367
56	0x3d03422f	0.03204554
57	0x3ce817e3	0.028331703
58	0x3b98cb0e	0.004662878
59	0x3ce103a2	0.027467553
60	0xbc86aee2	-0.016440812
61	0xbca1440c	-0.019685768
62	0x3d8beabe	0.06831883
63	0x3d8733b6	0.0660166
64	0x3c174a54	0.00923403
65	0x3d1d6baa	0.038432755
66	0x3d99ff5f	0.07519411
67	0x3da72937	0.08162158
68	0x3da6616e	0.08124052
69	0x3dd77589	0.10520465
70	0x3df97fc8	0.121825755
71	0x3e02f8dc	0.12790245
72	0x3dace79a	0.08442612
73	0x3deb7bfa	0.11498256
74	0x3e119f00	0.1422081
75	0x3e0c56dd	0.1370501
76	0x3dd5c9b2	0.10438861
77	0x3dbdb66a	0.09263308
78	0x3d14660b	0.03623013
79	0x3d88455d	0.06653855
80	0xbce03bda	-0.02737229
81	0xbc303015	-0.010753651
82	0x3d0a2685	0.03372814
83	0x3c82d620	0.015971243
84	0xbb130925	-0.002243587
85	0x3b4ca8dc	0.0031228578
86	0x3bcaa28b	0.0061839274
87	0x3c8c8f8e	0.017158296
88	0x3c6719f6	0.014105311
89	0x3d453826	0.04814925
90	0x3cee1e4f	0.029067187
91	0xbb202687	-0.0024437027
92	0x3c3e784d	0.011625362
93	0xbc9a23b9	-0.018815862
94	0xbc5cdb34	-0.0134799965
95	0x3d48d77a	0.04903362
96	0x3d385f5e	0.045012824
97	0x3d8c0b31	0.06838072
98	0x3d779b15	0.060450632
99	0x3d674de7	0.056470778
100	0x3db1e5fa	0.08686443
101	0x3db99fea	0.09063704
102	0x3d8252bb	0.06363436
103	0x3d50d050	0.050979912
104	0x3d850b04	0.06496242
105	0x3d1a5771	0.037681047
106	0x3d9058aa	0.07048161
107	0x3d46f847	0.04857662
108	0xbc7da6ca	-0.01548166
109	0xbb77a6d7	-0.0037788653
110	0xbcb97801	-0.02264023
111	0x3c01f66a	0.007932285
112	0x3aa1f600	0.0012356639
113	0xbca29654	-0.019847073
114	0x3d2a19ab	0.041528385
115	0xbd48ed3d	-0.049054373
116	0xbb870777	-0.004120763
117	0xbc5bec47	-0.013423032
118	0x3c577397	0.013150117
119	0x3d0785dc	0.033086643
120	0x3cfe8224	0.031067915
121	0xbc57ada6	-0.01316396
122	0x3c22ec9f	0.00994411
123	0xbc1ea2a2	-0.009682329
124	0x3cae02ff	0.021241663
125	0x3d974cd2	0.07387699
126	0x3db6e94b	0.08931216
127	0x3d77f60a	0.060537376
128	0x3d43ee14	0.04783447
129	0x3da94d42	0.08266689
130	0x3d717952	0.05895359
131	0x3c84de6a	0.016219337
132	0x3cca4ead	0.024695719
133	0xbb02f710	-0.0019983687
134	0x3cb66f8f	0.022269992
135	0x3d4fe89e	0.05075895
136	0x3bbe26f7	0.005802985
137	0x3b8a306e	0.004217199
138	0x3ce331e7	0.027733756
139	0x3c7af4cf	0.015317156
140	0x3c204dd7	0.009784183
141	0xbcd2b271	-0.025719853
142	0x3c8b59aa	0.017010529
143	0x3cbcdd78	0.023054823
144	0x3c87d7cb	0.01658239
145	0xbd0315e8	-0.032003313
146	0xbc681aab	-0.014166514
147	0xbd444b86	-0.047923587
148	0xbd3c171a	-0.04592047
149	0xbcec215e	-0.028824504
150	0x3c227873	0.009916413
151	0x3d503f89	0.05084184
152	0x3c17bb86	0.009261018
153	0x3d801680	0.062542915
154	0x3cf09fce	0.029373076
155	0x3d120497	0.03564891
156	0x3d67f43d	0.05662941
157	0x3c9debcc	0.019277476
158	0x3d04798a	0.03234247
159	0xbb66acbf	-0.003519818
160	0xb97056f8	-0.00022920582
161	0xbd6d9767	-0.058005717
162	0xbd25c44b	-0.040470403
163	0xbcfcdffd	-0.030868525
164	0x3a11bc42	0.00055593636
165	0x3d5bc9b5	0.05365916
166	0x3cc786bf	0.024356244
167	0xbba78958	-0.005112808
168	0x3cd33aa3	0.025784796
169	0xbcf75562	-0.03019208
170	0x3c718c9b	0.014742996
171	0x3c32fd16	0.010924598
172	0x3be7cbf4	0.0070738737
173	0xbd083976	-0.033257924
174	0xbd5af677	-0.053457703
175	0xbc667f04	-0.014068369
176	0xbd875e70	-0.066098094
177	0xbcef7a39	-0.029233085
178	0xbcac450a	-0.021029014
179	0x3d095953	0.03353245
180	0x3d9063af	0.07050263
181	0x3d147567	0.036244776
182	0x3d3be8d4	0.04587634
183	0x3ced3a24	0.028958388
184	0x3d9e21c7	0.07721286
185	0x3ccda02c	0.02510079
186	0x3d20cf16	0.039259993
187	0xbb2a0a0e	-0.0025945934
188	0xbd746266	-0.059664153
189	0xbd9ca564	-0.07648733
190	0xbd2a5cc5	-0.04159238
191	0x3b521b10	0.0032059588
192	0x3c911f4e	0.017715123
193	0x3d391a58	0.04519114
194	0x3d6d7206	0.05797007
195	0x3c3dfef8	0.011596434
196	0x3a179414	0.0005782258
197	0xbccddc73	-0.025129532
198	0x3b2a1b60	0.0025956258
199	0xbc599f15	-0.013282557
200	0xbd2b3c95	-0.041805822
201	0xbd05146d	-0.032490183
202	0xbdab94ce	-0.083779916
203	0xbd82526e	-0.063633785
204	0xbd7ad7da	-0.06124101
205	0xbc70d907	-0.014700181
206	0xbc56f54e	-0.013120009
207	0x3d3f9123	0.046769273
208	0x3d83fee8	0.06445104
209	0x3d8be1dd	0.068301894
210	0x3c6759d7	0.014120541
211	0x3d93d896	0.07219045
212	0x3ca71cfd	0.020399565
213	0x3d48bb4b	0.04900674
214	0x3ca6e581	0.020373108
215	0x3c1f639d	0.0097283395
216	0xbd20c262	-0.039247878
217	0xbdb3ff41	-0.0878892
218	0xbd5591ce	-0.052141003
219	0xbd5384e6	-0.051640414
220	0x3d4cb9ac	0.049981758
221	0x3c876075	0.016525486
222	0x3d50be27	0.050962593
223	0x3cc08054	0.023498692
224	0x3cae33cb	0.021264931
225	0x3c7e56f6	0.015523663
226	0x3d18464a	0.037176408
227	0xbbee18ac	-0.0072661247
228	0xbc6e98a5	-0.0145627605
229	0xbd472a24	-0.048624173
230	0xbdc5dee0	-0.09661651
231	0xbd81554a	-0.06315096
232	0xbd7ccaf8	-0.061717004
233	0x3b97c0fe	0.0046311608
234	0x3c902472	0.017595503
235	0x3afcf11b	0.0019297929
236	0x3d50b5e7	0.050954726
237	0x3d12a0e2	0.03579796
238	0x3c3e84d3	0.011628347
239	0x3d0cd6b7	0.034384456
240	0x3d3c04dd	0.045903075
241	0x3d72d368	0.059283644
242	0xbc6510c2	-0.013981046
243	0xbb18fc89	-0.0023343882
244	0xbd237b51	-0.039912526
245	0xbdd31fbd	-0.10308788
246	0xbdb5a327	-0.088690095
247	0x3bc53f2b	0.006019493
248	0x3c8d269c	0.017230324
249	0x3bf4ba1d	0.0074684755
250	0x3d0ec780	0.034858227
251	0xbca410b1	-0.02002749
252	0xbb3bb2dc	-0.0028640544
253	0x3d32e743	0.04367758
254	0x3c87be78	0.016570315
255	0x3d054784	0.032538906

encoder.0.bias f4 [128]
0	0x3cf1549d	0.029459292
1	0xbd423804	-0.047416702
2	0xbd1ccee0	-0.03828323
3	0x3c3f1d03	0.011664632
4	0x3e23437f	0.15943716
5	0x3d653c85	0.05596592
6	0x3dba7a74	0.09105387
7	0x3d57b36d	0.052661348
8	0xbcba7504	-0.022760876
9	0x3cd8ed51	0.026480349
10	0x3d1e2cf5	0.038617093
11	0x3d3106ab	0.04321925
12	0xbbe51825	-0.0069914036
13	0x3e489dce	0.19591448
14	0xbb6ee07e	-0.0036449726
15	0x3d8eebc3	0.06978562
16	0x3df30f23	0.118681215
17	0xbc52908a	-0.012851844
18	0x3e05d94d	0.13071175
19	0x3b273a8a	0.002551707
20	0x3dd5e6ad	0.104443885
21	0x3cb59e85	0.022170315
22	0x3d127d58	0.03576407
23	0x3c678c67	0.014132596
24	0x3c018421	0.007905037
25	0x391999c8	0.00014648505
26	0xbd117521	-0.035512093
27	0x3db24217	0.08704012
28	0x3cd0c79f	0.025485812
29	0x3d5c1a2a	0.05373589
30	0x3cd1dcf5	0.025618056
31	0xbd41f860	-0.04735601
32	0x3cfa4f67	0.03055544
33	0x3c277955	0.010221799
34	0x3d0490d4	0.03236468
35	0x3c575f69	0.013145306
36	0xbda3bdd9	-0.07995195
37	0x3c00d71d	0.007863787
38	0x3d827b71	0.06371201
39	0x3bf38420	0.007431522
40	0xbb5d308d	-0.0033750862
41	0x3a8d90db	0.0010800617
42	0x3bafd16b	0.0053655407
43	0xbcdf874f	-0.0272862
44	0xbe31831b	-0.17335169
45	0xba4d8073	-0.000783927
46	0x3da5c9f6	0.080951616
47	0x3a6c0445	0.0009003322
48	0x3b64a00c	0.0034885434
49	0x3e78d337	0.24299322
50	0x3c9bd7d3	0.019023811
51	0x3e63a82a	0.22232118
52	0x3c93cc9e	0.018041905
53	0xbb0738f2	-0.0020633307
54	0x3d668fd4	0.05628951
55	0x3d30efa6	0.043197297
56	0x3d5a71c5	0.053331155
57	0xbd230920	-0.039803624
58	0xbdcc482e	-0.09974705
59	0x3cf551ae	0.029946174
60	0x3cce22a7	0.025163008
61	0xbcce683d	-0.025196189
62	0x3db7da25	0.08977155
63	0x3d819e5d	0.063290335
64	0xbc7f429c	-0.015579846
65	0x3d360bd1	0.044444863
66	0xbce2cd0a	-0.02768566
67	0xbcadd22e	-0.021218386
68	0x3d3a6f34	0.045516208
69	0x3d009ce3	0.03139962
70	0x3c1c6e26	0.009547746
71	0x3c893074	0.016746737
72	0xbb90f258	-0.004423421
73	0x3cb68e6a	0.022284705
74	0x3d177a8c	0.036982104
75	0x3d3717a6	0.044700287
76	0xbca90368	-0.020631507
77	0x3bc92e8d	0.0061395825
78	0xbd094963	-0.033517253
79	0xbd057060	-0.032577872
80	0x3d57f640	0.052725077
81	0x3cc7650b	0.024340173
82	0x3e175c8d	0.14781399
83	0xbbe65728	-0.007029433
84	0x3d026a33	0.03183956
85	0x3d2d867b	0.04236458
86	0x3caf6046	0.021408211
87	0x3d1df80b	0.03856663
88	0x3d960025	0.07324246
89	0x3bd2f494	0.0064378474
90	0x3c8c40da	0.017120767
91	0xbd373f6a	-0.04473821
92	0xbd05ef15	-0.03269871
93	0x3bd7ad0c	0.006581908
94	0x3d508995	0.05091246
95	0xbc52dc78	-0.012869947
96	0x3db54f7a	0.088530496
97	0x3d0cdb4b	0.03438882
98	0x3e0fcf05	0.14043815
99	0x3cce688e	0.02519634
100	0xbd2a2290	-0.041536868
101	0x3d881726	0.0664504
102	0x3dd00e0b	0.101589285
103	0x3e6ed0c3	0.23321824
104	0xbc307660	-0.01077041
105	0x3d887427	0.06662779
106	0x3d510d0a	0.051037826
107	0x3aa062a7	0.0012236432
108	0x3cd4d346	0.02597965
109	0x3ccad303	0.024758821
110	0x3d31595e	0.043298118
111	0x3d8ee0f9	0.06976504
112	0x3d467e13	0.048460077
113	0xbbe6a43c	-0.007038621
114	0x3adf1e0a	0.0017022502
115	0x3b99ae7b	0.004689989
116	0x3cd13fb8	0.025543079
117	0xbd0d67f9	-0.034522984
118	0x3cb664fa	0.022264946
119	0xbce52c96	-0.027975362
120	0xbb9c6ef3	-0.0047739684
121	0xbd2ec8ba	-0.042671897
122	0x3b9e3fd6	0.004829387
123	0x3d4271da	0.04747186
124	0xbca6561f	-0.020304738
125	0xbd8e2698	-0.06940955
126	0xbcf948b4	-0.030430175
127	0xbd0dbf24	-0.034606114

encoder.2.weight f4 [32, 128]
0	0x3d673c46	0.056453966
1	0x3d93bf38	0.072142065
2	0x3d8fc93d	0.07020805
3	0xbd8a18af	-0.06742989
4	0xbd4c1fdd	-0.049835075
5	0x3cfcdc4f	0.03086677
6	0xbd95837c	-0.07300469
7	0x3d0f8e92	0.035048075
8	0x3b056160	0.002035223
9	0xbce02a2f	-0.027363865
10	0xbd3c9af6	-0.04604622
11	0x3d9787d7	0.07398956
12	0xbd17e659	-0.03708491
13	0x3d52a0d0	0.051422894
14	0xbc2eb1e0	-0.010662526
15	0x3c833c97	0.016020102
16	0x3da30a7e	0.079609856
17	0x3c984b4d	0.018590594
18	0x3bc89476	0.0061212135
19	0x3d5f956e	0.054585867
20	0xbc4800ea	-0.012207249
21	0xbd329b38	-0.04360506
22	0x3d3bc499	0.045841787
23	0x3da8464b	0.08216532
24	0xbc984715	-0.018588582
25	0x3c0b5483	0.008504036
26	0x3c6d02fa	0.014466042
27	0x3d41f961	0.047356967
28	0xbc1cee3a	-0.009578282
29	0x3ac83770	0.0015275311
30	0x3daa756a	0.08323176
31	0x3d96e8d3	0.073686264
32	0xbdad6660	-0.08466792
33	0xb9e2353f	-0.0004314575
34	0x3d1b8ee0	0.037978053
35	0x3d933aea	0.07188971
36	0x3d22bd56	0.039731346
37	0x3d2fd6b0	0.04292935
38	0xbc97ea62	-0.01854438
39	0xbd067a47	-0.032831457
40	0x3c318041	0.010833801
41	0xbda114cb	-0.07865294
42	0xbc98f164	-0.018669792
43	0xbd8513a0	-0.06497884
44	0x3c82e697	0.015979094
45	0xbdaf8313	-0.08569922
46	0xbdbed6f9	-0.093183465
47	0xbdaf6572	-0.08564271
48	0x3a302d7c	0.0006720645
49	0x3d720583	0.059087288
50	0xbb863e61	-0.0040967916
51	0x3d015e16	0.031583868
52	0xbd62abd8	-0.055339664
53	0x3d2a62a3	0.041597974
54	0x3dc2a8de	0.09504865
55	0xbd7c042b	-0.061527412
56	0x3c6ecc51	0.01457508
57	0x3d871770	0.06596267
58	0xbd585301	-0.052813534
59	0x3d0087b8	0.03137943
60	0x3d4500cf	0.048096474
61	0xbd3e64d2	-0.04648287
62	0xbccd74b2	-0.025080059
63	0xbdbc2908	-0.091875136
64	0x3c8a4704	0.016879566
65	0xbd75bc67	-0.059994128
66	0xbd1dba3b	-0.03850768
67	0x3da7f28c	0.08200559
68	0xbcc8a155	-0.024490992
69	0xbd58a7db	-0.052894454
70	0x3d06bb57	0.032893505
71	0x3d3c753c	0.04601024
72	0x3d819f2e	0.06329189
73	0xbd8c0fd9	-0.0683896
74	0xbd14d176	-0.03633257
75	0xbb73ce8e	-0.0037201974
76	0x3c0af4d4	0.008481223
77	0x3d8cd964	0.068774015
78	0xbdb42147	-0.0879541
79	0xbdb60838	-0.08888286
80	0x3c864c05	0.01639367
81	0x3dad3c1f	0.08458733
82	0x3db8dd31	0.09026564
83	0x3dbad3e9	0.0912245
84	0x3cac2e6b	0.021018228
85	0x3c63da5a	0.01390704
86	0xbd89d6e7	-0.067304425
87	0x3d88aac2	0.066731945
88	0x3c802cc1	0.01564634
89	0x3a10daac	0.0005525749
90	0xbda4782c	-0.080307335
91	0xbd44600e	-0.047943167
92	0xbb7ff3fe	-0.0039055343
93	0x3dac4ed1	0.084134705
94	0xbbf00039	-0.0073242453
95	0x3646cb00	2.962246e-06
96	0x3cb41509	0.021982687
97	0x3d888af4	0.06667128
98	0x3cad8614	0.021182097
99	0xbd9e5fbd	-0.077331044
100	0xbd8b900b	-0.068145834
101	0xbd58ade6	-0.052900217
102	0xbdd04919	-0.10170192
103	0x3be28098	0.006912302
104	0xbd2721c4	-0.040803686
105	0xbd77d73e	-0.060508005
106	0xbd373c37	-0.04473516
107	0xbd767c45	-0.060177106
108	0xbd73fd09	-0.059567485
109	0xbda57f3c	-0.08080909
110	0x3c4b35ab	0.012402932
111	0x3d7a32ab	0.061083477
112	0xbc646937	-0.013941101
113	0xbd36bf13	-0.044615816
114	0xbc9ebbad	-0.0193766
115	0x3da59cf5	0.08086578
116	0x3c97776c	0.018489562
117	0xbcd18ab9	-0.025578843
118	0xbd4b0457	-0.049564686
119	0xbd791251	-0.060808484
120	0x3a3b106b	0.00071359304
121	0xbd3a4037	-0.045471396
122	0x3dd553d3	0.10416379
123	0xbdc7645e	-0.097359404
124	0xbcfcb241	-0.030846717
125	0x3bedb78d	0.007254547
126	0xbca67d2a	-0.020323355
127	0xbcee746b	-0.029108247
128	0x3d94c85e	0.072647795
129	0xbd0acb28	-0.03388515
130	0xbd9d7df4	-0.07690039
131	0x3c3d8747	0.011567897
132	0xbda51c99	-0.08062095
133	0xbcab6b4d	-0.020925188
134	0xbd2cd15e	-0.042191856
135	0x3d721720	0.059104085
136	0xbe076c93	-0.13225012
137	0xbda78e46	-0.081814334
138	0xbc21de15	-0.009879609
139	0xbd7530d7	-0.05986103
140	0xbde20678	-0.1103639
141	0x3d39464f	0.045233067
142	0xbcbd0dd9	-0.023077892
143	0x3dd73f19	0.10510082
144	0xbd8be3b2	-0.06830539
145	0xbce3ed2d	-0.027823055
146	0xbd1bde58	-0.03805384
147	0x3d684992	0.056710787
148	0x3e083e21	0.1330495
149	0xbae888c6	-0.0017740957
150	0xbc9b3857	-0.018947763
151	0xbc07b074	-0.008281816
152	0x3d7125f5	0.05887409
153	0x3ca26fe6	0.019828748
154	0xbda487e6	-0.08033733
155	0xbdde4714	-0.10853401
156	0x3d1982dd	0.037478317
157	0xbd83d191	-0.06436456
158	0x3d8c2613	0.068431996
159	0x3b448526	0.002998659
160	0xbe04524c	-0.12922019
161	0x3d9867a3	0.07441642
162	0x3d8213d8	0.06351441
163	0xbdb958e5	-0.090501584
164	0x3d0396ea	0.032126345
165	0xbbc4fa0a	-0.0060112523
166	0x3de374dc	0.111062735
167	0x3cbd41ef	0.023102729
168	0xbdac452d	-0.08411632
169	0x3da847a9	0.08216793
170	0xbc8401b4	-0.016114093
171	0xbda49b44	-0.08037427
172	0x3c8efad4	0.017453589
173	0xbca75c95	-0.020429889
174	0x3d233692	0.039846964
175	0xbdbca447	-0.09211021
176	0xbd7b039b	-0.061282735
177	0x3e156902	0.14590839
178	0x3da2e83e	0.07954453
179	0x3d86b655	0.06577746
180	0xbd8b03db	-0.06787845
181	0x3dc45cd2	0.095880166
182	0x3d605731	0.054770652
183	0x3d2005bd	0.039067972
184	0xbc0839a1	-0.008314521
185	0x3c6b4c1a	0.014361406
186	0x3d561da1	0.05227435
187	0x3d363e1e	0.044492833
188	0xbd057225	-0.03257956
189	0xbc8d6db0	-0.017264217
190	0xbe188c8b	-0.14897363
191	0x3ded3cc8	0.11583859
192	0xbd7ac8f0	-0.061226785
193	0xbdd354cb	-0.10318907
194	0xbc5bbd2b	-0.0134118
195	0xbcca4dcc	-0.0246953
196	0x3c74912c	0.01492719
197	0x3dd33ef2	0.1031474
198	0xbc46d977	-0.012136809
199	0xbd969e96	-0.073544666
200	0xbd345d40	-0.044034243
201	0xbdb67fdd	-0.08911107
202	0x3ded787f	0.115952484
203	0x3d8a7ad9	0.067617126
204	0xbd58ae2e	-0.052900486
205	0xbd76dc95	-0.060268957
206	0xbda629de	-0.08113454
207	0x3ca23bca	0.0198039
208	0x3d5c9e81	0.0538621
209	0x3d120bd1	0.0356558
210	0x3d569dd5	0.052396614
211	0xbe0c819f	-0.13721322
212	0x3cfeeea8	0.03111966
213	0xbd91348c	-0.07090101
214	0x3c7b8d16	0.015353462
215	0xbd3861e2	-0.045015223
216	0x3d0a77a0	0.03380549
217	0x3d5a0e12	0.053236075
218	0x3da2e950	0.07954657
219	0x3d0e3f3f	0.034728285
220	0xbc468234	-0.012116004
221	0xbc49e349	-0.012322255
222	0xbd857ef8	-0.06518358
223	0x3cd2b8cf	0.02572289
224	0x3d6aea12	0.057352133
225	0xbcd1478d	-0.025546813
226	0x3e016ed4	0.12639934
227	0xbdf3fc7f	-0.11913394
228	0x3cdb2f51	0.02675596
229	0xbd331319	-0.043719385
230	0x3d90a8cd	0.07063446
231	0x3d1a5c8b	0.037685912
232	0x3c9336b0	0.017970413
233	0x3db57765	0.08860663
234	0xbd513704	-0.051077858
235	0x3d88ce0e	0.06679927
236	0xbd7df85e	-0.06200444
237	0x3d726b2e	0.059184246
238	0xbe0ea47b	-0.13929932
239	0xbd368e95	-0.04456957
240	0x3d38c0c8	0.045105726
241	0x3d4d98cf	0.050194558
242	0xbd41f758	-0.047355026
243	0xbd696a95	-0.05698641
244	0x3cced116	0.025246184
245	0xbd81d27c	-0.06338975
246	0x3dc93e55	0.09826342
247	0x3cb11880	0.021618128
248	0xbd12903a	-0.035782076
249	0xbda045ba	-0.07825799
250	0x3dd0a880	0.10188389
251	0xbcabc125	-0.020966122
252	0x3d8028a0	0.062577486
253	0x3da1593a	0.07878347
254	0x3d81688e	0.0631877
255	0xbd2986d4	-0.041388348

encoder.2.bias f4 [32]
0	0xbd10eb2d	-0.03538053
1	0x3da6a66d	0.08137212
2	0x3d3d759e	0.046254747
3	0xbe81edb4	-0.25376666
4	0xbcadfaea	-0.02123781
5	0x3cba4c85	0.022741565
6	0xbdb1c9e8	-0.08681089
7	0xbd26808c	-0.040649936
8	0x3d7e0f69	0.062026415
9	0xbd97e973	-0.07417574
10	0xbd3d8bb9	-0.046275828
11	0x3db99dd4	0.090633065
12	0x3e285049	0.16436876
13	0xbd5d4028	-0.054016262
14	0xbdc05604	-0.09391406
15	0xbd05b90f	-0.03264719
16	0x3d1d8b04	0.038462654
17	0x3ca7518d	0.020424629
18	0x3dab0fe5	0.08352641
19	0xbd8ea69c	-0.06965372
20	0xbd7af85a	-0.061272003
21	0x3da1021c	0.078617305
22	0xbcef3024	-0.02919776
23	0x3e34c4db	0.1765322
24	0xbc406447	-0.011742658
25	0x3c414261	0.011795611
26	0xbd9ccc1c	-0.07656118
27	0x3a844dc0	0.0010093972
28	0xbb8a1626	-0.004214066
29	0xbc85b0aa	-0.016319592
30	0xbcee5eb3	-0.02909789
31	0xbdccc42a	-0.09998353

decoder.0.weight f4 [128, 32]
0	0xbb991355	-0.004671494
1	0xbe028279	-0.12745084
2	0x3e09b2e3	0.13447146
3	0xbe1b5c31	-0.15171887
4	0x3d961069	0.07327349
5	0xbdd554e0	-0.10416579
6	0xbcbf8d38	-0.023382768
7	0x3dc46ffb	0.09591671
8	0x3d97c599	0.07410736
9	0xbd87744e	-0.0661398
10	0xbe09ab06	-0.13444147
11	0x3e4a902b	0.19781558
12	0x3dfb9d6a	0.12285884
13	0x3ce6e094	0.02818326
14	0x3dd15765	0.10221747
15	0xbe185179	-0.1487483
16	0xbc445194	-0.01198234
17	0x3e06c997	0.13162838
18	0x3d2d1ecf	0.04226571
19	0xbe2bdd80	-0.16783714
20	0xbda6e083	-0.08148291
21	0x3d928682	0.071545616
22	0xbe1606b5	-0.14650996
23	0x3e07c15d	0.13257356
24	0x3e2f1b07	0.17100154
25	0x3e1294cc	0.14314574
26	0x3e141ff4	0.14465314
27	0x3df26941	0.11836482
28	0xbbba154d	-0.005678809
29	0xbd3818cc	-0.044945523
30	0xbd8cfe71	-0.06884468
31	0x3cea2ee2	0.028586809
32	0xbe027cb5	-0.12742884
33	0x3e7831ec	0.24237794
34	0xbdefb57e	-0.11704539
35	0xbdbfbda4	-0.09362343
36	0x3e1ff67e	0.15621373
37	0xbda1df05	-0.07903866
38	0xbdc50858	-0.09620732
39	0x3da8d47c	0.08243653
40	0xbd4bfbe2	-0.04980076
41	0x3e03c9e9	0.12869991
42	0x3e2e3524	0.17012459
43	0x3e3facad	0.18718214
44	0x3df20891	0.1181804
45	0xbccb409c	-0.024811082
46	0x3dcc6020	0.09979272
47	0x3dd3efa8	0.10348445
48	0xbe23d0bf	-0.15997599
49	0x3e2cc4f5	0.16872008
50	0x3e2e6a43	0.17032723
51	0xbdb23fcd	-0.08703575
52	0xbdc07d95	-0.09398953
53	0xbde6c8a9	-0.11268742
54	0xbd8d13d0	-0.068885446
55	0xbe23c70e	-0.15993902
56	0xbd38ec67	-0.045147326
57	0x3d2fbdeb	0.04290573
58	0x3b6967f2	0.0035614935
59	0xbd8f5ce9	-0.07000143
60	0x3e1754fe	0.14778516
61	0xbc60fbbe	-0.013731895
62	0xbd9e0e17	-0.07717531
63	0xbd86d697	-0.065838985
64	0x3ccd12aa	0.025033314
65	0x3e0eb897	0.13937603
66	0xbd5efb87	-0.054439094
67	0x3deaed32	0.11471023
68	0x3dcb9d3e	0.09942101
69	0x3e42f1a0	0.19037485
70	0xbd85da68	-0.06535798
71	0xbdab7a65	-0.08372954
72	0x3d4593ac	0.048236534
73	0xbd20fb2f	-0.039302047
74	0x3d891029	0.066925354
75	0x3e1d6596	0.15370783
76	0x3e550b01	0.20804979
77	0xbe13ab28	-0.1442076
78	0xbd29e3c2	-0.041476972
79	0xbbd86dcf	-0.006604887
80	0xbdd2e1bb	-0.10296961
81	0x3c25f9df	0.010130375
82	0x3d5153b3	0.051105212
83	0xbdc28e36	-0.09499781
84	0x3e1ee881	0.1551838
85	0xbe102680	-0.14077187
86	0x3d882a56	0.066487
87	0x3c42ee57	0.011897645
88	0xbe0b1d8d	-0.13585491
89	0x3d2a0547	0.04150894
90	0xbd855b0d	-0.06511507
91	0xbd4bea02	-0.049783714
92	0xbd5eee91	-0.054426733
93	0x3d6e3d5e	0.058163993
94	0xbd28a27e	-0.04117059
95	0xbaaf9962	-0.0013397152
96	0x3cc2fb04	0.023801334
97	0x3d2fe325	0.04294123
98	0xbd7b6c23	-0.061382424
99	0xbc2b3afc	-0.010451075
100	0x3dfd7622	0.12376048
101	0x3ddc1487	0.10746103
102	0xbe025508	-0.1272775
103	0x3bd3ee78	0.0064676367
104	0x3e100c3e	0.1406717
105	0xbe3f7be2	-0.18699601
106	0x3db6cd09	0.08925826
107	0xbdbedf40	-0.09319925
108	0x3d096f64	0.033553496
109	0xbe15b8db	-0.14621298
110	0x3dba26f3	0.0908946
111	0x3dd73cb6	0.105096266
112	0x3d3bdceb	0.04586498
113	0x3e21d767	0.15804826
114	0x3e1ee391	0.15516497
115	0xbda0982c	-0.078415245
116	0x3d187dc0	0.0372293
117	0xbdcd221e	-0.10016273
118	0x3dc5109e	0.0962231
119	0xbe644281	-0.22290994
120	0x3d8411de	0.064487204
121	0x3e39d333	0.18146972
122	0x3dfabbe8	0.122428715
123	0xbe1fb9c8	-0.15598214
124	0x3e4ba5e4	0.19887501
125	0x3bd7e23a	0.0065882476
126	0xbdeb5748	-0.11491257
127	0x3e402f75	0.18768103
128	0xbe13de03	-0.1444016
129	0x3e01faa5	0.1269327
130	0xbd9eceb0	-0.07754266
131	0xbde05419	-0.1095354
132	0x3e09be20	0.13451433
133	0xbd12690d	-0.035744715
134	0x3dd23799	0.10264511
135	0x3e5d7662	0.2162719
136	0x3daf0072	0.08545007
137	0x3e43177a	0.19051924
138	0x3e101c93	0.140734
139	0xbdb7ad0b	-0.08968552
140	0xbba19bb3	-0.004931891
141	0x3c101475	0.00879394
142	0xba21c73e	-0.0006171352
143	0x3c894abe	0.016759273
144	0x3d8cb78e	0.06870948
145	0xbe2d3fb8	-0.16918838
146	0x3d1852e3	0.037188422
147	0x3dea4d6d	0.11440549
148	0x3df48af2	0.11940564
149	0xbdfdddb0	-0.12395799
150	0x3d02b9f3	0.031915616
151	0xbd735fe8	-0.059417635
152	0x3dadc17b	0.08484169
153	0x3e350ec1	0.1768141
154	0xbda81eec	-0.08209023
155	0xbe6e21a9	-0.23255028
156	0xbe149d3d	-0.14513107
157	0x3e02b390	0.1276381
158	0xbe207e51	-0.15673186
159	0x3dd0fc38	0.10204357
160	0xbd1c4946	-0.038155816
161	0x3dced194	0.100985676
162	0xbd337882	-0.043816097
163	0xbdefae38	-0.117031515
164	0xbd91f8f5	-0.07127563
165	0xbd3f8836	-0.04676076
166	0x3d8fd510	0.0702306
167	0xbdc0bbf9	-0.09410853
168	0x3d147fe2	0.03625477
169	0x3e2ffcfc	0.1718635
170	0x3df19564	0.11796072
171	0xbcf1af78	-0.029502615
172	0xbd79c18c	-0.060975596
173	0xbdcf0077	-0.101075105
174	0xbdf72683	-0.120678924
175	0xbdbcebbd	-0.09224651
176	0xbc4e490d	-0.012590659
177	0x3da9f6e6	0.08299045
178	0xbd89753d	-0.067118146
179	0x3dc1a36c	0.094549984
180	0xbe029bab	-0.12754695
181	0xbe0a7546	-0.13521299
182	0xbe1cece6	-0.15324745
183	0xbe0d892e	-0.13821861
184	0x3d34b451	0.044117276
185	0x3dbb103c	0.09133956
186	0xbd0b91f8	-0.034074754
187	0xbe043b75	-0.12913306
188	0xbc878293	-0.016541755
189	0x3cb7f58d	0.022455955
190	0xbdf1f11e	-0.118135676
191	0xbe0d7471	-0.1381395
192	0xbbf10e21	-0.0073564206
193	0x3ce27848	0.027645245
194	0xbdce8798	-0.10084456
195	0xbe0c5bb4	-0.13706857
196	0xbe1c4407	-0.15260325
197	0x3d4faf11	0.050704066
198	0xbd0dc06e	-0.034607343
199	0xbe2db53b	-0.16963665
200	0xbd85dfe6	-0.06536846
201	0xbd629699	-0.055319402
202	0xbddd5c04	-0.10808566
203	0x3e17dfda	0.14831486
204	0x3dc34338	0.09534305
205	0xbcee4caf	-0.0290893
206	0x3c81665a	0.015795875
207	0xbe12b8bb	-0.14328282
208	0x3d3bb572	0.045827337
209	0xbd131b45	-0.035914678
210	0xbd3365ab	-0.04379813
211	0x3d87b784	0.066268
212	0xbdac3796	-0.0840904
213	0x3e49f2b5	0.19721492
214	0x3d8cc162	0.06872822
215	0x3e3cb296	0.184275
216	0xbd49d376	-0.04927393
217	0x3e097a79	0.13425626
218	0x3d104a61	0.035227183
219	0x3e3b9961	0.18320228
220	0xbcba1add	-0.022717888
221	0xbde7c7ab	-0.113173805
222	0xbdddefb2	-0.10836734
223	0x3e033452	0.12812927
224	0x3c6b3f9f	0.01435843
225	0xbd9ae0a8	-0.07562381
226	0x3e61d05c	0.22052139
227	0xbe09170d	-0.133877
228	0xbd8ebc0c	-0.06969461
229	0x3dc8acf0	0.0979861
230	0x3c157f2e	0.00912456
231	0xbdd0108d	-0.10159407
232	0xbe38de66	-0.18053588
233	0xbc74529a	-0.014912272
234	0x3e271fa3	0.16320662
235	0x3d60273d	0.05472492
236	0x3dfd0ce5	0.12355975
237	0xbb911d72	-0.004428559
238	0x3da843ed	0.08216081
239	0x3db38cae	0.08767067
240	0xbe2e794d	-0.1703846
241	0xbb202ee4	-0.0024442011
242	0x3d31f89a	0.043449976
243	0x3dc07138	0.09396595
244	0xbbfdfe01	-0.007751227
245	0x3e4413dd	0.19148202
246	0x3e838c89	0.25693157
247	0x3e87788c	0.26459157
248	0x3dfc05d3	0.123057984
249	0xbdfac272	-0.12244119
250	0x3dcd9b63	0.10039403
251	0x3e4ed793	0.20199423
252	0xbdc86408	-0.097847044
253	0x3e0fe5c0	0.14052486
254	0x3dd31052	0.10305847
255	0xbc8c138d	-0.017099166

decoder.0.bias f4 [128]
0	0xbe05a6ec	-0.13051957
1	0xbd9aa2c9	-0.0755058
2	0x3de0ef81	0.10983182
3	0xbdca7cec	-0.09887108
4	0x3d75cbfe	0.060008995
5	0x3db02d64	0.086024076
6	0x3e5b495a	0.214147
7	0xbd519958	-0.05117163
8	0x3df9b684	0.12193015
9	0xbe0a8fed	-0.13531466
10	0x3e22f8ae	0.15915176
11	0x3e528950	0.20560193
12	0x3e08e3b4	0.13368112
13	0xbd8033e0	-0.06259894
14	0xbeae1c38	-0.34005904
15	0xbdce32d3	-0.10068288
16	0x3dd7c45a	0.10535498
17	0x3dd998f9	0.1062488
18	0x3e54e5db	0.20790808
19	0xbe1e9c7e	-0.15489385
20	0xbdfe7152	-0.12423958
21	0xbdc36fcc	-0.09542808
22	0xbcbdd519	-0.023172902
23	0xbd4a75c2	-0.04942871
24	0x3cb3dff5	0.021957377
25	0xbde4f409	-0.111793585
26	0xbddd3fe7	-0.10803204
27	0x3e3ee2b0	0.18641162
28	0xbdd622f0	-0.104558825
29	0x3e21f88b	0.15817468
30	0x3e898b49	0.2686408
31	0xbd050509	-0.032475505
32	0x3d07805c	0.033081397
33	0xbea8fccf	-0.33005378
34	0x3d8bb91f	0.068224184
35	0xbd945c10	-0.07244122
36	0xbde5f18e	-0.112277135
37	0x3e120fca	0.14263836
38	0x3e40e587	0.18837558
39	0xbde66bc6	-0.11251025
40	0xbb93a551	-0.0045057912
41	0x3e0a225a	0.13489667
42	0x3df67200	0.120334625
43	0xbe14fe47	-0.14550124
44	0xbdee4960	-0.11635089
45	0x3d916afe	0.07100485
46	0xbe0def42	-0.13860801
47	0x3d9ebecb	0.077512346
48	0x3e7638ec	0.24045151
49	0x3d81aa02	0.063312545
50	0xbd22ad13	-0.039715838
51	0x3d85f21a	0.06540318
52	0xbe1e19c5	-0.15439518
53	0x3e34ce30	0.1765678
54	0xbdca5f13	-0.09881415
55	0xbcab7d48	-0.020933762
56	0x3d1731c1	0.036912683
57	0x3c2c39b9	0.010511809
58	0xbdf71de5	-0.12066249
59	0x3da9e03e	0.08294724
60	0x3e25e206	0.16199502
61	0xbe2ef961	-0.17087318
62	0xbe5b5cd7	-0.21422134
63	0x3e6a2bba	0.22868243
64	0xbd7e613a	-0.06210444
65	0x3c1a5db9	0.009421759
66	0x3d8368a9	0.06416447
67	0x3d852b19	0.06502361
68	0xbcbb09f1	-0.022831889
69	0xbd55cad7	-0.052195396
70	0xbd0140d5	-0.03155597
71	0xbe4883ac	-0.19581479
72	0x3dd7ce06	0.10537343
73	0x3dbadf7a	0.09124656
74	0x3e360d6e	0.1777856
75	0x3deba669	0.115063496
76	0xbe29f353	-0.16596727
77	0xbe3e48b6	-0.18582425
78	0xbdc576a9	-0.09641773
79	0x3df44ed4	0.11929098
80	0xbda8e3aa	-0.082465485
81	0xbc945e46	-0.01811136
82	0x3d85c99a	0.06532593
83	0xbddccd4d	-0.107813455
84	0x3e6f961d	0.23397107
85	0x3cc6f8b5	0.024288515
86	0x3e3cbb53	0.18430834
87	0xbe743b0f	-0.23850654
88	0x3e5477bf	0.20748805
89	0xbe0df41d	-0.13862653
90	0x3e334e0b	0.1751024
91	0x3e53ca74	0.20682698
92	0x3e1808f0	0.1484716
93	0xbb10b8db	-0.0022082839
94	0xbe0668bf	-0.13125895
95	0xbd723ba9	-0.059138928
96	0x3e511c03	0.20420842
97	0x3e2c858b	0.16847818
98	0xbe0fdb7e	-0.14048573
99	0xbda737f3	-0.08164968
100	0x3d0c18ed	0.03420346
101	0x3e508d0a	0.20366302
102	0xbc5327b7	-0.012887887
103	0xbd78c9fb	-0.0607395
104	0x3e74d717	0.23910175
105	0x3e6edc47	0.23326217
106	0xbeb91962	-0.36152178
107	0xbe0f2e37	-0.13982473
108	0x3d759a92	0.059961863
109	0xbc73bf83	-0.014877203
110	0x3dc915a5	0.098185815
111	0x3d66044b	0.056156438
112	0xbd8bad8d	-0.068202116
113	0x3dbda874	0.092606455
114	0x3d10e0d0	0.035370648
115	0xbdef958c	-0.11698446
116	0xbde28ac7	-0.11061626
117	0xbeab99b8	-0.33515716
118	0xbeb7f6df	-0.35930535
119	0x3d9f81e7	0.07788449
120	0x3e019986	0.12656221
121	0xbcf2528f	-0.029580383
122	0x3dc1a7b5	0.09455816
123	0x3e0148ae	0.12625381
124	0xbe1eea5b	-0.15519087
125	0xbe11459b	-0.14186709
126	0x3e5af1ce	0.21381304
127	0x3e006b97	0.12541042

decoder.2.weight f4 [784, 128]
0	0xbdc68dc8	-0.096950114
1	0x3c3cca08	0.011522777
2	0xbc5fc0ff	-0.013656854
3	0xbd820439	-0.06348462
4	0xbc5c4497	-0.0134440875
5	0xbd80dcee	-0.06292139
6	0xbd6595a4	-0.05605091
7	0xbd7bf4cb	-0.06151275
8	0x3cf688e6	0.030094575
9	0xbd73df88	-0.059539348
10	0x3d016a81	0.03159571
11	0xbdf08f7b	-0.11746117
12	0xbba64127	-0.0050736847
13	0xbd28d989	-0.041223083
14	0x3cbd66ba	0.023120273
15	0x3c7b4d6a	0.015338281
16	0xbd68a71c	-0.056799993
17	0xbad1e027	-0.0016012237
18	0xbe542580	-0.2071743
19	0xbd108eaf	-0.035292324
20	0xbb448c18	-0.002999073
21	0x3b8cc0ba	0.0042954357
22	0x3d472415	0.048618395
23	0xbbd58f1e	-0.006517305
24	0x3c56e452	0.013115959
25	0x3d16f6a8	0.036856323
26	0xbd3fc5a6	-0.04681935
27	0xbdcaddfd	-0.09905622
28	0x3d0a5e70	0.03378147
29	0xbc1f1f27	-0.009712017
30	0xbd2d6e7f	-0.042341705
31	0x3d67b7df	0.056571838
32	0x3c6a8941	0.01431495
33	0x3cb1fe2e	0.021727648
34	0x3d0e3f7f	0.034728523
35	0xbd8c4b4e	-0.06850301
36	0x3d2040a2	0.03912414
37	0xbd806ca9	-0.06270725
38	0xbddbea02	-0.10737993
39	0x3d2eee00	0.042707443
40	0x3cc1005a	0.023559738
41	0x3d082776	0.033240758
42	0x3d51db0a	0.051234283
43	0x3d618db3	0.055066776
44	0x3d848b5b	0.064718924
45	0x3d33dcd5	0.043911774
46	0x3cf88311	0.030335935
47	0xbc01aeb6	-0.0079151895
48	0xbbd9ff07	-0.006652716
49	0xbaf99361	-0.0019041115
50	0xbd81de95	-0.06341282
51	0xbc480f36	-0.012210658
52	0xbdaccdf7	-0.08437722
53	0xbc5f9a54	-0.013647635
54	0xbc4e1af2	-0.012579666
55	0xbbda8052	-0.006668129
56	0x3d540b8e	0.051768832
57	0xbdc50a98	-0.09621161
58	0xbbdcd3c6	-0.0067391125
59	0xbd603178	-0.054734677
60	0xbd8cb504	-0.068704635
61	0xbd2d72de	-0.042345874
62	0xbcdfb7aa	-0.027309258
63	0xbdf3b4f3	-0.11899748
64	0xbd1a1c21	-0.037624482
65	0x3cb1dfdd	0.021713192
66	0xbbedd550	-0.007258095
67	0xbd95a118	-0.07306117
68	0xbd9bd7eb	-0.076095425
69	0xbdbde05b	-0.09271308
70	0xbde7f98c	-0.11326894
71	0xbdacc85d	-0.08436654
72	0xbcd09689	-0.025462406
73	0x3cf9c24d	0.030488158
74	0xbd3b7c5b	-0.04577289
75	0xbd8debc3	-0.069297336
76	0xbd410893	-0.047127318
77	0x39df425b	0.00042583313
78	0xbd75a873	-0.0599751
79	0xbde42639	-0.11140103
80	0x3cb2632b	0.021775803
81	0xbd3d8973	-0.04627366
82	0xbda8a261	-0.08234096
83	0x3c7d5670	0.015462503
84	0xbd99ef24	-0.075163156
85	0xbd6a2806	-0.057167076
86	0xbc79585c	-0.01521882
87	0xbd2fa8b1	-0.042885486
88	0xbda35792	-0.07975687
89	0xbd8b92e6	-0.06815128
90	0xbdaaf80d	-0.08348093
91	0xbd48c967	-0.049020197
92	0x3c00f0ef	0.007869943
93	0x3a117118	0.00055481633
94	0x3c9514b3	0.018198347
95	0xbc93eefe	-0.018058296
96	0x3d50169c	0.050802812
97	0xbd036503	-0.032078754
98	0x3c5566e1	0.0130250165
99	0xbd302ec7	-0.04301336
100	0xbd1ce256	-0.03830179
101	0x3d682015	0.05667122
102	0x3d75fd4e	0.060056023
103	0xbcfa4215	-0.030549088
104	0xbd377c5a	-0.044796325
105	0xbca3c346	-0.019990575
106	0x3d130457	0.03589281
107	0xbdeb5070	-0.114899516
108	0x3da30c0c	0.07961282
109	0xbd359bc7	-0.044338014
110	0x3cbcefed	0.023063624
111	0x3b9adbf6	0.0047259284
112	0xbd9e64e5	-0.07734088
113	0xbd979e48	-0.07403237
114	0xbde2543f	-0.11051225
115	0xbb3fce2d	-0.0029267177
116	0xbcdab7a7	-0.0266989
117	0xbda42910	-0.080156446
118	0x3b9f6e53	0.0048654466
119	0xbccbc7ba	-0.02487551
120	0xbd2a31b7	-0.041551318
121	0xbc71e37c	-0.014763709
122	0xbd91dc84	-0.07122138
123	0x3d6d0e1d	0.057874788
124	0xbd04f4f7	-0.03246018
125	0xbd930ad2	-0.07179798
126	0x3c2fa93c	0.010721501
127	0xbba63c87	-0.0050731334
128	0x3d7a5b5f	0.061122295
129	0xbbaf7480	-0.005354464
130	0x3d5fe008	0.054657012
131	0xbdd4b110	-0.103853345
132	0xbd4b2b61	-0.049601916
133	0xbd67ec50	-0.05662185
134	0xbc961290	-0.018319398
135	0xbd0d9f98	-0.03457603
136	0xbc576b92	-0.013148205
137	0xbbe2b8b2	-0.00691899
138	0xbd845df7	-0.06463235
139	0xbdb26cde	-0.08712171
140	0xbd83c31d	-0.06433699
141	0xbd84f706	-0.064924285
142	0xbde00e29	-0.10940201
143	0x3d859120	0.06521821
144	0xbdd0986c	-0.10185322
145	0x3d01a4e2	0.031651385
146	0xbd9b95b0	-0.0759691
147	0xbdd50fbb	-0.10403391
148	0xbd0c0f64	-0.034194365
149	0xbcfb2b44	-0.03066028
150	0xbdbc8d39	-0.092066236
151	0xbd5ad818	-0.05342874
152	0xbd801f79	-0.06256003
153	0x3a36322d	0.0006950226
154	0xbc9aec0d	-0.018911386
155	0x3c95c711	0.018283399
156	0x3cc533c7	0.02407254
157	0xbd9f0ab0	-0.0776571
158	0x3cb4e161	0.022080125
159	0x3d6c13d2	0.05763609
160	0xbd9ef3ed	-0.07761369
161	0xbd11c056	-0.035583816
162	0xbd68eb82	-0.056865223
163	0xbd35a154	-0.044343308
164	0xbce03b0f	-0.027371911
165	0xbcead1e7	-0.028664542
166	0xbd4df8e8	-0.050286204
167	0xbda6ca92	-0.08144106
168	0x3d354747	0.04425743
169	0xbce611a0	-0.028084576
170	0xbb326599	-0.0027221201
171	0x3c954011	0.018219026
172	0xbd89434e	-0.067022905
173	0xbd9a37e8	-0.075301945
174	0xbda995d9	-0.08280534
175	0xbd296395	-0.041354734
176	0x3d562c2b	0.052288216
177	0xbdbb4f83	-0.09146025
178	0xbcbd330c	-0.02309563
179	0x3d9ae808	0.07563788
180	0xbdadb9df	-0.08482718
181	0x3d5cd671	0.053915445
182	0x3ce6aebd	0.028159494
183	0xbccd72f2	-0.025079224
184	0xbd80b837	-0.06285136
185	0xbcde37bd	-0.027126187
186	0x3d8fd0be	0.07022236
187	0xbce37cac	-0.02776941
188	0x3c962a62	0.018330757
189	0xbda47ca1	-0.080315836
190	0xbd6ff606	-0.058584236
191	0xbdb8a39c	-0.09015581
192	0xb9fb70ec	-0.00047958584
193	0x3d88c11c	0.06677458
194	0xbdb4bb8f	-0.088248365
195	0xbd7d39ee	-0.061822824
196	0xbbc53aae	-0.006018958
197	0x3ca22ffa	0.019798268
198	0xbd28b995	-0.04119261
199	0xbd69cb1b	-0.057078462
200	0xbccbb1e9	-0.024865108
201	0xbdc4741a	-0.09592457
202	0xbd8b03e1	-0.06787849
203	0xbd8fcb6e	-0.07021223
204	0xbdab94bf	-0.083779804
205	0xbd9ea62c	-0.077465385
206	0x3d09ef10	0.033675253
207	0xbd63ea67	-0.055643465
208	0xbd91c67c	-0.07117936
209	0xbd0795c6	-0.03310182
210	0xbde87447	-0.11350303
211	0xbcbde80c	-0.023181938
212	0x3d80eff8	0.062957704
213	0xbd80a41c	-0.062813014
214	0xbd149b20	-0.03628075
215	0xbe0315fc	-0.12801355
216	0xbdb50b12	-0.08840002
217	0x3d50c9ac	0.05097358
218	0xbcf99a72	-0.030469153
219	0xbce79a65	-0.028271863
220	0xbc3edaf9	-0.011648887
221	0xbb7c6064	-0.0038509602
222	0xbd685179	-0.056718323
223	0xbdb399e0	-0.08769584
224	0xbdca910f	-0.09890949
225	0xbdc21299	-0.094762035
226	0xbc3eba69	-0.011641123
227	0xbc01231e	-0.007881908
228	0xbc188855	-0.009309848
229	0xbdb27747	-0.087141566
230	0x3c74e46d	0.014947039
231	0xbba8ecaa	-0.0051551657
232	0x3a3656fd	0.0006955711
233	0x3c90c77d	0.017673248
234	0x3d895a72	0.06706704
235	0xbdb45b84	-0.08806518
236	0x3c5c0ea6	0.013431227
237	0x3bf21ada	0.007388455
238	0xbdc0fdb1	-0.09423388
239	0xbdc950e3	-0.09829881
240	0xbdafb670	-0.08579719
241	0x3c49b9e7	0.012312389
242	0xbd071084	-0.032974735
243	0x3d5238bc	0.051323637
244	0xbd3ca7fd	-0.046058644
245	0xbcb3fd1b	-0.021971276
246	0xbdd7f13a	-0.10544057
247	0x3cb8b12d	0.022545421
248	0xbdda2655	-0.106518425
249	0xbdbe71a9	-0.09299023
250	0x3d202ae9	0.039103422
251	0x3d034046	0.032043718
252	0x3c7969a4	0.015222941
253	0x3d54b082	0.051926143
254	0xbdbd9630	-0.092571616
255	0xbcbb200b	-0.022842428

decoder.2.bias f4 [784]
0	0x3d58159d	0.052754987
1	0xbdbeff18	-0.09325999
2	0x3cd43c13	0.025907552
3	0xbd1c8d15	-0.038220484
4	0x39ae53c4	0.00033250276
5	0xbda84c07	-0.08217626
6	0xbca6ff2f	-0.020385353
7	0xbc5210c0	-0.012821376
8	0x3af49704	0.0018660729
9	0xbdce1684	-0.10062888
10	0xbd5173c3	-0.05113579
11	0x3c9a5564	0.018839546
12	0xbbe2c862	-0.00692086
13	0x3cc49904	0.023998745
14	0xbd77eca2	-0.060528405
15	0x3d3f063d	0.04663681
16	0xbdd8070d	-0.1054822
17	0xb859c516	-5.1920382e-05
18	0x3c7f1b38	0.015570454
19	0xbc35db80	-0.011099696
20	0x3cbf3958	0.023342773
21	0x3a6ad941	0.0008958765
22	0xbce09fe6	-0.027419996
23	0xbde48cfc	-0.11159703
24	0xb9a96ee6	-0.00032316818
25	0xbd2b27ce	-0.041786008
26	0xbd87a5fe	-0.06623457
27	0x3c0518e9	0.008123615
28	0x3d80e1f8	0.062931
29	0xbdd8f77a	-0.105940774
30	0x3cf6f280	0.03014493
31	0x3cce8302	0.025208954
32	0xbdea8992	-0.11452021
33	0xbc5377ad	-0.012906951
34	0xbdd4d8b8	-0.10392898
35	0x3d31a3df	0.04336917
36	0xbd1fe6b9	-0.039038394
37	0xbc922efb	-0.017844668
38	0xbda42347	-0.08014541
39	0xbd9b2260	-0.07574916
40	0xbc92526e	-0.017861571
41	0xbd50e51b	-0.050999742
42	0xbcc3f997	-0.023922725
43	0xbc69653a	-0.014245326
44	0x3ba428e4	0.0050097574
45	0xbd2957d9	-0.041343544
46	0xbcf1739e	-0.029474076
47	0x39cd6985	0.00039179265
48	0x3cd414b0	0.02588877
49	0x3c46d52f	0.012135788
50	0xbd2a7a22	-0.04162038
51	0xbd307147	-0.04307678
52	0xbddf50f0	-0.109041095
53	0x3c93b790	0.018031865
54	0x3c350fd6	0.011051139
55	0xbd45d9ec	-0.04830353
56	0xbc7da04e	-0.015480114
57	0x3c3c02d7	0.011475286
58	0xbdd686a9	-0.10474903
59	0xbd13fbac	-0.036128685
60	0xbcf2e972	-0.029652331
61	0x3d4a1e0c	0.04934506
62	0xbd59d3b9	-0.05318043
63	0xbbc269c8	-0.0059330203
64	0xbdbc5798	-0.09196395
65	0xbc1cc4c8	-0.009568401
66	0xbd290503	-0.041264545
67	0xbd8c1ab1	-0.068410285
68	0xbd4d3bda	-0.050105907
69	0xbc8cf1ea	-0.017205197
70	0x3d30c5ba	0.043157317
71	0x3d757faf	0.05993622
72	0x3cb44476	0.022005301
73	0xbd6ddfb3	-0.058074664
74	0xbda78156	-0.08178966
75	0xbbcd4710	-0.006264575
76	0xbd3fa5d6	-0.046789013
77	0x3d04e822	0.03244794
78	0xbd7df884	-0.06200458
79	0xbda3c203	-0.07995989
80	0xbd82962b	-0.063762985
81	0x3d4f558c	0.050618693
82	0x3d374944	0.044747606
83	0xbd9b9fd2	-0.07598843
84	0xbd1ba97b	-0.038003426
85	0xbd0c415e	-0.034242027
86	0xbd297875	-0.041374642
87	0xbd22c554	-0.039738968
88	0xbd1b6829	-0.03794113
89	0xbd5064cb	-0.050877374
90	0xbd31111d	-0.04322921
91	0xbcbf380f	-0.02334216
92	0xbce1b810	-0.027553588
93	0xbdcb2939	-0.09919972
94	0xbd20916e	-0.039201193
95	0x3cef192c	0.029186808
96	0x3d37fb7d	0.044917572
97	0xbdceeb8b	-0.1010352
98	0xbddf242d	-0.10895572
99	0xbdb5df5c	-0.08880493
100	0xbd6bd890	-0.057579577
101	0xbdb25ade	-0.08708738
102	0xbd866984	-0.06563094
103	0xbd8ec783	-0.069716476
104	0x3ce5b1bb	0.02803885
105	0x3d5b8970	0.053597867
106	0xbc0d9265	-0.00864086
107	0x3d6ecd55	0.05830129
108	0xbda245bc	-0.07923457
109	0xbd03ac0f	-0.03214651
110	0x3caf36ac	0.021388374
111	0xbd2f5189	-0.042802367
112	0x3c1bf1bd	0.009518084
113	0x3c843a8f	0.016141204
114	0x3c91462a	0.017733652
115	0x3cfff71a	0.031245757
116	0xbddd037f	-0.107916825
117	0xbde1425d	-0.10998986
118	0xbde220a1	-0.1104138
119	0xbd27b0bd	-0.040940035
120	0xbd4b0f19	-0.049574945
121	0x3d191947	0.037377622
122	0xbc1b95dc	-0.0094961785
123	0xbdb0210f	-0.086000554
124	0xbc9a3a9d	-0.018826777
125	0xbd10f210	-0.0353871
126	0xbdef5685	-0.11686424
127	0xbd7410f6	-0.059586488
128	0x3d1d954c	0.03847246
129	0xbdcb338d	-0.09921942
130	0xbdcfbc94	-0.1014339
131	0xbdd793f7	-0.10526269
132	0xbde0f114	-0.10983482
133	0xbd654c43	-0.055980932
134	0xbde3e4ab	-0.11127599
135	0xbd5d4308	-0.054019004
136	0xbb8b6773	-0.0042542755
137	0x3d34acc1	0.044110063
138	0xbcd05275	-0.025429944
139	0xbad27993	-0.001605796
140	0xbde790f1	-0.11306942
141	0xbce472e1	-0.02788681
142	0x3d541d21	0.051785592
143	0x3d43f56c	0.047841474
144	0xbb116175	-0.0022183333
145	0xbbacd3ae	-0.0052742576
146	0xba945533	-0.0011316895
147	0xbd63b532	-0.055592723
148	0xbdb762e6	-0.0895441
149	0x3c863388	0.016381994
150	0xbd675c90	-0.05648476
151	0xbdb75cff	-0.089532845
152	0x3a040419	0.0005036011
153	0x3bf46c73	0.007459217
154	0xbe21b4bd	-0.15791602
155	0xbdffba3f	-0.124866955
156	0xbdcc7ad5	-0.09984366
157	0xbdc92468	-0.09821397
158	0xbdac9a8c	-0.08427915
159	0xbd83fad5	-0.06444327
160	0xbcd8b9eb	-0.02645584
161	0xbd43ba00	-0.047784805
162	0x3d40adb3	0.047040652
163	0xbae2cbd7	-0.0017303181
164	0x3c2d89c1	0.010591925
165	0x3b33f7d0	0.002746094
166	0xbd166310	-0.036715567
167	0xbd498123	-0.04919542
168	0x3cf5f59d	0.030024344
169	0x3d3e1f1d	0.04641639
170	0xbd11d666	-0.035604857
171	0x3cfb11db	0.030648163
172	0xbb81b9c1	-0.003958911
173	0x3c6b4569	0.01435981
174	0xbcea3dbe	-0.028593894
175	0xbca6d193	-0.020363605
176	0x3cada306	0.0211959
177	0x3d133903	0.035943042
178	0xbd250779	-0.04029033
179	0xbe2d697e	-0.16934773
180	0xbe28d9a7	-0.16489278
181	0xbe15d21a	-0.14630929
182	0xbda848d2	-0.08217014
183	0xbe4034f9	-0.18770207
184	0xbe46c1b2	-0.19409826
185	0xbe1821db	-0.14856665
186	0xbe3667ee	-0.17813084
187	0xbc387618	-0.0112586245
188	0xbd02fba4	-0.031978264
189	0xbcc2bd34	-0.02377186
190	0xbdd836b8	-0.10557312
191	0x3ce59ff2	0.02803037
192	0xbd777b26	-0.060420178
193	0xbde00655	-0.10938708
194	0xbda71a86	-0.08159356
195	0xbd897131	-0.06711043
196	0xbdbfe8aa	-0.09370549
197	0xbc6299c6	-0.013830608
198	0xbdeade04	-0.11468127
199	0xbda0c3f2	-0.078498736
200	0x3c13bae8	0.00901673
201	0xbc8ec8a3	-0.017429655
202	0xbd926ebb	-0.071500264
203	0xbdc7aa52	-0.09749283
204	0x3c85035b	0.016236952
205	0x3c65067e	0.013978599
206	0xbdcb04b3	-0.09913006
207	0xbe24f970	-0.16110778
208	0xbd80d13b	-0.062899075
209	0xbe4339c4	-0.19065005
210	0xbe24dab1	-0.16099049
211	0xbdc0a5c0	-0.09406614
212	0xbd7f6cdc	-0.062359676
213	0xbe488f6b	-0.1958596
214	0xbdc5b067	-0.09652787
215	0xbe2df776	-0.1698893
216	0xbe050048	-0.12988389
217	0xbe021038	-0.127015
218	0x3c049854	0.0080929585
219	0x3cccface	0.025021937
220	0xba71673c	-0.00092088035
221	0xbc74f5f1	-0.014951215
222	0x3d570010	0.052490294
223	0xbde08398	-0.109625995
224	0xbdbf4cdb	-0.09340831
225	0x3b802d30	0.003911637
226	0xbb3d1a58	-0.0028854813
227	0xbdcd05db	-0.100108825
228	0xbdb7e950	-0.08980048
229	0xbdb04702	-0.08607294
230	0xbd45b9e0	-0.048272967
231	0xbddc9d09	-0.107721396
232	0xbb5358e7	-0.0032249035
233	0xbd743f0e	-0.059630446
234	0xbdc712ad	-0.09720359
235	0xbe477f41	-0.19482137
236	0xbe4cc496	-0.19996867
237	0xbe4b4251	-0.19849516
238	0xbe4f800d	-0.20263691
239	0xbe0c66a8	-0.13711035
240	0xbdedf696	-0.11619298
241	0xbe306d32	-0.17229155
242	0xbe14e9e6	-0.1454235
243	0xbd1de703	-0.038550388
244	0xbdcabbc8	-0.09899098
245	0x3c69a5b5	0.014260699
246	0x3d48d56c	0.04903166
247	0xbd396d2e	-0.045270137
248	0xbd0087b8	-0.03137943
249	0xbc0a192d	-0.008428854
250	0x3d47a181	0.048738007
251	0xbb85bc17	-0.00408126
252	0x3d714538	0.058903903
253	0xbbff23bf	-0.0077862437
254	0x3d1291c8	0.03578356
255	0xbdcde795	-0.100539364
