autoencoder_ddp/autoencoder_rank_0.pth (torch, 843879 bytes, 8 tensors)

encoder.0.weight f4 [128, 784]
000000 18 01 26 bc 26 26 25 bc f2 38 fc 3c 87 a4 8c bc
       -0.010132097 -0.010079896 0.030788872 -0.017168297
000010 ee 91 f4 bc fe 24 87 bc 40 36 a7 3b e5 4c 84 bc
       -0.029854741 -0.016497131 0.0051029027 -0.016149947
000020 40 74 1b 3a 60 73 31 bb 16 21 d8 3c c0 2b 61 bc
       0.00059301034 -0.0027076825 0.026382964 -0.013743341
000030 c8 0d 34 3c cc 63 51 3c 27 d8 81 3d f8 bf 69 3c
       0.010989614 0.012780141 0.06340056 0.01426696
000040 d8 5a 0a 3c bc ff 06 bd 8c 01 94 3c 46 ef 3a bc
       0.00844451 -0.03295873 0.018067144 -0.011409586
000050 05 00 84 bc a0 fd c2 ba 40 22 4d 3a 23 b9 85 bc
       -0.01611329 -0.0014876612 0.0007825233 -0.016323632
000060 20 80 6d bb 3c 6c 3e bc 0c ec f2 bc 80 09 4b bc
       -0.0036239699 -0.011622485 -0.029653572 -0.012392402
000070 74 12 72 3c f5 1b ac bc 2a bf b0 bc 00 a9 d6 bb
       0.014774907 -0.021009425 -0.02157553 -0.006550908
000080 6b d1 39 bc 27 cf fe bc dc 1a f7 bd a8 8a 3c be
       -0.011341433 -0.031104637 -0.1206567 -0.18412268
000090 1e f1 f6 bd a1 d9 76 bd d6 52 90 bc bc 1a 32 bd
       -0.12057708 -0.06026614 -0.017617624 -0.043482527
0000a0 2b 9f de bb 14 d2 23 be cb 46 16 bd a8 5d 5b 3b
       -0.0067938766 -0.15998107 -0.036688607 0.0033472572
0000b0 75 4f 0e be 9b d8 db bd 3f 77 42 bd 07 3e 01 be
       -0.13897498 -0.107346736 -0.047477003 -0.12621318
0000c0 24 58 7c be e6 3e 05 be 2c 18 1b be e3 06 db bd
       -0.24642998 -0.13012275 -0.1514594 -0.10694673
0000d0 28 9a 84 3b fa 79 88 bc a0 05 ba ba 90 1d 94 3b
       0.004046697 -0.016659725 -0.001419235 0.0045201257
0000e0 d0 aa 77 bb 02 4d f4 3c 97 59 ca bd 54 d0 ad bc
       -0.0037791021 0.029821876 -0.09880369 -0.021217503
0000f0 9b 64 4f bd fe b4 43 be db 91 db bd 00 7d 16 be
       -0.050633054 -0.19112012 -0.10721179 -0.14696121
000100 b9 3f c0 bd b7 e1 78 3b d7 62 ab bd 94 86 0d be
       -0.09387154 0.0037976333 -0.083684616 -0.13820869
000110 77 32 30 be 17 dc 36 be da a2 1b be 4d 9b d5 bd
       -0.17206751 -0.17857395 -0.15198842 -0.10430012
000120 62 67 16 be 2c b4 1f be 49 62 60 be f4 94 72 be
       -0.14687875 -0.15596074 -0.21912493 -0.23689634
000130 80 c7 17 be a4 d4 d4 bd ec 8a 4b bd 3c 3c 0d be
       -0.14822197 -0.103921205 -0.049693033 -0.13792509
000140 f4 a9 ac bb 5a 3b 51 3d 03 85 08 3d 5c c1 4c 3c
       -0.0052692834 0.051081993 0.033329975 0.012497272
000150 c0 98 63 3a d0 65 7d 3c 52 f8 f1 bd a7 4c bc bd
       0.00086821243 0.0154661685 -0.118149415 -0.09194308
000160 a7 9d c6 3d 48 96 b8 3d 06 50 03 bd ea 39 b3 bc
       0.096980385 0.09013039 -0.03205874 -0.021878202
000170 f9 00 3c bd 0d f7 24 bd 44 e9 c2 bd 9e f0 33 be
       -0.045899365 -0.04027467 -0.09517148 -0.17572257
000180 2c be e4 bd 51 f5 9b bd eb 85 0f bd cf 5a 83 bd
       -0.11169085 -0.0761515 -0.035039824 -0.06413805
000190 b1 70 ae 3c d1 78 4c bb 86 4b ba 3a 78 4d 2d 3c
       0.02129397 -0.0031199942 0.0014213182 0.010577552
0001a0 f2 18 23 bd a1 b7 e9 bd 0f 4d 2d bd 64 eb 26 bd
       -0.03981871 -0.114119776 -0.042309817 -0.04075183
0001b0 c1 43 a4 ba 8c 07 50 bc 90 fd 8d bc d0 1b 8f bb
       -0.0012532399 -0.012697112 -0.017332822 -0.004367329
0001c0 80 77 80 39 02 22 03 3c 1c ba da bd 53 51 13 bd
       0.00024503097 0.008003714 -0.10680029 -0.03596623
0001d0 82 f4 71 3d 10 62 22 3d c2 fe 7d bc 2a 7b 43 3d
       0.05907107 0.0396443 -0.0155026335 0.04772488
0001e0 b5 e7 7e bb 80 69 3c bd dd 08 aa bd ae 10 db bd
       -0.0038895432 -0.04599905 -0.08302472 -0.10696541
0001f0 ef 1e df bd 40 2e b6 bd e5 c3 7c bd 0c e3 61 bd
       -0.10894572 -0.0889554 -0.061710257 -0.05514817
000200 94 5f 39 3d 08 e4 91 3c d2 ad 7d 3d f3 a7 f6 3d
       0.045257166 0.01780893 0.061933346 0.120437525
000210 0c a1 a7 3d ba 74 83 3d ae 9e 62 bd ef fa 06 bd
       0.08185014 0.06418748 -0.05532711 -0.032954153
000220 37 c6 1b bc 80 0a a2 bb ab 5c b8 bc 7e c6 b8 bd
       -0.009507707 -0.0049450994 -0.022505125 -0.090222344
000230 c0 6d 89 3c 08 78 4b 3c d0 62 94 bc de 63 37 3d
       0.016775966 0.012418754 -0.018113524 0.044772975
000240 e3 00 af 3d a0 c0 0e bc 54 87 5b bd f5 2e f2 bb
       0.08545091 -0.008712918 -0.053595856 -0.0073908516
000250 ad 8c f2 bc 05 e2 b0 bd d3 e5 a3 bd ad d6 ad bd
       -0.029608095 -0.0863686 -0.0800282 -0.08488212
000260 ae 6f 8e bd ec b7 01 bd 12 f5 f2 bc cd e9 3f 3d
       -0.06954895 -0.031669542 -0.029657874 0.04685383
000270 09 e6 a0 3d aa 40 0e 3e 78 c5 21 3e b9 fc 3e 3e
       0.07856376 0.13891855 0.15797985 0.18651094
000280 df 7f 26 3e 30 2d 17 3e df eb 6e 3d c0 a2 5c bd
       0.16259716 0.14763331 0.058330413 -0.053866148
000290 8a a8 27 be 32 7c d2 bc 0a 29 b7 3d dc 73 a3 3c
       -0.16372886 -0.025693987 0.089433745 0.019952707
0002a0 1c c5 29 3c 7d d9 a7 bc fe 4e 6d bd 18 19 1c 3c
       0.010361936 -0.020489449 -0.05793666 0.009527467
0002b0 93 88 5a bd 45 6a 44 bd 2e de 16 3d 95 2f 31 3d
       -0.053352904 -0.04795291 0.03683298 0.04325827
0002c0 95 0d db 3c fb 09 56 bc 2a 1d 44 bc 25 58 46 3d
       0.026739875 -0.013063903 -0.011969844 0.048423905
0002d0 26 3f 39 3d e2 cb 82 3d 32 13 8a 3d 2f 33 a2 3d
       0.04522624 0.06386544 0.067419425 0.07919919
0002e0 e5 98 d9 3d ed 19 bf 3d fb 10 17 3e 54 9e 0b 3e
       0.106248654 0.09331117 0.14752571 0.13634616
0002f0 46 07 33 3e db 1a c6 3d cb 4b be 3d 36 e8 df bc
       0.17483243 0.09673091 0.092918 -0.027332406
000300 e8 a2 e9 bd c3 f2 74 bd 2d 8c d5 bd 7e d5 11 3d
       -0.11408025 -0.059801828 -0.10427127 0.035603993
000310 c7 8e 8a bd 41 14 8e bc 24 69 f8 3c d7 94 57 3c
       -0.06765514 -0.017343642 0.030323572 0.013158045
000320 78 40 a6 bd 6f a4 41 3d 93 ad fe 3d 0b 05 0d 3e
       -0.08117765 0.047275957 0.124354504 0.13771455
000330 d4 4a 13 3e d6 0f 17 3e e5 de 11 3e f7 2f aa 3d
       0.14384013 0.14752135 0.14245184 0.0830993
000340 7c dd b7 3d fc 81 da 3d a2 b5 ec 3d 25 9f a3 3d
       0.08977792 0.10669324 0.11558081 0.07989339
000350 0a 11 cd bb 5d c7 6a bd 2c de 63 3d 54 9d aa 3d
       -0.0062581347 -0.057319034 0.0556318 0.08330789
000360 3a a0 f3 3d 8d 93 17 3e 95 36 8f 3d f8 a9 83 3d
       0.11895795 0.1480238 0.069928326 0.06428903
000370 73 6d b3 bb 98 d0 ba bd 97 87 0a be 60 35 29 bd
       -0.005475694 -0.09121817 -0.13528286 -0.041310668
000380 21 6d 40 bd 33 62 ab bd 0d ab 2a bd 8b 6b e9 bd
       -0.046979073 -0.083683394 -0.041667033 -0.11397465
000390 a0 13 ad bd 99 86 57 3d 1f e1 36 3e 45 9b 60 3e
       -0.08451009 0.052618597 0.17859314 0.2193423
0003a0 ad 8a 8c 3e 9e d1 67 3e 49 9f e0 3d 36 39 fe 3d
       0.2744955 0.22638556 0.10967881 0.12413256
0003b0 c3 e6 01 3e 86 d6 ce 3d b7 1e dc 3d d6 32 31 bd
       0.12685685 0.10099511 0.10748046 -0.04326137
0003c0 08 86 21 be 08 9f 00 be 21 28 91 bc 36 1e bb 3d
       -0.15773785 -0.12560666 -0.01771933 0.09136622
0003d0 81 75 16 3e 70 52 09 3e 8e 28 0a 3e 06 a9 b1 3d
       0.14693262 0.13410354 0.13492033 0.08674817
0003e0 36 fa 98 3d 59 1e 0c bd 20 9b 50 bd a2 61 29 3d
       0.07469599 -0.03420863 -0.05092919 0.041352876
0003f0 3e 04 85 3d a5 6d 01 bd e4 be af bb eb fe c5 bd
       0.0649495 -0.031598706 -0.005363332 -0.09667762

encoder.0.bias f4 [128]
000000 d0 08 a6 3d 32 b0 46 3c 48 8f 9b 3c 66 f2 77 bc
       0.081071496 0.012126969 0.01898922 -0.015133476
000010 b5 a7 08 3c 4a f5 d8 3e ad 34 1b bf c9 4a 65 be
       0.008340766 0.4237464 -0.6062725 -0.2239181
000020 24 54 0c 3f 18 5b 62 3e cf 1b 49 bb 65 4c 44 3e
       0.5481589 0.22105062 -0.0030686741 0.19169767
000030 d5 fc 2a 3c fb c9 60 bc fb ed 20 3e 35 f8 a4 3e
       0.010436256 -0.013720031 0.15715782 0.32220617
000040 9c 28 17 3f 20 17 44 3c 59 23 15 3f e7 b1 e5 3e
       0.5904634 0.011968404 0.5825706 0.4486229
000050 6e 22 b3 3e a0 a6 d4 3e 2d dd 98 bc 3b 33 86 3c
       0.34987205 0.41533375 -0.018660152 0.01638185
000060 6c 71 27 3f 4c c6 22 bd 6c 09 9a 3c 83 6b 61 3c
       0.65407443 -0.039739892 0.01880332 0.013758543
000070 3e 7e 6f 3c f7 d2 ce 3e 13 ed 18 be 0b 4c a7 3e
       0.014617501 0.40395328 -0.14934187 0.32675204
000080 7a 45 7b bc 15 90 6c 3e ab d3 81 3e c7 58 71 be
       -0.015336389 0.23101838 0.25356802 -0.23569022
000090 33 87 3b 3f 3a db 94 be 38 61 a7 bc 03 be 96 b9
       0.7325317 -0.29073507 -0.0204321 -0.000287518
0000a0 01 37 c7 3e 2b 1a 21 bc b8 6f af bd 94 35 4d be
       0.38909152 -0.009832899 -0.085662305 -0.2003997
0000b0 14 8f af 3e fe 66 23 bd 73 df ad bd b8 84 67 bc
       0.34288847 -0.039893143 -0.08489885 -0.014130764
0000c0 cd ae b0 bd 48 a8 f6 be b7 bc be be 8e 64 8d 3c
       -0.086270906 -0.48175263 -0.37253353 0.017259862
0000d0 af 6c e0 3e d8 34 92 bc c5 26 13 bd df 86 23 bc
       0.4383292 -0.017847463 -0.035925645 -0.009980886
0000e0 b2 45 c8 be 94 1b 13 bc 4e 09 7b 3d be 39 4e bc
       -0.39115673 -0.008978743 0.06128817 -0.012587009
0000f0 88 56 bf 3e 74 33 be 3b ba 81 01 3f bb ef 04 3f
       0.37370706 0.0058044735 0.5058857 0.519283
000100 42 32 71 3f 73 94 4c be 17 99 1d bd ae a7 bb bd
       0.9421731 -0.19978504 -0.038476076 -0.09162842
000110 ea cc 03 3c 8f f9 da 3d c2 55 ac 3c 8f 2e a2 3d
       0.008044461 0.10692131 0.021036986 0.079190366
000120 ba fb fa bc da fa 55 be ff a1 2a 3f c6 78 61 3e
       -0.03063761 -0.20896474 0.66653436 0.22018728
000130 47 58 50 3e 61 9b 10 bd 6e 6b 0d 3f 8c 78 20 3c
       0.20346175 -0.03530443 0.5524205 0.009794366
000140 b8 91 a7 b8 e1 bf 35 bd 61 35 08 3e 85 0b 81 be
       -7.990323e-05 -0.044372443 0.13301612 -0.252041
000150 ab d4 24 bd dd 51 9e 3d 6b 98 ac 3e e9 87 4a be
       -0.04024188 0.07730458 0.33710036 -0.19778408
000160 fb 2e a5 3e fb 4e 2b 3f 6f cb 30 3f 0e 42 94 3e
       0.32262406 0.6691739 0.69060415 0.28956646
000170 47 5e e0 bc 4b 25 42 3e de 63 03 bc b3 7c f4 bc
       -0.027388705 0.18959539 -0.008019416 -0.029844617
000180 c3 61 5d be 97 dd 33 bc fe 42 45 be ad 6c 3d be
       -0.21619324 -0.010978124 -0.19263837 -0.18498488
000190 2c f6 e1 3c 93 ef c7 3e 38 cc f6 3e 9f d8 d9 3e
       0.027583204 0.39049968 0.48202682 0.4254808
0001a0 04 57 12 bd a0 d3 43 3f d9 41 bf be 01 ff 6e bb
       -0.035727516 0.7649479 -0.37354925 -0.0036467912
0001b0 20 88 1f be b9 86 89 be d1 ed 85 3c c8 cc 8e 3c
       -0.15579271 -0.26860598 0.016348751 0.017431632
0001c0 2f fc 0b 3e 23 36 d6 bc a5 0e f7 3e d3 65 30 3f
       0.13670419 -0.026148861 0.4825336 0.6890537
0001d0 86 d5 1c bf d1 bd 5b 3b 1a b1 fc be 3d 2a 9e 3e
       -0.6126331 0.0033529887 -0.49353868 0.308916
0001e0 aa c2 5c be f3 d9 a2 3e fe 6f 17 be e1 a6 d7 3c
       -0.21558633 0.31806907 -0.14788815 0.026324691
0001f0 f9 83 07 be 92 16 d1 3e a8 9c 83 3e d6 5a 6f be
       -0.13233937 0.40837532 0.25705457 -0.23374495

encoder.2.weight f4 [32, 128]
000000 ec d9 8f 3e 8b ef 86 3d e7 38 ae bd 0e bd 96 bd
       0.2809595 0.06588658 -0.08506947 -0.07360278
000010 5c a7 9d 3d 05 45 9d bd 76 c6 39 3e 3b 16 f7 3d
       0.07697937 -0.0767918 0.18142113 0.12064787
000020 68 b6 85 3e 0b 79 b4 3d af 47 a4 bc e1 39 39 3d
       0.26115727 0.088121496 -0.020053713 0.045221213
000030 b8 c0 1f 3e 27 b1 29 3d 99 b4 b4 bd c8 25 8c bd
       0.1560086 0.04142871 -0.08823509 -0.06843144
000040 36 f0 1f 3e 84 7c 5e 3e 88 9f be be e5 14 a2 3d
       0.15618977 0.21727186 -0.37231088 0.079141416
000050 38 40 f0 bc 68 ae bd bd 88 3c 28 bd 44 2d 34 3e
       -0.029327497 -0.09261781 -0.041073352 0.17595392
000060 6a c3 c1 bc 1a f6 b0 bd 17 31 46 3b f4 e2 f4 bc
       -0.023652751 -0.0864069 0.0030241662 -0.029893376
000070 e0 26 60 bd ab 24 4a 3d 0e e6 a6 bd 76 d7 07 3e
       -0.054724574 0.049351376 -0.08149348 0.13265786
000080 47 e4 e8 ba d4 46 6c be 9f b3 cb bd 74 c5 6c 3d
       -0.0017768227 -0.23073894 -0.099463694 0.057805493
000090 dc 6a 7a be 44 16 00 be 3f 18 98 bd 3a ce 73 3d
       -0.24454826 -0.12508494 -0.074264996 0.059522845
0000a0 6d e5 52 3e cc b8 c1 bc 92 c5 6e 3d af cf 09 3d
       0.20595331 -0.023647688 0.058293886 0.033645328
0000b0 bf aa dc bd 69 51 39 3d 26 e3 09 3e d8 39 0f bd
       -0.10774755 0.045243654 0.13465557 -0.034967273
0000c0 17 0c 0f 3d 7a e5 1d be 0d 8b ae 3d e4 35 20 3d
       0.03492364 -0.1541957 0.085226156 0.039113894
0000d0 5c c1 fd bc 69 a8 ab bd 83 f0 4b bd 55 85 e8 3b
       -0.03097599 -0.08381731 -0.049789917 0.0070959725
0000e0 4a 15 b8 3d 3c 10 ef 3c 0b cb dd 3d ed d4 d4 3d
       0.089884356 0.029182546 0.10829743 0.10392175
0000f0 bc 41 7f 3d 46 bb 03 be b7 44 1a 3e b9 f5 05 3b
       0.06231855 -0.12864408 0.15065275 0.0020440652
000100 b9 62 78 3e 36 e5 d7 bc 47 cc 71 bd b8 a2 38 3e
       0.2425641 -0.026354413 -0.059032705 0.18030822
000110 d3 ba e5 bc 45 21 2c bd 97 44 85 bc a5 90 43 3d
       -0.028043186 -0.042023916 -0.016268058 0.047745366
000120 8a f5 33 3c d0 20 d1 bd ed ce 71 3e d0 77 25 3e
       0.010983834 -0.102113366 0.23614092 0.16158986
000130 a7 7c 4f 3d b0 d7 a4 3d f6 81 c2 3e f8 b6 f9 3c
       0.050655987 0.080489516 0.37989777 0.030482754
000140 06 a0 83 bd 64 34 64 3c cb 9c bb 3d 56 f4 20 3d
       -0.064270064 0.0139285065 0.09160765 0.039295517
000150 51 3f f1 bc 90 8e b9 bd 0c 7e 2a 3e 2f b2 8e bd
       -0.029449137 -0.09060395 0.16649646 -0.069675796
000160 16 00 ea bd 63 ad bf 3c 77 b1 32 be c1 35 59 be
       -0.11425798 0.023398107 -0.1745051 -0.21211912
000170 16 88 ce bd 5a 2b 20 3e 6b e6 c1 bd 8f ff 3d bc
       -0.1008455 0.15641537 -0.09467777 -0.011596574
000180 98 33 0d 3c 89 b2 9c bd 84 f3 fa 3c 9c 08 0e 3e
       0.008618258 -0.076512404 0.030633695 0.13870472
000190 b6 df ae 3d 22 26 74 3d ab a0 07 bb 9f b3 ef 3c
       0.08538763 0.05960668 -0.002069513 0.029260455
0001a0 a0 b0 a6 bc 40 77 f2 bb ea 5a b9 3c 8d 6e 3d 3d
       -0.020347893 -0.0073994696 0.022626359 0.046248008
0001b0 5a c2 03 be ae b0 2e 3d 24 99 c8 3d a0 ea 41 bd
       -0.12867108 0.042648964 0.09794834 -0.047342896
0001c0 f2 a1 0d 3e 43 43 82 3b d9 aa 33 3e 30 37 21 3e
       0.13831308 0.0039753034 0.17545642 0.15743709
0001d0 97 e3 02 be 9f 2a d6 bc 2b 09 0d 3e 84 eb 93 3d
       -0.12782131 -0.02614337 0.13773029 0.072226554
0001e0 18 90 0e be d2 47 8d be 20 16 1b 3e 52 83 83 bd
       -0.13922155 -0.27593857 0.15145159 -0.06421532
0001f0 83 5c d8 3d 86 f6 97 bc 2a d5 81 3e 75 19 c1 bd
       0.1056452 -0.018550169 0.25357944 -0.09428684
000200 79 f9 18 bd 58 30 44 3d 04 5d 2a 3d 3e d8 a0 bd
       -0.03734729 0.047897667 0.041592613 -0.07853745
000210 1c 88 0a 3d 1c e6 76 3d e9 cc 92 3c 12 8d 64 3d
       0.03382121 0.060278043 0.017919974 0.055798598
000220 f7 ee 44 3d 15 dc 51 bd ce 21 38 3d dc be c5 bd
       0.048079457 -0.051235277 0.044954114 -0.09655544
000230 34 91 bc 3c 94 b1 aa bc bb 19 a2 bd cc b8 9e bd
       0.023018457 -0.020836629 -0.07915064 -0.07750091
000240 f1 93 1a 3d 4b 1a 0f bd 5a 3d 8e bd 28 6b be bd
       0.037738744 -0.034937184 -0.06945296 -0.09297782
000250 62 34 16 3c 42 0f 11 3d e8 99 b4 bc b0 2b 4b 3d
       0.0091677625 0.03541494 -0.022046044 0.04960221
000260 dc a0 5b 3d 3a 2d 3a bd 21 25 21 bd a5 e2 a9 bd
       0.053620204 -0.045453288 -0.03934205 -0.08295182
000270 12 9a e2 bc 87 ed 81 3d eb 2f c0 bc 30 cf 82 bd
       -0.027661357 0.06344133 -0.023460349 -0.06387174
000280 e9 d5 aa 3d 77 dc 0e bd 90 e0 d1 3c 88 ab 15 bd
       0.083415814 -0.03487822 0.025619775 -0.036540538
000290 6a ef a7 bd bf e7 8a bd bf 32 89 3b 4d ef 45 3c
       -0.081999615 -0.06782483 0.0041869576 0.0120809795
0002a0 7e d9 1c bd 32 b3 9a 3c 36 ec 9a bd d2 00 2d 3c
       -0.038293354 0.018884275 -0.07564585 0.010559278
0002b0 e1 18 82 bd a4 a9 b8 bd 13 b8 f9 bc a8 a6 69 bd
       -0.063524015 -0.090167314 -0.030483281 -0.0570437
0002c0 97 5a 0e bd e0 bc 82 3d e4 97 22 bd e5 07 87 3d
       -0.034754362 0.06383681 -0.039695635 0.06593303
0002d0 5d 66 86 3d c1 21 10 3d 35 75 07 bd b2 54 c4 bd
       0.06562493 0.03518844 -0.03307076 -0.09586467
0002e0 68 9d a7 bc b2 b7 35 bd a6 75 cc bd e3 e2 89 bd
       -0.0204608 -0.04436464 -0.09983377 -0.06732728
0002f0 a2 b4 8d bd c5 bc 1c bd a9 25 0a 3c 8b 21 fb bc
       -0.069192186 -0.038265962 0.00843183 -0.030655643
000300 5a 57 11 3d 88 ba c2 bd 51 0b 62 3d 80 af 16 bd
       0.035483696 -0.09508234 0.055186573 -0.036788464
000310 7f 0d 6e 3d 42 88 c4 3c 9f d2 56 bd b0 43 c9 bc
       0.05811834 0.023990754 -0.052446958 -0.024568409
000320 fc 98 88 bb d7 dc 4d 3d bc fc 9c bd d5 da cd bc
       -0.004168628 0.050259437 -0.07665393 -0.025128761
000330 80 c1 2d bd 5c dc bf ba ae b9 56 bc 95 5e 9d 3d
       -0.042420864 -0.0014637816 -0.013105793 0.07684056
000340 2a 0d bc bd 0a 81 0e bc 45 74 7e ba e3 c3 66 bd
       -0.09182198 -0.0086977575 -0.00097066566 -0.056339156
000350 79 f0 89 3c b5 09 23 bd ba 3a 0b 3d ed 0d 99 bd
       0.0168383 -0.03980418 0.033991553 -0.07473359
000360 44 09 78 bc fa e9 4b bb 0e e0 4d bd 7f d3 18 3d
       -0.015138928 -0.0031114803 -0.050262503 0.037311073
000370 86 fc 81 3d ad 33 35 bc 06 a1 97 bd 28 a4 8b 3d
       0.06346993 -0.011059684 -0.0740376 0.0681842
000380 72 81 13 3d c0 44 80 3d d1 22 77 bb 34 a7 db bd
       0.03601212 0.06263113 -0.0037709961 -0.10725251
000390 f3 5c 33 bd cd b6 ae bd 9a dc 87 3d c5 f0 7b bd
       -0.043789815 -0.0853096 0.06633873 -0.061508913
0003a0 a5 a2 08 3d 16 cb 23 3d 0a 52 99 3d 7d 32 95 3d
       0.033358235 0.0399886 0.07486351 0.072850205
0003b0 87 89 b4 bd 4c f8 19 bd ce b2 92 3d d6 8a 0f 3c
       -0.08815294 -0.03759031 0.071630105 0.008761128
0003c0 5a 3e 67 3b 34 25 6c 3c ba 07 ce 3c bc 14 de 3c
       0.0035284967 0.014413167 0.025150169 0.027109496
0003d0 a4 57 6f bd 62 27 ce 3c 89 42 3c 3d 90 78 b5 bd
       -0.05843319 0.025165264 0.04596189 -0.08860886
0003e0 4e 3c 3a bd 93 c4 92 bd 08 dd 5f 3d 61 b1 53 3d
       -0.045467667 -0.071664 0.05465415 0.051682834
0003f0 0e 17 bb bc 53 a2 95 3d e4 be f4 3c 76 4f a6 bd
       -0.022838142 0.073063515 0.02987618 -0.08120625

encoder.2.bias f4 [32]
000000 1c 73 ce 3e 71 4c 7e bd ed d8 cf 3c 29 cf 97 3e
       0.40322196 -0.06208462 0.025371993 0.29650238
000010 f2 0a 52 bd 9b a2 c2 bd 6c f3 a8 bd 6e 3e 10 3e
       -0.05127997 -0.09503671 -0.08249554 0.14086315
000020 21 8b 39 3f 31 77 16 3d 06 28 82 bd cc 56 ec bb
       0.7247792 0.036734764 -0.0635529 -0.0072124954
000030 40 c1 23 3f 27 d0 8a be 1f 42 b5 be c3 15 4e bd
       0.6396675 -0.27111933 -0.3540201 -0.050313722
000040 50 3b 39 3f 46 7e b2 3e c7 39 bc bd 9a d6 4e 3e
       0.7235613 0.34861964 -0.09190708 0.20199051
000050 a9 47 ea 3e 2f d0 93 bd cc 2d 03 3f a9 a3 93 3e
       0.45757797 -0.07217442 0.51241755 0.288358
000060 31 45 66 bc 2a 36 57 be 4c c9 61 be be e6 24 be
       -0.014054582 -0.21016756 -0.22049445 -0.16103646
000070 cd f9 ac 3d a7 80 0f 3e a0 40 20 bd 3b ba 20 bd
       0.08446083 0.1401392 -0.03912413 -0.039240103

decoder.0.weight f4 [128, 32]
000000 40 a6 2a 3e a3 70 c7 bd 86 f5 80 bd c5 b8 67 be
       0.16664982 -0.097382806 -0.0629683 -0.22629078
000010 62 6b 70 be da 90 e9 3c 80 c1 18 3e 3c bd 40 be
       -0.23478463 0.028511453 0.14917564 -0.18822187
000020 9d 99 0f 3e c0 51 18 be 91 81 02 be 90 c3 bd 3d
       0.14023443 -0.14874935 -0.12744738 0.09265816
000030 9d 2c 8e 3e df 87 dc bc 2e b7 4c bb 37 68 11 3e
       0.27768412 -0.026920257 -0.0031237113 0.14199911
000040 89 c7 cf bd b7 11 91 3e c4 56 0c be 66 4e 61 bd
       -0.1014548 0.28333828 -0.13704973 -0.055006407
000050 16 70 63 3e b5 07 a9 3d e5 bc b9 bd 10 0a 92 3d
       0.22210726 0.08253423 -0.09069232 0.071308255
000060 06 27 01 3e 93 41 33 3e c6 fd 6d be 88 36 6e 3d
       0.12612543 0.17505483 -0.23241338 0.058157474
000070 c6 94 2f bd 07 00 c6 bb 29 ef 32 be bb 8e 2b 3e
       -0.04286649 -0.0060424837 -0.17474045 0.16753666
000080 67 51 1e be ec 5e 09 3e ec f7 00 bd 7d 36 28 be
       -0.1546074 0.13415116 -0.031486437 -0.16427036
000090 49 2b 9c bc cd 96 af 3d cf 3d 2e 3e e5 c5 4b 3e
       -0.019063609 0.08573685 0.17015766 0.1989971
0000a0 85 1f 02 be 95 12 87 3d 30 49 af bd 4c 49 3c 3d
       -0.12707336 0.06595341 -0.08558881 0.04596834
0000b0 d5 35 f8 bd ba db 1d 3d 74 22 47 3e df 3b 69 3d
       -0.12119643 0.038539626 0.19446737 0.056941863
0000c0 56 62 06 be b4 60 85 3e b3 70 38 be b4 5e 4f bd
       -0.1312345 0.2605034 -0.18011741 -0.050627425
0000d0 a4 cc 81 3e c2 df e7 bd f9 13 2c 3e 74 66 6a 3c
       0.2535144 -0.11321975 0.16804494 0.014306653
0000e0 48 5a 31 be 7d 6d 86 be a5 3d 94 bd 07 ab 33 3d
       -0.17319596 -0.26255408 -0.0723832 0.043864276
0000f0 6b fa 98 bc fb 62 44 3c 99 43 97 3d 40 b3 16 bd
       -0.018674096 0.011986489 0.0738594 -0.03679204
000100 a5 e1 04 be 88 89 11 3e 82 af ba 3d 36 b0 36 3c
       -0.12976702 0.1421262 0.09115507 0.01115041
000110 19 21 0a bd e0 93 c3 3d 7a 38 ce bd 8c 9a 45 bd
       -0.03372297 0.09549689 -0.10069366 -0.04824309
000120 99 b4 c8 bd 9d b3 f8 bd 65 4e 04 be 13 48 fb bd
       -0.09800071 -0.121436335 -0.1292053 -0.122696064
000130 e1 04 0f 3d 0f 2d 95 be a5 e0 d0 3d 9f 0c aa 3d
       0.034916762 -0.2913594 0.101990975 0.083031885
000140 d4 18 16 3e d3 86 b1 3c 46 3e 1d 3e 7b eb e4 3c
       0.14657909 0.021670735 0.15355787 0.027944317
000150 53 84 ba 3d a5 e7 89 3d 3f 04 06 3e 31 4c a6 bd
       0.0910727 0.06733636 0.13087557 -0.08120001
000160 05 ed 1b be b0 a7 eb 3d 5e f1 e1 3d 91 85 d2 3b
       -0.15227135 0.11506593 0.11032365 0.0064246138
000170 6a 1a c5 3d 82 a5 de bd 7b 58 02 3e e1 db 57 3e
       0.09624179 -0.10871412 0.12729065 0.21079971
000180 28 1f 2f 3e 56 e9 a8 3c 1a 93 41 bd ed b6 82 3e
       0.17101729 0.020619076 -0.047259428 0.25530186
000190 7e 2d ea bd 11 02 10 3e 3e 59 a6 3d b3 3f 1a 3e
       -0.11434458 0.14063288 0.0812249 0.15063362
0001a0 e3 f4 24 bc 21 52 e1 bd c6 ed 8f bd 20 ce 98 39
       -0.010068151 -0.11001993 -0.070277736 0.00029145274
0001b0 81 1e 0d 3d df 18 f1 bd 5c 7e 27 3e ba bd be 3d
       0.03445292 -0.11772322 0.16356796 0.09313531
0001c0 44 db 0f bd bb 0f 33 be 32 1a 07 3d 5f 4b e3 b9
       -0.035121217 -0.1748647 0.032983966 -0.0004335297
0001d0 de df 77 3e 4f 26 d9 bc fc 73 a3 bc 1e 8a 4b be
       0.24206492 -0.026507525 -0.019952767 -0.19876906
0001e0 89 43 8a bd 61 90 37 3e 27 b8 f9 bd 24 30 00 be
       -0.067511626 0.1792617 -0.121933274 -0.12518364
0001f0 a6 04 30 3e a3 b4 d2 3d ea 48 0d be 9c e3 79 be
       0.17189273 0.1028836 -0.13797346 -0.24403232
000200 da ff 0f 3e 76 46 00 3e 56 08 52 bd d1 54 2c 3d
       0.14062443 0.12526879 -0.05127748 0.042073075
000210 75 79 50 3d 99 75 08 be 27 b0 24 3e 9e 54 c8 3d
       0.05089708 -0.1332611 0.16082822 0.097817644
000220 88 49 53 be 6f 48 22 bd d7 54 8a 3e ac c3 86 bd
       -0.20633519 -0.03961986 0.27017853 -0.0658029
000230 cc f9 8d 3e 23 d8 45 bd 0e cd 46 bd da e6 f9 3d
       0.27729642 -0.048301827 -0.0485354 0.122022346
000240 ea fd 33 be 37 4d 1e 3d 84 50 0d be 7b d5 70 3e
       -0.1757733 0.038647857 -0.13800246 0.23518936
000250 a2 be 2d be ea 8f 06 3d f4 24 db 3c 85 92 4f be
       -0.16967252 0.03285209 0.026751019 -0.20270737
000260 c0 73 1f 3d 68 99 4e bd f1 30 4c be 70 ef cc bc
       0.038928747 -0.05043927 -0.19940545 -0.025016516
000270 a6 70 52 be 37 df ac 3e 2e d3 2f 3d f6 f4 4c be
       -0.20550784 0.3376405 0.042926006 -0.2001532
000280 06 9d 88 3d ec a8 82 3c 66 62 89 3d a5 27 af 3d
       0.06670575 0.015949689 0.06708221 0.085524835
000290 ae 2a 54 3d 6b e6 14 3d e1 b8 db 3d 0f 6e 03 3e
       0.051798515 0.036352556 0.10728622 0.12834953
0002a0 4d 12 11 3d 0c cd 86 bd ec 30 a8 3d ff fd fd 3d
       0.035417844 -0.06582078 0.08212456 0.124019615
0002b0 ea 44 3c 3e d1 c6 5a be f8 ed 2e bd 5d a1 29 3e
       0.18385664 -0.21364905 -0.042707413 0.16565461
0002c0 47 5d 30 be 2f c9 61 be b5 bc 97 3d d3 bf f8 bd
       -0.17223082 -0.22049402 0.0740904 -0.121459626
0002d0 32 da 86 3e b6 30 04 3e ff 00 cf 3d 93 57 e7 3a
       0.26338345 0.12909207 0.10107612 0.001765
0002e0 6c 07 23 3e 5f 11 ba 3d 6a 08 b1 3d 9f a3 78 be
       0.159208 0.090853445 0.08644183 -0.24281166
0002f0 32 e5 0b be be 2c c6 3c 03 27 19 3e 90 dd a4 3d
       -0.1366165 0.024191257 0.14956288 0.08050072
000300 80 7d 40 be 9a 87 05 be a6 e0 aa bd 51 42 43 3d
       -0.18797874 -0.13040009 -0.083436295 0.047670666
000310 43 b4 34 3e 0c 08 4e bd 12 af 07 be 31 a4 03 3d
       0.1764689 -0.050300643 -0.13250378 0.032139007
000320 07 77 63 bd f8 11 8b bc e9 ae 88 bd 17 53 cc bc
       -0.055533435 -0.016976342 -0.066739865 -0.024941964
000330 c4 f0 5d 3e 81 d8 47 3e e7 8d a0 3d 8e f2 21 3e
       0.21673876 0.19516183 0.07839566 0.15815184
000340 6f 70 ea 3d 64 d0 5f 3d 89 c5 12 be 3c 1a 09 be
       0.11447226 0.054642096 -0.14333166 -0.13388914
000350 17 3f 3d 3e 0a 59 4d 3d b9 2e 23 bd 95 46 04 3d
       0.18481098 0.050133742 -0.03983948 0.032293875
000360 2d 75 17 3e 26 1a b3 3d 98 4d 50 be b4 a0 21 3d
       0.14790793 0.08745222 -0.203421 0.0394599
000370 11 1b 90 3d 77 a2 29 bd e5 25 d3 bd ab e3 23 3e
       0.070364125 -0.041414704 -0.10309962 0.16004817
000380 c1 f5 a2 3c 40 dc 58 3b 48 33 8e 3c 78 bd 33 be
       0.019892575 0.0033090264 0.017358437 -0.17552745
000390 92 dc 68 3e 7a 1c 6b be 25 14 36 bd 4b a7 8e bd
       0.22740391 -0.22960082 -0.044452805 -0.06965502
0003a0 d7 a4 05 bd 96 c6 ea bd 37 ca 76 bc 86 60 a8 3d
       -0.032627907 -0.114636585 -0.01506286 0.082215354
0003b0 f2 a1 5a bc e4 9e c6 bd 90 8e 42 3e 45 d9 82 bd
       -0.013344275 -0.09698275 0.18999696 -0.06389097
0003c0 b0 1e 07 be 02 fd 4a 3e 87 da 8a bd 58 2d 3f 3e
       -0.131953 0.19823077 -0.06779962 0.18669641
0003d0 d8 d4 b7 3d d2 63 56 bc 5f 09 a2 bd 0d 6f ff 3d
       0.089761436 -0.013085322 -0.07911944 0.12472353
0003e0 b9 83 00 be 79 e3 fb bd 5c e0 28 3e 53 46 37 be
       -0.12550248 -0.12299246 0.16491836 -0.1789792
0003f0 50 75 d1 3d d2 92 94 3e 7a 8a 90 3e 13 36 98 3d
       0.10227454 0.29018265 0.2823065 0.07432189

decoder.0.bias f4 [128]
000000 3c 47 ce 3e 3f 67 ce bd fd 80 e5 3e 13 e9 44 3e
       0.40288723 -0.100782864 0.44824973 0.19229536
000010 44 05 18 3f 22 66 30 3d 1a c5 3f be de 2e 2e be
       0.59383035 0.04306615 -0.18727532 -0.17010066
000020 b9 54 c5 bb 99 d3 5f bd 01 22 23 bf 80 62 d9 3d
       -0.0060220626 -0.054645155 -0.6372376 0.106144905
000030 b0 5a 05 3e 48 52 dd 3c a8 86 1c 3e 40 b3 aa be
       0.13022876 0.027016774 0.15285742 -0.33339882
000040 d2 06 1c 3e d3 89 20 3f ff a7 17 be af 12 17 3e
       0.15236977 0.62710303 -0.14810179 0.14753221
000050 0b 63 8c 3e de 05 21 bf f5 78 80 3e 1a 99 bf 3d
       0.27419314 -0.6289958 0.25092283 0.09355374
000060 70 dd 0c be ce 7a c2 3e 41 4e ad be 3d 07 a5 3e
       -0.13756347 0.37984318 -0.33848765 0.32232085
000070 a0 79 85 3d d8 57 17 bf b8 74 7d 3d 76 38 4b bf
       0.06517339 -0.59118414 0.06187889 -0.7938303
000080 9f 90 79 3e 20 fd 49 3e 0c 41 52 3f 37 9b 9b 3d
       0.24371575 0.19725466 0.82130504 0.07597964
000090 04 2c 8e 3e 7a 37 9a 3e 6d 6c 3d bf 8d 98 4b be
       0.27767956 0.3012045 -0.7399357 -0.19882412
0000a0 70 cb 09 bf 55 82 9c 3d 08 d7 b8 3e 61 ef d9 3e
       -0.53826046 0.07642046 0.36101556 0.42565444
0000b0 fa 26 38 3e 96 5a 10 3e e9 25 08 be d3 4f b6 3e
       0.17983618 0.14097056 -0.13295712 0.35607776
0000c0 f3 dd c6 3d 68 3f 85 3e a9 44 8d be cf 48 ce 3e
       0.09710302 0.26024938 -0.27591446 0.40289924
0000d0 ec 49 83 be 89 8d 21 3e 7f 8d 7b 3e 3a ca 46 3e
       -0.25642335 0.15776648 0.24565695 0.19413081
0000e0 fa 9b 2f bf 8d 5b 0c 3f 2a 50 36 3f d7 e1 0f 3e
       -0.68597376 0.54827195 0.7121607 0.14050995
0000f0 07 58 6c bc 3a 9a b9 3d 99 1f af be 99 d8 28 3e
       -0.014425284 0.090626195 -0.34203795 0.16488875
000100 c9 89 1f 3e 2c d6 5b 3d bc 2e 30 3e a1 a6 67 bd
       0.15579905 0.053671047 0.17205328 -0.056555394
000110 c5 64 d5 3e aa 1d 30 be e8 f7 2c bd 10 d0 4a 3e
       0.41678444 -0.17198816 -0.04222861 0.19805932
000120 f7 1b ff 3e 20 b0 08 3f 5e c3 c7 3e 22 6d 16 3f
       0.49826023 0.53393745 0.3901624 0.58760273
000130 52 20 e3 3e c3 88 0f bd 0e ea 2d 3e 80 12 d6 3d
       0.44360596 -0.035042536 0.16983816 0.10452747
000140 e2 12 fc bd cf 64 06 3e 25 7c 08 3f fc 6e fa 3e
       -0.12308289 0.13124393 0.5331443 0.489128
000150 e0 58 51 bc f8 77 34 be 54 2a a6 3e 65 e6 10 3f
       -0.012777537 -0.1762389 0.3245417 0.56601554
000160 f3 39 99 3e 07 9f c4 3e 1d 2e 35 3f 7b 51 51 3e
       0.29927024 0.38402578 0.7077349 0.20441239
000170 26 1f c2 3e ac b5 25 bf 82 03 2c 3e f5 01 ca 3d
       0.3791439 -0.64730334 0.16798213 0.098636545
000180 e8 00 f1 3d e4 12 0e 3f 9b 63 7c 3e e3 e3 d6 ba
       0.11767751 0.55497575 0.24647371 -0.001639482
000190 76 2e a9 be db 2a 0e 3f d2 b8 bf 3e ca b3 c2 3e
       -0.3304326 0.5553414 0.37445694 0.38027793
0001a0 e8 64 50 be e8 fd 0f 3e 45 9a 14 bf 3f 3d 67 3e
       -0.20350993 0.14061701 -0.58047897 0.22581957
0001b0 70 b3 e4 3d 3b 77 89 3e c4 97 ec be fd 2c 7d 3d
       0.111670375 0.26848778 -0.46209538 0.061810482
0001c0 d2 bd 83 3e 83 9f 1c bf 37 eb ad 3e 04 2d c6 3d
       0.2573076 -0.61180896 0.33968517 0.09676555
0001d0 fa 5b 0e be 87 b7 00 3f 90 59 81 3e 7b 52 3a be
       -0.13902274 0.5028004 0.25263643 -0.18195526
0001e0 1b 45 cd 3e 6b 42 e5 3e 5f 80 18 bf 20 c6 d2 bd
       0.40091786 0.44777235 -0.5957088 -0.102916956
0001f0 65 85 50 3c df 5a 82 3e 90 e8 a4 3c cc 86 2a 3e
       0.012727116 0.25459954 0.020130426 0.16652983

decoder.2.weight f4 [784, 128]
000000 fd 3b 57 bd 98 d3 49 3b 5b 3e 7f bd 35 db 08 3d
       -0.052547444 0.0030796286 -0.062315326 0.033412177
000010 fd 21 f0 bd 7a dc a0 bd 21 c3 93 bd c1 b3 f8 3a
       -0.11725233 -0.078545526 -0.07214952 0.0018974469
000020 b4 c6 40 bc f4 84 d1 bd dc ac 37 be 07 b6 19 bd
       -0.0117661245 -0.10230437 -0.17937034 -0.03752711
000030 46 fa 37 bd 8b d7 53 3b 4c 29 7c 3d 1f 96 88 bd
       -0.044916414 0.0032324519 0.06156282 -0.06669258
000040 4b 93 4a bd b6 b0 0e bd 2b 4f 47 bd b9 ae 5b 3d
       -0.049456876 -0.034836493 -0.048659485 0.053633425
000050 9f f2 12 bd 2a 38 bc bd df 39 bf bd 66 f5 6b 3d
       -0.035875913 -0.091904 -0.0933721 0.057607077
000060 f6 e3 b2 bb 3d 68 e9 bb 9c 4b 83 bb bf 80 e0 3a
       -0.005459304 -0.007123022 -0.004006816 0.0017128213
000070 61 d9 5c bd 28 34 56 3d 45 74 ce 3c b2 0c da bd
       -0.053918246 0.052295834 0.025201926 -0.10646953
000080 f2 26 2c be 49 8f c3 bd fe 49 58 bd 86 f0 6f 3d
       -0.16811731 -0.09548814 -0.05280494 0.05857899
000090 b8 10 4c 3d 93 be cd bd 21 bd a4 3c 2c 59 52 be
       0.04982063 -0.10046115 0.020109715 -0.20541829
0000a0 11 c6 5d 3c d9 a2 24 3d b1 46 15 bc d3 a9 d1 bd
       0.013535992 0.040194366 -0.009111092 -0.102374695
0000b0 2c 5d b0 bd a5 35 ca bd be 2f cf bc d7 09 89 bd
       -0.08611521 -0.09873513 -0.02529132 -0.0669133
0000c0 ca 4c 16 be 21 9f e3 3c 57 1d 57 be 2e 06 66 bd
       -0.1467773 0.02778584 -0.21007286 -0.056158237
0000d0 af 76 21 3d d4 f8 29 3d f4 30 d9 bd d5 ca bb 3b
       0.039419826 0.041497067 -0.1060504 0.0057309666
0000e0 fe 93 e0 bd db 48 cd 3b d1 c0 83 bd ec c8 3b bd
       -0.10965727 0.0062647886 -0.06433261 -0.04584591
0000f0 9d e5 ff 3b 96 a5 d2 bd 5c 77 5e bd f1 ae 11 bd
       0.0078093545 -0.10285489 -0.05431305 -0.035567228
000100 c2 a9 8a bd a6 4a 6d 3a e7 ea e9 bd e8 76 00 be
       -0.0677066 0.0009051956 -0.11421757 -0.12545359
000110 f7 2e 64 bd 16 0e 78 bd 91 4c 50 bd f6 a6 94 bd
       -0.05570885 -0.06056031 -0.05085427 -0.07258408
000120 b5 4a 85 3c 55 53 89 3d ea f1 37 be b6 dd 81 bd
       0.016270975 0.067053474 -0.17963377 -0.06341116
000130 66 89 51 3d af c8 6a 3d 05 12 d8 bc 10 a3 cb bd
       0.051156424 0.057320293 -0.02637578 -0.09943211
000140 c3 f7 93 3d 9f 24 48 bd fb d4 3b bd a4 b7 4c bd
       0.07224991 -0.04886305 -0.04585741 -0.04997982
000150 5c 56 fb 3c 9e 95 75 bd 72 25 d7 bd 86 d0 29 be
       0.030680828 -0.05995714 -0.10505189 -0.16583452
000160 26 ef 23 bc d2 6e 1f 3d 90 5c 80 3d 0c e6 30 bd
       -0.010005748 0.038924046 0.06267655 -0.04318814
000170 3a 45 c5 bc 8b 3c 6b bd a6 73 80 3c 5c 15 c7 bd
       -0.024080861 -0.057430785 0.015680145 -0.09720871
000180 34 ea 2e bd 47 3f ae bc 02 5a 6c 3d c6 72 a3 bc
       -0.042703822 -0.021270407 0.057703026 -0.01995219
000190 d0 86 2c bd 38 23 00 bc 31 f2 98 bd 54 cc 61 bd
       -0.042120755 -0.007820897 -0.07468069 -0.055126503
0001a0 c0 fb 31 be d8 31 41 3d b9 b1 2d bd 9e ba a9 bc
       -0.17381191 0.047166675 -0.042405818 -0.020718869
0001b0 5b 5d 99 bd d8 08 2d 3d 18 50 ae 3c 3d c9 2d 3c
       -0.07488509 0.042244762 0.021278426 0.010607061
0001c0 09 7b f4 bc 39 09 dd bd 2a 6c bc bd 98 e3 ba bd
       -0.029843824 -0.10792775 -0.09200318 -0.09125441
0001d0 8a 05 cf bc 8f b6 46 be 48 3f 69 bd f9 30 cb bd
       -0.025271196 -0.19405578 -0.056945115 -0.0992145
0001e0 6f 0f 71 3d dc 68 75 3d 12 95 a9 bd 5f 80 3f 3c
       0.05885261 0.059914455 -0.08280386 0.011688321
0001f0 a6 60 82 bd c2 13 5b 3d 97 7a 86 bd 08 97 ad bd
       -0.063660905 0.05348564 -0.06566351 -0.084760725
000200 e1 82 72 bd 9d ef 14 3d ff 89 84 3c 4d 26 ac bd
       -0.059206847 0.036361326 0.016179083 -0.08405743
000210 9f 40 af bd 9a 80 8a bd 57 77 bb bd ba 6f 93 bd
       -0.08557247 -0.0676281 -0.09153622 -0.071990445
000220 a9 8d 1d bd e3 2d cc bd f1 c1 ed bd 0f 16 92 bd
       -0.038465176 -0.0996969 -0.11609257 -0.071331136
000230 b7 12 df bd a4 61 f3 3c 07 92 33 3d 27 a2 ae bc
       -0.108922414 0.029709645 0.043840434 -0.021317555
000240 b5 8e cd bd 2f 0e 12 bd a5 6e ab bc d1 bf de bd
       -0.10036985 -0.035658058 -0.020926783 -0.1087643
000250 06 22 bb bd 68 7d 09 be 70 3d 8b 3c 37 79 6a bd
       -0.09137349 -0.13426745 0.01699707 -0.057244506
000260 d1 6c b8 ba de c4 95 bd be 2e a1 bc f9 55 64 bd
       -0.0014070516 -0.0731294 -0.019675609 -0.055746052
000270 c5 4f 16 3d 15 54 c7 bd 22 ca dc bc f0 f2 a0 bd
       0.036697168 -0.09732834 -0.026951853 -0.07858837
000280 f5 e6 11 be ba 38 1f 3d 7c 0a 7b 3d a0 af d0 bd
       -0.1424826 0.038872458 0.061289296 -0.10189748
000290 bb e3 9c bd d5 e8 87 bd d9 16 2f 3d 45 56 35 be
       -0.07660624 -0.06636206 0.0427464 -0.1770869
0002a0 0f c2 1b bd c7 a9 3b bc e5 a8 cd bd e8 6e 64 bd
       -0.038026866 -0.011454052 -0.1004198 -0.05576983
0002b0 b3 3d bc bd 3f 3c 66 bd ee 33 b8 bc 6e 88 55 bd
       -0.09191456 -0.0562098 -0.0224857 -0.052132063
0002c0 94 72 be bd e9 c1 2a bd 85 7f fc bd 27 a4 15 bc
       -0.09299198 -0.041688833 -0.1232901 -0.009133375
0002d0 11 38 c8 bb 18 e9 53 3d f3 f0 7f bd 29 3a 0f bc
       -0.0061101993 0.051735967 -0.062485646 -0.008741894
0002e0 c1 f0 33 bd 91 ae 0b 3d cf e8 a9 bd c6 e5 66 3d
       -0.043930773 0.034102026 -0.08296358 0.056371473
0002f0 91 96 af bd 4a 7b e8 bc eb c2 dd bd 2d dc 45 bd
       -0.0857364 -0.028379101 -0.10828193 -0.04830568
000300 ce 36 29 3d de 9c 0d 3d 62 b2 2e 3d 86 29 52 bd
       0.04131203 0.03457343 0.042650588 -0.05130913
000310 18 90 0e be cd 0c 51 bd 58 f5 0c bc 26 d8 30 3d
       -0.13922155 -0.0510376 -0.008603416 0.043174885
000320 91 2a 6d 3d c5 dd 44 3d 9c f5 39 be 8f e7 40 3d
       0.057901923 0.04806306 -0.18160099 0.04709583
000330 5b 90 63 bd 06 66 cc bd 2d fa 8a bd 56 17 eb bd
       -0.05555759 -0.09980397 -0.067859985 -0.1147906
000340 69 9d 8b 3d ea f6 0b bd fd 05 0f bd cc cd e2 bd
       0.06817133 -0.034171022 -0.03491782 -0.11074409
000350 dd 1d a4 bd 9e 09 6a 3c f8 d7 03 bc 2b 32 2c be
       -0.080135085 0.0142845195 -0.008047096 -0.16816013
000360 3a 70 d0 bc 48 61 0e 3d 69 50 30 bc d9 2e dc 3b
       -0.025444139 0.034760743 -0.010761359 0.006719452
000370 8f e0 b6 bd 06 5d 4d 3d 0b 20 2b bd 67 18 83 bc
       -0.0892955 0.050137542 -0.041778605 -0.016002847
000380 b0 f0 5b bd a8 77 fe bd e1 ee 0c 3d c6 74 11 3c
       -0.053696334 -0.12425166 0.0344075 0.008877939
000390 25 4d dc bd 7d 32 8c 3d 6f 18 2e bd 04 41 b7 bd
       -0.10756902 0.068455674 -0.04250377 -0.089479476
0003a0 ca 94 32 be 10 b9 91 bc 07 8c a9 bd 1c 93 e8 bc
       -0.17439571 -0.01778844 -0.08278661 -0.02839046
0003b0 1b 7e 49 bc 7f 96 16 bd 42 90 41 3d 0b 91 77 ba
       -0.012298132 -0.036764618 0.047256716 -0.00094439153
0003c0 3c 9d a3 bd 5c ba 6f bc cc 90 b5 bd 59 31 0b bd
       -0.079889745 -0.014631834 -0.088655084 -0.03398261
0003d0 ac 8a 67 bd ec 62 30 be 9a c0 9e 3c 20 06 eb bd
       -0.056528732 -0.17225236 0.019378949 -0.114757776
0003e0 30 54 a5 bc cf 58 df bc 52 4f 26 bd 48 8f 4b bd
       -0.020181745 -0.027264027 -0.04060299 -0.04969719
0003f0 51 b2 37 bd 1c 30 0e 3d de bb 06 be ca 97 8d bc
       -0.04484779 0.03471385 -0.13157603 -0.017284293

decoder.2.bias f4 [784]
000000 54 c5 ce bd bb b3 45 bc 24 49 aa bb 79 bf 4c 3d
       -0.10096231 -0.012066777 -0.0051967073 0.04998729
000010 62 4d 9a bd c8 df 21 3d 92 28 b0 bd 51 f7 76 bc
       -0.07534291 0.039520055 -0.08601488 -0.015073613
000020 50 4e 64 3d 7f bb a8 bd 34 96 a5 bd 6f 85 33 bd
       0.055738747 -0.08238887 -0.080852896 -0.043828424
000030 e0 cc b5 bc 11 ea 88 bd 39 36 eb bd 49 6f 88 bb
       -0.022192419 -0.066852696 -0.114849515 -0.004163657
000040 96 fc 3d bd 23 ee c9 ba c6 c4 c2 bd 0f 0b a8 bd
       -0.046383463 -0.0015406053 -0.09510188 -0.08205234
000050 19 49 68 bd fc 01 8b bc 62 d2 93 bd 6c 04 bf bc
       -0.056710336 -0.01696872 -0.07217862 -0.023317538
000060 02 d9 d4 bd a5 e1 95 bd 38 e6 5c 3d f5 f7 a2 bd
       -0.103929535 -0.07318429 0.05393049 -0.0795745
000070 00 a0 e2 3c c7 5e a1 bd 0e 90 d4 bd 60 7f 8e 3b
       0.027664185 -0.078794055 -0.10379039 0.0043486804
000080 06 ea 6f 3d 73 b3 95 bd 3f 7f b9 bc fc 18 e0 bd
       0.05857279 -0.07309618 -0.022643683 -0.109422654
000090 be e9 d7 bd cc 14 df bc 61 df 79 bd fd 3e b0 3b
       -0.1054263 -0.027231596 -0.061004046 0.0053786025
0000a0 4e 7c 59 3c 51 11 ad bb ba 3c 94 bb e6 66 d5 3c
       0.013274265 -0.0052816053 -0.0045238407 0.026050042
0000b0 ee 36 76 3d b1 a7 19 3d ec 83 d0 bd ce c8 8f bd
       0.06011098 0.03751344 -0.10181412 -0.07020722
0000c0 ad a4 5d bd 95 b4 cd bc 0d 08 cf bd 5a d5 88 bd
       -0.054112125 -0.025110522 -0.101089574 -0.066813186
0000d0 29 57 47 bc e9 a2 77 bd f7 67 16 bd 03 93 8e 3a
       -0.012166777 -0.060458098 -0.036720242 0.0010877553
0000e0 68 f9 64 3d 49 84 4c 3c ee 25 f3 3a 8c 7a cb 3c
       0.055901915 0.012482711 0.0018550733 0.024838708
0000f0 11 9b 28 bd 65 b5 55 3d ec 2c 67 3d a1 bd 58 bd
       -0.041163508 0.052174944 0.056439325 -0.05291522
000100 c0 b3 9b bd b4 4d 6f bd cc 5e ea bd 19 70 df 3c
       -0.07602644 -0.058423713 -0.11443862 0.027275132
000110 d7 40 e2 bd 26 66 12 be 7d 5c 07 be b3 d7 05 be
       -0.110475235 -0.14296779 -0.13218875 -0.13070564
000120 0f 0d 3b 3b f8 c9 40 bd 6f 2c 25 3d 53 2a 8d 3c
       0.002854172 -0.047067612 0.04032558 0.017232096
000130 42 e3 94 bd 16 a8 60 3d 6f fb 79 bd bc 94 d7 bd
       -0.072699085 0.0548478 -0.0610308 -0.10526416
000140 68 1a d0 bd 87 60 c4 bc b4 97 01 bd 27 3b 86 bd
       -0.101612866 -0.02397181 -0.031638816 -0.06554251
000150 58 25 63 3d 6d 90 b1 bd ba 91 15 bd f1 8b 93 bd
       0.055455536 -0.08670125 -0.03651593 -0.07204426
000160 72 b5 b8 bd 15 03 15 3d 45 f1 dc bd 12 a3 c6 bd
       -0.09018983 0.036379892 -0.10788206 -0.09699072
000170 59 e8 8d bd 28 7c 17 bd f6 f9 94 bd 26 91 b7 bd
       -0.069290824 -0.03698364 -0.07274239 -0.08963232
000180 f5 d1 16 be 09 c2 2e be d1 7c 97 bd ff 02 4c be
       -0.1472853 -0.17066206 -0.07396854 -0.19923018
000190 64 a5 40 be 42 c1 49 bb 51 63 38 3c 49 04 b7 bd
       -0.18813092 -0.0030785357 0.011254148 -0.08936364
0001a0 ed 01 f9 bd 2a 5e 2b bc e4 61 29 bd 19 d8 9b bd
       -0.121585704 -0.010459462 -0.04135312 -0.07609577
0001b0 24 2f 27 bc e1 ed 5b bc 89 ec f0 bc 90 99 48 3c
       -0.01020411 -0.013423414 -0.029409664 0.012243643
0001c0 e8 3a ff 3c 0a 0a 71 bd f0 de ae bd fc f1 b7 bd
       0.031156018 -0.058847465 -0.08538616 -0.08981702
0001d0 e5 0a a4 bc 1a ad ae bd af 23 55 3d ea b4 0a bd
       -0.020024726 -0.0852911 0.052035984 -0.03386394
0001e0 2c b3 39 3d c9 75 6f bd 98 d7 3d bc 65 ed a1 bd
       0.045336887 -0.058461938 -0.011587046 -0.079066075
0001f0 62 07 fe bd 3a 51 72 be 34 c6 74 be e6 b3 a0 be
       -0.12403752 -0.23663798 -0.23903733 -0.31387252
000200 a8 db 66 be 76 d2 44 be bd 6b 83 bd e0 f5 a0 bc
       -0.2254473 -0.1922091 -0.06417034 -0.019648492
000210 97 ec 78 3c 7d 1e 1c 3c 00 5f 87 bd 2b 1c d6 bd
       0.015193126 0.009528753 -0.06609917 -0.10454591
000220 5b 40 1d 3c af ca bd 3c 4a 2f c3 3c 43 77 32 bd
       0.009597863 0.023167936 0.02382626 -0.043570768
000230 16 88 cb bd e2 b0 bb bd 21 78 b3 3c fc 59 ce 3c
       -0.09938066 -0.09164597 0.021907868 0.025189392
000240 c3 34 67 3d 8e cf 9e bd eb 24 d2 bc 3d 07 5f 3d
       0.056446802 -0.07754432 -0.02565237 0.054450262
000250 b9 83 b9 3c b8 3e c1 bd 9b f8 96 bd fd 71 9b bd
       0.022645818 -0.09435791 -0.073716365 -0.07590101
000260 5f 16 e2 bd 35 89 9c be cf cf 85 be 50 27 14 be
       -0.11039423 -0.3057343 -0.26135108 -0.14468122
000270 02 19 4d be 2f 36 35 be 11 7a c4 bd 7d 5a 86 bd
       -0.20029071 -0.1769645 -0.09593595 -0.06560228
000280 d1 d7 3c bd d3 4b b5 bd 21 78 4c bd bf ca 52 3d
       -0.046104256 -0.08852353 -0.04991925 0.051462885
000290 1e dc 83 3d 4a 73 c6 bd 19 e4 1e bd c5 cc ba bd
       0.064384684 -0.096899584 -0.03879175 -0.09121088
0002a0 2f 3c 4e 3d c7 14 84 bd fc 8a 61 3d 59 0b b4 bc
       0.050350364 -0.064492755 0.055064186 -0.021978067
0002b0 57 1a e0 bd 44 38 93 3d ab d2 b6 3d 73 1b 81 3d
       -0.10942524 0.07188466 0.089269005 0.06304064
0002c0 1e 69 1b 3d 5b e6 af bd e2 58 c7 bd ec 92 26 be
       0.037942044 -0.08588859 -0.0973375 -0.16266984
0002d0 4a 54 85 be bb ea 24 be 0b b8 ff bd 7d 99 c5 bd
       -0.2604087 -0.16105168 -0.12486275 -0.09648416
0002e0 7b 04 27 be 40 a9 8a bd dd 68 0e be 09 51 ee bd
       -0.16310303 -0.06770563 -0.1390719 -0.1163655
0002f0 44 61 7e bd 4c d4 e5 bd f9 9a ed 3c 12 bb 59 bc
       -0.06210448 -0.11222133 0.02900456 -0.01328923
000300 81 8b 82 bd fd 0a b0 bd e4 fd 82 3c e5 7c b6 bd
       -0.063742645 -0.08595846 0.015990205 -0.089105405
000310 5c 28 b7 bd 44 8e cc bd 4f d8 3a bd 28 c6 e6 3b
       -0.08943245 -0.099880725 -0.045616444 0.007042665
000320 79 4f 57 bd c4 4d e2 bc 5f a8 78 3d fd 22 23 3d
       -0.052566025 -0.027624972 0.060707446 0.03982829
000330 6d dd f5 3c 4c 2b 9e bd 5e 49 fe bd 6c be 1c be
       0.03001281 -0.07723102 -0.124163374 -0.15307015
000340 7a c0 08 be cb ae e3 bd d8 1c 48 be 01 56 67 be
       -0.13354674 -0.111173235 -0.19542253 -0.22591402
000350 aa df 50 be 09 65 4e be 95 95 81 be c4 94 29 be
       -0.20397821 -0.2015573 -0.25309435 -0.16560656
000360 8e d2 af bd 9b b8 0f be b1 03 5b bd 62 c8 c2 3b
       -0.08585082 -0.14035265 -0.053470317 0.0059442976
000370 ad e6 bc bc ab 87 e5 bd e1 81 f0 bc 1c 0c 0e 3d
       -0.023059214 -0.11207517 -0.029358806 0.034679517
000380 37 ba e5 bd f4 4c bf bd 88 bc 87 bd 1c d8 7c bd
       -0.11217158 -0.093408495 -0.06627756 -0.061729535
000390 b4 82 8f 3d 0d af ac bc 35 b4 e3 3d 3d fe 35 bd
       0.070073515 -0.021079564 0.11118356 -0.044431914
0003a0 0e 19 4e be 1d 4a 85 be 05 ee 86 be ce 3e a6 be
       -0.20126745 -0.26033106 -0.2635347 -0.3246979
0003b0 02 c7 80 be fd 5b af be 8b 88 99 be 4b 98 a9 be
       -0.2515183 -0.3424987 -0.29986987 -0.33124003
0003c0 47 9c aa be 4e 8a 86 be 51 9f 92 be df f9 b2 be
       -0.33322355 -0.26277393 -0.28637174 -0.34956262
0003d0 e2 f5 a6 be 19 14 3f be fe 5b dc 3c 8e 6b 64 3d
       -0.3260947 -0.1866001 0.026899334 0.055766635
0003e0 10 61 0c bd c5 a0 20 3b e8 34 ad bd e3 d8 35 3c
       -0.034272254 0.0024509889 -0.08457357 0.011099073
0003f0 4b 7a c3 bd 5b 8c 52 bd 44 b9 56 bd c6 50 e3 bd
       -0.0954481 -0.051403385 -0.052422777 -0.11099391
