autoencoder_ddp/autoencoder_ddp.pth (torch, 843709 bytes, 8 tensors)

encoder.0.weight f4 [128, 784]
00000000: 5c8e 023b d5ab 92bc 13ad 01bd 8c50 903c
00000010: ba40 c1bc 2514 b43a 8c49 c4bc 15d5 f3bc
00000020: 3725 ae3c e164 2b3c 6a9d bc3c 00ba 22ba
00000030: 57c8 2dbc 15d2 cf3c 933d 7bbc 43ad e9bc
00000040: 0c60 bdbc 78af dc3b 25e4 c8ba 9ccc 9a3b
00000050: 63d9 da3c d3a8 733c 11a2 fb3c 3338 ebbc
00000060: a2cd 07bd 5154 cabc f702 22bc 939c f33b
00000070: 0554 41bc c5f2 7f3c ba65 febc 3a88 ffbc
00000080: ced6 453c 9c03 053d 5c12 503c 67eb c0bc
00000090: 0ec3 afbc c7d4 00bd d17e b33c 7ad8 b5bc
000000a0: d5f3 ca3c d36a c43c f37a 0bbc 7564 e5bc
000000b0: 25c8 7c3b b7af 4aba 70ca 88bc aa11 d0bc
000000c0: c1eb ab3c cacf b7bc 3c7b 103c 9c96 913c
000000d0: 3896 debb dca6 90ba 1c4b 7e3c e590 c5bb
000000e0: c880 fcbc b854 f2bc b53e 9ebc 6e56 283b
000000f0: 7b1d 0bbd 338a cebc a8a7 fb3b 35b0 2abc
00000100: c3b3 e8bb dd33 3ebc e5e0 0f3c 2d7b 11bd
00000110: b789 14bd 146b fd3c f735 cabc 7840 033d
00000120: 2e70 bcbc 8b02 b1bc 8229 fa3c 291a c33a
00000130: 07e5 95bc a0c9 91bc 53b1 97bb b01a a4bc
00000140: 13d8 e0bc ccc6 f8bc 7c3f 723c 03c5 cdbc
00000150: 43dd a43c 3a75 c03c 0a75 85bb 68cf ff3c
00000160: 7cd1 a13c 7e1d 04bd 6b41 dfbb e3d6 dcbc
00000170: accb 8bbc 1e77 7fbc 4fab 61bb c39a d73c
00000180: 21b8 003c 11ef b7bb 849e b9bc 1f20 20bd
00000190: b35d 753c cee7 e6bb ddc6 9bbc 7e1f cfbb
000001a0: 0dd9 58bc 610d 90bc a347 ef3c 90b7 4cbc
000001b0: b378 d8bc 2aec 21bc 6eb8 46bc 0150 fbbc
000001c0: 335b 9ebc 9c7c d83c 889c fa3c 1509 a53c
000001d0: 8cae fa3c ae04 c33b ec71 8fbb 1f3d eb3c
000001e0: ce9b a8bc 2741 06bb db2d 463c 9125 993c
000001f0: f543 16bd 722d efbc 229e 3bbc 4c9f d73b
00000200: 1fab 793c adb2 31bd e3b5 64bc a391 853c
00000210: 6a0c e7bc 4ec7 a1bc caa3 753c 250a 383c
00000220: d3c2 cd3b 8522 573c 17a1 3f3c 85f6 77bc
00000230: b38c 7bbc e5e8 e63b 2537 34bc 56db e3bc
00000240: 132b 0f3d 2393 f5bc 7421 783a a59e bdbc
00000250: 3b1c 2abc d099 04bd 5dd3 24bc b6c0 b93b
00000260: fbdb 1abd 1802 8ebc fe7c c8bc 7e0d e8bc
00000270: e6e4 18bd 41d8 37bc 7ffb f7bc d425 2b3b
00000280: 77da a13c 520c 1dbc 6b1d 18bc cb45 c43c
00000290: 97a4 e73c 2639 4f3c 4b5c dabc 254b d8bc
000002a0: c37e 10bd 7cad 763c 2479 eabc 1b9b 053d
000002b0: d7e1 f93c e9e6 08bd 4530 2abd 9321 8fbc
000002c0: 2e60 91bc ee77 95bc 6d8b 9f3b 9ee6 66bb
000002d0: f942 ce3c 5ca2 e7bc e62c 8e3c ed51 2abd
000002e0: 4c90 efbb 2bf6 59bc f877 acbc 7a0a 07bd
000002f0: d900 143c b39b 803c 5061 783c 254f 96bc
00000300: 8023 67bb 9850 48bc 8882 5b3a 033c bd3c
00000310: e8b0 ef3c 4cdb f7bc da5c 09bd bb76 183c
00000320: ea36 033d 2952 a5bc 48db 64bc f70b 0bbd
00000330: 6544 c63c 270f 10bd 4c60 a73c a5d0 19bd
00000340: 4007 09bd e46c 783a c6df 2ebd 70c6 37bd
00000350: 4fd1 093b 2226 973c 389b c13c d262 55bc
00000360: ca4f c23b 535e 3f39 8534 aabc 0f94 30bc
00000370: 2e3d 6fbc 783d 9639 cfb7 853a 17c0 293c
00000380: 4a73 57bb 2e23 d13b 9f2b 15bd 09af ba3c
00000390: 32cb 98bc 23da f9bc 87eb 9b3b dd0a 1b3b
000003a0: 3ceb c2bb a2a3 2b3c 2755 80bc e678 03bd
000003b0: cb94 76bc 86f3 f1bc 2d95 ac3c e279 dfbc
000003c0: a278 62ba 53c6 c9bb 4e2c e0bc 8a3d 76ba
000003d0: dea9 c8bb f046 adbc 0c1b 06bd a8f1 9b3b
000003e0: 3ba4 c0bc 185d 53bc 811d ed3b ee86 953c
000003f0: 9573 9c3c ac2d adbc 3fac e5bc d095 123c
0.0019921279 -0.017904202 -0.031659197 0.017616533 -0.023590434 0.0013738914 -0.023960851 -0.029764691
0.02125798 0.010461063 0.02302428 -0.0006207526 -0.010606847 0.02536873 -0.015334505 -0.028525
-0.023117088 0.0067347847 -0.0015326781 0.0047240984 0.026714986 0.014871794 0.030716928 -0.028713321
-0.03315509 -0.024698408 -0.009888402 0.0074344366 -0.011799817 0.015621846 -0.031054366 -0.031192888
0.012075139 0.032474145 0.01269969 -0.023549749 -0.021455314 -0.03145292 0.021911057 -0.02219795
0.024774471 0.023976719 -0.0085132 -0.028002003 0.0038571444 -0.0007731872 -0.016698092 -0.025399048
0.02098644 -0.022437949 0.008818444 0.017772011 -0.00679281 -0.0011036056 0.015520837 -0.0060292357
-0.030823126 -0.029581413 -0.01931701 0.0025686282 -0.03396366 -0.025212383 0.0076798983 -0.010417988
-0.0071015074 -0.011609045 0.008781646 -0.03551786 -0.036264148 0.030934848 -0.024683936 0.032043904
-0.02300271 -0.021607658 0.03053737 0.0014885116 -0.018297685 -0.017796338 -0.004629293 -0.020032257
-0.027446782 -0.030368231 0.014785644 -0.025118357 0.020125037 0.023493398 -0.00407279 0.031226829
0.01975321 -0.03225469 -0.0068132184 -0.026957935 -0.017064892 -0.015592365 -0.0034434383 0.026318913
0.0078564 -0.0056132157 -0.022658594 -0.039093133 0.014975953 -0.0070466762 -0.019015724 -0.006320893
-0.013235343 -0.017584505 0.029208964 -0.012494937 -0.026424741 -0.009882966 -0.012128932 -0.030677797
-0.019330597 0.026426606 0.030592218 0.020145932 0.030600809 0.0059514856 -0.004377594 0.028715668
-0.020582106 -0.0020485611 0.012095894 0.01869467 -0.036685903 -0.029196475 -0.011451276 0.006580269
0.015238552 -0.04338329 -0.013959381 0.016304797 -0.028204162 -0.019748356 0.014992664 0.011232887
0.0062793284 0.013130789 0.011696122 -0.015134458 -0.0153533695 0.007046806 -0.010999476 -0.027814548
0.03495319 -0.029977387 0.0009465434 -0.023146937 -0.010382707 -0.03237325 -0.010060159 0.005668725
-0.037807446 -0.017334983 -0.024473663 -0.028326746 -0.03732767 -0.011220993 -0.03027129 0.0026115077
0.019757492 -0.009585457 -0.009284358 0.023959061 0.028276725 0.012647903 -0.026655337 -0.02640302
-0.03527714 0.01505601 -0.028622217 0.032618623 0.030503197 -0.033423338 -0.04154994 -0.017472064
-0.017746057 -0.018245663 0.004868916 -0.0035232673 0.02517842 -0.028275661 0.017355394 -0.041582037
-0.0073109027 -0.01330332 -0.0210533 -0.032968976 0.009033405 0.015699243 0.01515992 -0.018348286
-0.0035268962 -0.012226246 0.00083736377 0.023099905 0.02925916 -0.030255936 -0.033535816 0.009305651
0.032034792 -0.020180779 -0.013968296 -0.033946957 0.024202535 -0.0351707 0.02043166 -0.037552495
-0.03345418 0.0009476675 -0.042693876 -0.04486698 0.0021029299 0.0184508 0.023633584 -0.013024049
0.0059299218 0.00018250318 -0.020776996 -0.010777487 -0.014601989 0.00028656027 0.0010201874 0.010360739
-0.0032875114 0.0063823676 -0.036418553 0.022788541 -0.018651579 -0.030499524 0.0047583017 0.0023657598
-0.0059484523 0.010476025 -0.015665604 -0.03209772 -0.015050123 -0.029535066 0.021067226 -0.027279798
-0.00086391915 -0.0061576753 -0.027364876 -0.00093933253 -0.0061237654 -0.02115199 -0.032740638 0.0047590323
-0.023515811 -0.012900613 0.007236183 0.018252816 0.019098083 -0.021139942 -0.028036235 0.008946851

encoder.0.bias f4 [128]
00000000: ea06 19bd 60f6 163a 4878 b53b 9657 0e3a
00000010: 015b c93b 4fa7 5f3d d6ef 4bbb 881b 0e3c
00000020: 56b9 393d cec5 a83b 5b73 30bc eee4 773b
00000030: 1d74 26bd a507 b8bc ed10 ec3a b6bb 833c
00000040: be2e b43a 8a00 6cbc faf5 c4bc 9dcb 583d
00000050: 2c76 2f3d a17e 07bd 1ecd 823d d131 e13c
00000060: e238 01bc 6299 093d c0d0 3e3d a1e5 393d
00000070: 5818 413c 9170 3d3d 3050 a83c f961 80bc
00000080: bc42 f8bc 8e27 a93c 233e c43c 7514 233d
00000090: 6a80 56bc eb76 c33b 354b ce3c 9003 9d3c
000000a0: c5d5 553d c13b 22bb e2fe 413d c03d 8b3c
000000b0: 58c5 2b3d 41d8 013d 1c6f 1c3d e500 f3bc
000000c0: a1d5 693a 35b2 c53c b5a3 c83c 567b ccbc
000000d0: 8311 c13c 9289 2b3c a641 a53c aeac 903c
000000e0: 01cf 463d 56e3 cd3c 0cb5 f8bc 6940 30bb
000000f0: ddf4 403c 7954 603d 4025 3c3d 9f1d 483b
00000100: 42c3 4f3d bc27 433d 2207 a33c f11e 4cba
00000110: f405 6ebc cf2e 01ba f9e1 323d 6fe1 c03b
00000120: 6328 083d 4bd8 66bc 8ec5 3e3d 8ff1 28bd
00000130: 4200 8b3c 4295 f7bb fc09 ad3c 1452 383c
00000140: c991 39bc a4bc 6f3a aee6 623d 930f 54bc
00000150: c37a f13a 0d49 743c e007 293c 71fb 7c3d
00000160: 90ec 08bd 287e ab3c 63fb 103c 4dce 3ebc
00000170: 85ff 013c a621 153d 2260 993c 1944 603c
00000180: b3c6 833c bc95 093c 8c54 e7bc fca9 a8bb
00000190: a1f2 0a3d d887 363c 186b 9fbb cedc 6bb9
000001a0: 52d5 d03b 438b ce3c 15aa 1e3d 00b8 0b3c
000001b0: 013a 9dbc 97e8 693d 3b3f 5b3d de46 eabc
000001c0: 7cca 783d 96e4 0cba d39b f73b 5f13 c23c
000001d0: cff5 813d 6871 fc3c fade df3c c0fa 073b
000001e0: e55f f33c f7b1 d53c 031f c73c 1af1 4e3d
000001f0: 45d7 8d3c bff2 483c b235 0c3c 1872 903c
-0.03736011 0.00057587586 0.0055380203 0.00054299214 0.0061448817 0.054602917 -0.0031118295 0.008673556
0.045342766 0.0051505333 -0.01076969 0.0037825662 -0.040638078 -0.022464583 0.0018010415 0.016080718
0.001374684 -0.014404425 -0.024043072 0.052928556 0.042837307 -0.033079747 0.06386779 0.027489575
-0.007887097 0.033593543 0.0465858 0.045385007 0.011785589 0.04624993 0.020546049 -0.015671717
-0.030305259 0.020648744 0.02395541 0.03981443 -0.01309214 0.005965104 0.025182346 0.019166738
0.05220582 -0.0024754854 0.047362216 0.016997218 0.04193625 0.031700376 0.0381919 -0.029663512
0.0008920078 0.024132827 0.024492124 -0.024961155 0.02356792 0.010469811 0.020172905 0.017660465
0.048537258 0.025132816 -0.030359767 -0.002689386 0.01177713 0.05476806 0.045933962 0.0030535234
0.05072332 0.047645316 0.019900862 -0.0007786593 -0.0145277865 -0.00049279345 0.043672536 0.005886249
0.03324164 -0.014089654 0.04657512 -0.041245993 0.016967896 -0.0075556347 0.021122925 0.011250038
-0.011326262 0.0009145236 0.055395775 -0.012943166 0.0018423427 0.014909995 0.010316819 0.06176323
-0.03342873 0.02093418 0.008848998 -0.011645866 0.007934456 0.036409043 0.018722598 0.013688111
0.016085958 0.008397516 -0.028238557 -0.005147217 0.033922795 0.011140786 -0.0048650615 -0.00022493603
0.006373086 0.02521289 0.03873642 0.008527756 -0.019192697 0.05710658 0.0535271 -0.028598245
0.06073998 -0.0005374638 0.0075564175 0.023690877 0.063457124 0.030815795 0.027328003 0.0020748824
0.029708812 0.026085837 0.02430678 0.0505229 0.017314563 0.012264906 0.008557724 0.01763253

encoder.2.weight f4 [32, 128]
00000000: 6cb7 173c b02e 1f3d f990 1d3d 1541 9cbd
00000010: 1a55 a3bb 0440 c2bc da4d 07bc 92b8 6bbc
00000020: 8fe1 bb3d 8928 53bd 8145 01bd cb1a 7ebd
00000030: 13b1 68bd c971 943d ed7d c53d 2644 ad3d
00000040: 65d5 2fbd b7ad f5bc 1a3e 81bd ae57 62bb
00000050: 94b4 763d 1827 bc3d 22c1 3c3d 5120 073d
00000060: b7d4 1abd d1ee 2cbd c881 933d 9ea7 5c3d
00000070: 1612 a73d 3f82 a23d dc85 74bd d349 ba3d
00000080: edcc b63d 60f3 343c ee2f 7b3c 98a9 e33d
00000090: 9797 b53a 8cd4 dbbc fda3 bd3d 500e 6f3c
000000a0: 6477 003d db10 b13d b675 27bd 5baa 043d
000000b0: 2a99 39bd feae ec3c 0655 dabb b69f 2bbc
000000c0: 47dd 82bd 2055 033d 340d b63d d159 86bd
000000d0: 6b87 643c e885 263d 8e01 a33b eb8d f53b
000000e0: 62a5 363d d233 b23c c8d0 7ebd 79a7 66bd
000000f0: fc2f d63d 82c5 233a eafd 7a3d 3baf 853d
00000100: 9f53 61bd 07b0 98bb 4a9d d9bc ba74 3f3d
00000110: e72a 5ebc 4c1c 283d 45f4 d33c b9ea 973d
00000120: f853 c83d f36b 543d e5b6 cd3d 6726 a13d
00000130: dc5c cdbc b469 b33d ca74 cf3d 2b85 dd3c
00000140: 379e 613d 25b3 43bd dc1d f33d f5a4 803d
00000150: 71b7 bbbc 29f6 bc3c 0386 d2bc e563 913c
00000160: 5bc6 a83d 1dbb b53c 7569 abbb fff2 713d
00000170: 9158 553d f529 de3d 6ee7 d6bc ff75 3f3d
00000180: a8ba e23d 3722 ab3d e3a1 0c3d e4f9 f4bc
00000190: c5f1 db3d 55a0 b13d 22ff 853d d4cd d03d
000001a0: 3dfd 4cbb 4b9b 84bd b467 763d eb7b a1bc
000001b0: 1cc1 0c3c 71f9 783d 4129 9f3d f2ff b5bc
000001c0: 44bd 1a3d ce62 003d a486 0d3d 84db 183d
000001d0: ee13 603d f3f6 d23d dd75 043d 3e71 11ba
000001e0: 31f3 e73c 5648 923a 9ebf 693c 6ff3 53bd
000001f0: 0647 b1bc 4614 e43d 8bea d23d b499 a53c
00000200: 09d9 413d 1686 833d a058 503c 41c5 9d3d
00000210: 500b 8b3c b6ab 983d 8152 26bd 2f69 b8bc
00000220: bbc2 d2bc 06cd c4bc 565a 1cbd 3fce 47bd
00000230: f136 063d 8748 a13d 8088 94bd fcb5 a53d
00000240: 09d8 8dbd a6ed 703d c507 06bd 8fac a63d
00000250: 459e cebc 5f70 c03c abc1 9dbd 984e 473c
00000260: 3893 a13d 5b12 853d 9fdd 6ebd f853 7ebd
00000270: 2f11 02bd 444f 8bbd b832 b0bd 696b 963c
00000280: ec0b 913d 6807 22bd 1a52 423d dc0c bcbc
00000290: 2823 c2ba a2dd 77bc 9793 bfbc 7449 8ebd
000002a0: 66ac a8bc e6b5 2abd 0255 cfbc 11c6 5f3c
000002b0: 423e 90bd 21eb 963d 1e0c 173a 9055 5bbd
000002c0: 45dd c7bc 669a c0bc dbf0 943d fa55 89bd
000002d0: 4209 a4bd 7ecc 3a3b 99fe 893c fadc 1fbd
000002e0: fdcb 81bb d3d6 d6bb b573 0c3d 3caf 94bd
000002f0: 7771 9ebd 478f 82bd c45c b8bc 0e93 4d3c
00000300: 5a6d 9d3c 0e23 74bd d94e 803d 8435 763d
00000310: 805b 863d 108e d2bb 7c69 b2bd b106 8cbd
00000320: 7a4e 97bd 6f51 a83d eddb 70bd fd90 303d
00000330: 738b 1ebd 337c 893c e705 26bd 3fa3 59bc
00000340: 33cb a63d 2c72 a83d ec98 113d 82c3 96bd
00000350: 7977 eb3c 9e0f b93d 6bb2 823d 25c3 14bd
00000360: 6160 453d 33e4 12bd d8a0 983c d203 d7bc
00000370: 01e4 8e3d 45c3 a6bd ef65 9e3d 5cef ca3c
00000380: cab3 b23b e0eb 9cbd fc56 e5bc d892 353d
00000390: a3ed 6f3c 464c a9bc 4804 2abd e361 0fbd
000003a0: 5c8a a9bd 0dc2 683d ca0b 31bd 4c6c c6bc
000003b0: 0b64 85bd b5cc 87bd 2234 8cbd 5c05 92bc
000003c0: 5c6d e5bc 5221 f93b c64f 193d fb1f 18bd
000003d0: 5b0f 963d 1f2f c33c c0d1 ad3d 938c b7bd
000003e0: 7ee8 9e3d c31a 24bd 8301 763b f2da 3f3c
000003f0: 78ae 5fbc 4970 11bc eb44 583c a46b b1bd
0.00926004 0.038862884 0.038468335 -0.07629601 -0.00498451 -0.023712166 -0.008258307 -0.014387267
0.09173881 -0.05155233 -0.031560425 -0.06203727 -0.056809496 0.07248265 0.09643159 0.08460264
-0.04292812 -0.02999006 -0.06310673 -0.0034537124 0.060230806 0.09187144 0.046082623 0.032989804
-0.037800517 -0.04221994 0.07202488 0.05387079 0.081577465 0.07934999 -0.05969797 0.09096112
0.08925805 0.011044353 0.015331252 0.11116332 0.0013854381 -0.026834749 0.09259794 0.014590815
0.03136386 0.08645793 -0.040883742 0.032389026 -0.045312084 0.028892037 -0.0066629676 -0.01047509
-0.063898616 0.032063603 0.08889237 -0.065601 0.013948302 0.040655047 0.0049745506 0.0074937246
0.044591315 0.021753225 -0.062210828 -0.056312058 0.10458371 0.00062473875 0.061277308 0.06527563
-0.055011388 -0.004659656 -0.02656426 0.04674218 -0.013560033 0.04104261 0.025873313 0.07417817
0.09781641 0.05186076 0.1004465 0.07868653 -0.025068693 0.08760396 0.101296976 0.027041038
0.055082526 -0.047778267 0.118709296 0.06281463 -0.02291462 0.023066597 -0.025698667 0.017747829
0.08240958 0.02218395 -0.0052310773 0.05906963 0.052086417 0.108478464 -0.026233401 0.04674339
0.11070758 0.08356135 0.034334075 -0.029904313 0.10739473 0.08673159 0.06542803 0.101955086
-0.0031278871 -0.06474932 0.060157493 -0.019712409 0.008590963 0.06078476 0.077715404 -0.02221677
0.037778154 0.031344227 0.03455223 0.03731872 0.054706506 0.10301008 0.032338966 -0.00055481854
0.028314205 0.0011160474 0.0142668765 -0.05174583 -0.021640312 0.11136679 0.10298642 0.020214893
0.04732612 0.06422059 0.012716442 0.07703639 0.016973168 0.07454626 -0.040606026 -0.022511093
-0.02572762 -0.024023544 -0.03817209 -0.048780676 0.03276724 0.078751616 -0.07252598 0.080913514
-0.06925971 0.05882039 -0.032722253 0.08138382 -0.025221953 0.023491083 -0.07702955 0.012164734
0.07889408 0.06497642 -0.058316823 -0.062091798 -0.03175467 -0.06802228 -0.08603424 0.018361764
0.07082352 -0.039557844 0.04744158 -0.02295535 -0.0014811503 -0.015128525 -0.023385806 -0.06947604
-0.020590018 -0.041677378 -0.02530909 0.013658063 -0.07043125 0.07369066 0.00057619985 -0.053548396
-0.024397502 -0.023511123 0.07272502 -0.06705852 -0.08009578 0.0028503234 0.016845034 -0.0390291
-0.003961085 -0.0065563708 0.034290034 -0.07259986 -0.077364855 -0.06374984 -0.022505172 0.012547268
0.019217182 -0.059603743 0.06265039 0.06010963 0.06560421 -0.0064256266 -0.08711526 -0.06837214
-0.07388015 0.08218657 -0.058803488 0.04310702 -0.038707208 0.016782856 -0.040532973 -0.01328355
0.08144226 0.082249016 0.03554623 -0.07361509 0.028743492 0.09036182 0.06381687 -0.036318917
0.048187617 -0.03586216 0.018631384 -0.026246939 0.06977082 -0.081427135 0.07734286 0.024772339
0.0054535614 -0.07662177 -0.027995579 0.044329494 0.014644059 -0.020666253 -0.04150799 -0.03500546
-0.08278343 0.056825686 -0.043224134 -0.024221562 -0.06513222 -0.06630842 -0.06845881 -0.017824821
-0.028006248 0.007602849 0.037429594 -0.037139874 0.073271476 0.02382618 0.08487272 -0.08962359
0.07759188 -0.040064584 0.0037537522 0.0117099155 -0.013652436 -0.0088768685 0.013200025 -0.08663109

encoder.2.bias f4 [32]
00000000: 0b5c 983d 2e26 b5bd 21b9 55bd a4cb 743b
00000010: 2d1c 853c e08b 963c 5d8f 0f3d 2b40 9d3d
00000020: 4e3f c83d 315d a13d 2fba 56bd c2e0 e63d
00000030: 3219 e2bc 19e5 1cbd 971b 6ebd 6299 8cbc
00000040: 01a1 0e3d c2e5 90bd 67c8 a73d 95a5 84bd
00000050: 3298 7a3d ca47 693d 886c d43d 294e b6bc
00000060: 46c4 27bc 3370 93bd eb91 ccbc 5524 b43c
00000070: 4b5f cfbd 7a2a 26bd cdbc 293d ef9b 4f3d
0.07439431 -0.08845173 -0.052178506 0.0037352825 0.016248787 0.018377244 0.03504883 0.07678255
0.097776994 0.07879103 -0.052423652 0.11273338 -0.027599905 -0.038304422 -0.05813178 -0.017162982
0.034821514 -0.07075073 0.081925206 -0.06476895 0.0611803 0.05695323 0.10372263 -0.022254067
-0.010239666 -0.07199135 -0.024971923 0.02198998 -0.101255976 -0.040567853 0.04143982 0.05068582

decoder.0.weight f4 [128, 32]
00000000: dff9 c43d 6dbf afbd e594 863d 329a f9bc
00000010: df96 0fbe 0c7c 39be 1810 1a3d 443a 5c3d
00000020: eb96 2abe 91c5 9dbc 7e5b 7bbd a1a8 fc3d
00000030: a233 12be 2f82 cf3d 9570 c3bd ada3 f8bd
00000040: 1c3b 5dbd f78c 1a3d 882f 6cbc a076 b13a
00000050: ec10 923b bf50 1d3e 63ac fe3d bd68 f1bd
00000060: 4550 fd3c 5d1c 13be 2ec7 4cbd 0305 e13b
00000070: 03fa adbd 41d8 a1bd 805c 233e 8783 1d3d
00000080: 3f9f fc3c 21a4 383d 0d82 febd c24f edbd
00000090: 9459 b9bd a68a 1cbd a5f0 d7bc c228 26be
000000a0: 1e75 133e 58e8 043e de30 ae3b fccc f2bd
000000b0: 904b f5bd c5eb 873d a274 5ebd 71b4 4e3d
000000c0: 8a82 64bc 0421 573d c1a0 07be cca6 04bd
000000d0: 5bff 23be f559 413c 99b1 26be bd2f 803d
000000e0: 31d1 72bc 9693 33be f7dd 83bd 07f4 cabd
000000f0: fde9 6f3d eea0 f43d 6ac0 ee3d 6a1a 39bd
00000100: 06b7 36bc 0ef9 16be 181b c7bd 1e70 2c3e
00000110: 8ec1 dcbd 05ea 00be 0a42 653c 47d8 ed3d
00000120: 53a9 e0bd 87a1 09be 16a1 34be 65de 22be
00000130: 503a 0b3e e0ff c13d f878 b53d e950 3f3d
00000140: 595b 2d3c 7b50 33be ae4d 173e bdb9 b73d
00000150: a9b6 90bd 76d4 1cbd 80f1 11be b2ac 04be
00000160: faee 30be 3250 f3bd 979c 33bd 107f c53c
00000170: f317 123e ea98 413d 31d2 a3bc 5a08 8b3d
00000180: 6794 42bc 858d dfbd ae8f 333e fa32 683d
00000190: 78ee 1d3e aff5 ff3c 9d10 2ebe 53a1 043d
000001a0: 9f52 a4bc 109a f8bd 1baf 01bd 3a7a 55bd
000001b0: 4f8e 06bd fb4e b8bd 0462 f5bd 26c1 afbd
000001c0: 5e85 263e 1b75 193d 649e 85bd cd46 c3bd
000001d0: f00c 653d 25bb a3bd 6892 843d 370b d2bd
000001e0: 07c5 05be 7d8e 01bd a0ff dc3d e28a d4bd
000001f0: f9e1 2dbe 33bd 5abc b1e9 43bd 48d3 213e
00000200: 7a69 9c3d 4105 e4bc d001 4fbd 27b3 263e
00000210: 06b1 133e c3be a53d 70b1 493d eedd 86bd
00000220: 29f6 18be 6803 b23d 1c11 063e f43f 9abd
00000230: b8f9 ffbd cfaf 183e 4864 a3bd 8b9c 003c
00000240: e073 e93d 1687 1fbe 87d9 9c3d f893 20be
00000250: cb7b 1b3e 2c92 493c f8d1 273e 3324 ca3d
00000260: c920 9538 d023 123e 5c29 aabd 2eb2 df3d
00000270: 6a4f 3fbd 1eb9 bd3d 3a7f dc3d 1a64 063e
00000280: 8ef5 c7bd 47c6 b9bc d0ff 34be 835c 06be
00000290: 4fa3 ee3d e60c 0abe bfab 06be c604 d1bd
000002a0: 3807 123c 4313 b43c 4f2b f73b 0c8b ce3d
000002b0: fd50 213d 9bbc 123e 08f6 be3d fe7f b23d
000002c0: f0a7 fd3c 0187 363d a68b 7d3d 0b47 c23c
000002d0: d492 143e eff1 eebd 4f09 c5bd dfa9 ee3c
000002e0: d703 0fbe 8426 fb3d 641e 1b3e df30 39be
000002f0: b9bc 293e 2962 033e 744a 39bd 6186 e2bd
00000300: 6995 02be 88bf dc3c d549 0abd 7834 fdbd
00000310: 8a33 093c 25ec 19bd 273c dbbd ba3c 7d3d
00000320: 6b70 c3bd 7967 1d3e ef1b 2abe 75dd 3f3e
00000330: edce 453d 4523 c43d 7cc6 213e 5fac 73bd
00000340: dd65 c03b 0cb6 df3d 549a ae3d 82d4 0cbe
00000350: a9c8 613d 6c14 493d 6ee6 fa3d e25b 033e
00000360: c4c4 863d 444c 9a3c fe4b 953d b3f5 ccbd
00000370: 36de aabd 8c38 1e3d 3418 febb a0c3 e6bd
00000380: 2329 353d 0bd9 2ebe 6157 803d 6978 f13d
00000390: 3a2c 293e 48fa d73d 65e3 463d 1e32 c23d
000003a0: 5cd7 ea3d 71f8 043e f923 633d acf0 d83d
000003b0: 403b 0bbe fcaf 253e e1e5 24bc d460 07be
000003c0: 64c6 66bd 8e56 e33d ecef 2d3e e35f 023d
000003d0: e4ab 1f3e 3257 23be 4844 59bd 3001 4d3d
000003e0: 2822 e3bd 0c26 f1bd 5424 16be 7b8a c53d
000003f0: a388 17be 8b51 373e 9c63 f43d 79d4 1dbd
0.09617972 -0.085814334 0.06571368 -0.030469034 -0.14022397 -0.18113726 0.037613004 0.053766504
-0.16659133 -0.019259246 -0.06136655 0.12336851 -0.14277509 0.101322524 -0.09542958 -0.12140594
-0.05401145 0.03773209 -0.014415629 0.0013539381 0.0044575837 0.15362833 0.12435224 -0.11787555
0.030922065 -0.14366288 -0.04999464 0.0068670525 -0.084949516 -0.07902575 0.15953255 0.038455512
0.030837653 0.0450784 -0.12427149 -0.11587478 -0.09050289 -0.038218163 -0.026359865 -0.16226485
0.14400145 0.12979257 0.005315884 -0.11855504 -0.11977303 0.06636766 -0.05431045 0.05046505
-0.013947139 0.05252172 -0.13244916 -0.032385632 -0.16015379 0.011801233 -0.16278686 0.06259105
-0.014820383 -0.17536768 -0.06438821 -0.09909826 0.058572758 0.119447574 0.11657794 -0.045191206
-0.011152035 -0.14743444 -0.097219646 0.16839644 -0.10779105 -0.12589271 0.013992796 0.11613517
-0.10969796 -0.13440524 -0.17639574 -0.1590515 0.13596463 0.094726324 0.088609636 0.04670802
0.010580861 -0.1751117 0.14775726 0.08970974 -0.0706609 -0.038288556 -0.14252281 -0.12956503
-0.17278662 -0.118805304 -0.043850508 0.02410844 0.14266948 0.04726497 -0.019997688 0.06788702
-0.011876202 -0.109156646 0.17535278 0.05668924 0.15423 0.03124508 -0.16998525 0.032380413
-0.020058928 -0.1213876 -0.031661134 -0.052118517 -0.03285056 -0.08999439 -0.119815856 -0.08581762
0.16261813 0.037465196 -0.06524351 -0.095349886 0.05592054 -0.07994679 0.06473237 -0.10256045
-0.13063441 -0.031630028 0.10790944 -0.10378052 -0.16980733 -0.013350773 -0.047830287 0.15803254
0.076373056 -0.027834537 -0.050538838 0.16279279 0.14422998 0.080930255 0.049241483 -0.065852985
-0.14937653 0.08692056 0.13092464 -0.07531729 -0.12498802 0.14910816 -0.079781115 0.007849823
0.113990545 -0.15578875 0.076586775 -0.15681446 0.15183942 0.0123029165 0.1638869 0.09870186
7.1109804e-05 0.14271474 -0.0830867 0.10922657 -0.046706595 0.09263824 0.10766454 0.13124123
-0.09763633 -0.022677554 -0.1767571 -0.13121228 0.116522424 -0.13481483 -0.13151453 -0.102059886
0.008912854 0.021981841 0.0075430046 0.10085115 0.039383877 0.1432976 0.093242705 0.08715819
0.030963868 0.044562344 0.061900757 0.023715517 0.14509135 -0.11667239 -0.09620916 0.029133735
-0.13966309 0.12263206 0.15148312 -0.18085049 0.16575898 0.12830414 -0.04523702 -0.11060787
-0.12752308 0.026946798 -0.033761818 -0.12363523 0.008374104 -0.03757872 -0.107048325 0.06182549
-0.095429264 0.15371503 -0.16612218 0.18736823 0.048293043 0.0957704 0.15798372 -0.059490558
0.005871518 0.109233946 0.085255295 -0.1375294 0.055123005 0.04909174 0.12250982 0.1282802
0.06580499 0.018835194 0.07289885 -0.10007801 -0.083431646 0.038628146 -0.00775435 -0.11267781
0.044228684 -0.17074983 0.06266666 0.117905445 0.16520777 0.10545784 0.048556704 0.09482215
0.11466858 0.12985398 0.055454228 0.105927795 -0.13596821 0.16180414 -0.010064573 -0.13220531
-0.056341544 0.11100493 0.16986054 0.031829726 0.15592915 -0.15951231 -0.053043634 0.05004996
-0.11090499 -0.11774835 -0.14662296 0.09645554 -0.14798217 0.179022 0.119330615 -0.038532708

decoder.0.bias f4 [128]
00000000: e7ab a3bd c0d7 4d3d 0311 d5bd 1d75 0abe
00000010: d4e9 0d3e 6c8a f63d 6cbe 99bd b5a0 b3bc
00000020: 9430 2e3e 6a89 a03c 80d6 df3d 086f 173e
00000030: 8f5a 99bc 9d38 3c3e ce68 2f3e d603 e8bb
00000040: 7386 9f3d 96a1 cabd b37f 163e 03ea f33c
00000050: 9c4f 023d c353 4e3e 8b8e c33d 2409 a73d
00000060: 5d20 8bbb bb31 13be 3a5a edbd de8d 973d
00000070: 18f0 d43c 52b7 803d 94bb cabd 9260 e3bd
00000080: 088b 81bd 16ac c83b d212 c7bd be96 31be
00000090: f7ac e53d 09b5 edbd f321 183e 47af 143e
000000a0: cb69 3f3d 63e8 15be 1ffd a33c 3627 3a3e
000000b0: 484d 063c 7a51 8d3c 1bf5 37bb f160 2d3d
000000c0: 4e4a d4bd 27d3 33be a5ac 3e3e 8caf 833d
000000d0: f67e 97bd e1f5 833d 410b a43d 5011 d1bd
000000e0: 77ee 37bd eda2 17be 2e0e b0bd 2450 f53d
000000f0: e136 92bd b989 a6bc 4e51 613a 09d4 6c3d
00000100: c6cf 793d 62e3 1c3d 9d67 143e 0b43 143c
00000110: 4491 aabd e500 f43d 9baf 90bd 6ccf 2b3e
00000120: 1a1d abbd 0934 d4bd bd4d 1e3e b17a ea3d
00000130: 0495 433c aea1 723d cfa1 e83d 2237 0dbe
00000140: 51cd fa3d f96d f0bd c862 14be 5514 a8bd
00000150: ab11 61bd ffd7 38bd edb2 243e a659 223e
00000160: 68ad 9b39 b29f cebd 368d 8c3d b6cb 69bd
00000170: b3f6 c73d 126c 34be d23c 2abe d919 39bd
00000180: 8a46 193b 8807 fb3c 6567 c73d afa3 81bd
00000190: 863d 9c3c 32da 04be 6731 003e fce9 723d
000001a0: d451 5e3c 8da2 b43c 8929 353e 58a8 1fbe
000001b0: 15ae 1e3e d7aa f3bb a7d4 e9bd fb9b 603d
000001c0: 1ec7 033e ca51 9cbc 25c9 debd f8b5 8dbd
000001d0: 46d9 0dbe 4cfa 1cbe d284 32bd 7168 31be
000001e0: b707 0e3e 4a7d b7bd af61 c13d ba38 0e3c
000001f0: 5422 873d 6794 213e e9ec ec3d 35c6 cc3d
-0.07991772 0.050254583 -0.10403635 -0.13521238 0.1385873 0.120381206 -0.07507023 -0.021927217
0.17010719 0.019596774 0.109295845 0.14788449 -0.01871994 0.18380971 0.17129824 -0.0070805354
0.07789316 -0.09894101 0.14697151 0.029774671 0.031814203 0.2014914 0.09548672 0.0815604
-0.0042458014 -0.1437444 -0.11589475 0.07400106 0.025993392 0.062849656 -0.09899059 -0.11102404
-0.06325346 0.00612403 -0.097203866 -0.1734266 0.11214631 -0.11606795 0.148567 0.14519988
0.04673175 -0.1463943 0.020018158 0.1817902 0.008197136 0.017250765 -0.0028069678 0.04232878
-0.10365735 -0.17561017 0.18620546 0.06429967 -0.07397263 0.06443382 0.08009959 -0.1020838
-0.044905152 -0.14808245 -0.085964546 0.11978176 -0.071393736 -0.020329343 0.0008595184 0.0578194
0.060989164 0.038302787 0.1449265 0.009049187 -0.083284885 0.11914233 -0.07064744 0.16778344
-0.0835516 -0.103614874 0.15459342 0.11449183 0.011937384 0.05923622 0.113589875 -0.13790563
0.12246192 -0.117397256 -0.14490807 -0.08207003 -0.05494849 -0.045127865 0.1608388 0.1585451
0.00029693102 -0.10089053 0.06862871 -0.05707904 0.09763851 -0.1761935 -0.16624764 -0.045190666
0.0023387992 0.03064324 0.09736518 -0.06330048 0.019072305 -0.1297386 0.12518845 0.059305176
0.013569314 0.022050167 0.17691626 -0.15591562 0.15496095 -0.007436137 -0.11417513 0.054836255
0.12868926 -0.019081969 -0.10878209 -0.069194734 -0.13852414 -0.15329856 -0.0435837 -0.17324997
0.1387013 -0.08959444 0.0944246 0.008680517 0.065983444 0.15779267 0.115686245 0.099987425

decoder.2.weight f4 [784, 128]
00000000: 37b8 25bd b5d7 d23c 3114 36bd 10bb 9b3d
00000010: 6c36 e6bd 51d6 233d 8c90 b2bd b65d d1bd
00000020: 9fc2 4abb e191 c23c 7fb9 67bd 2d04 d4bd
00000030: 9a5f 26bc 4675 6abd 4071 fb3b 7cdc 55bd
00000040: f5ed 60bd d2e3 a1bd f7ca c5bd 6ba4 babd
00000050: 1f94 a9bd d106 503c 9486 1dbd 246f c5bd
00000060: 418c 91bd 5ad4 b4bd 8c18 b1bd e3d7 6c3c
00000070: 1997 b9bd aec9 e7bb 315b 90bc 890b dcbc
00000080: cf3a b6bc 1e3b b4bd 1b3f 66bd 4fa1 a6bd
00000090: d72f d2bd 8572 5bbd 8e4f 683b e785 04bd
000000a0: 9705 12bd d59f 9abd 9815 373d 7150 e5bd
000000b0: 3721 193a 6adc 48bc e11a 1abd 7ca6 cebd
000000c0: ce2c 98bd 57e6 8fbd 39e9 97bd 7674 a43c
000000d0: df75 903d 0c02 8b3d 1835 ccbd 853e a5bd
000000e0: 03ba 73bb eb00 00bd 8b19 0f3d 3099 e9bd
000000f0: c1a5 dbbd d9c7 953d c6a3 0d3b 3ce0 dfbc
00000100: 4bce 7cbd 0379 423d 3607 4abc c8de 273c
00000110: c53d 9bbc 5842 503d 8f1f ddbd ee76 d4bc
00000120: 4091 673c f8b6 693d 9959 443d e3de f7bc
00000130: fa38 203c f1fe f43c 68e2 44bd 53d5 11bd
00000140: cdb5 793c c403 c4bd 3556 53bd 2aef cdbc
00000150: d578 04bd 882c 823d 31d4 543d 0961 6cbd
00000160: 63f0 92bd 7d7f 37bc 5acb 033d 2d1f 303d
00000170: 0830 23bd 548f f73b aeef 043d fe11 debd
00000180: c8b0 74bd dca9 9d3d 4399 703d cbce 8138
00000190: 7843 773d aa15 a0bd f9b3 0ebc f758 e3bd
000001a0: d300 10bd 0ff8 193d f08a f2bc ad44 2bbd
000001b0: a206 93bd d552 bebd 6eb7 003d 05cb 3a3d
000001c0: 6d94 dd3c 4a1e 82bd f722 eabc fb7b 0cbd
000001d0: 510c 63bd 263c 37bd b790 aa3d 3a64 32bd
000001e0: 0ce2 4fbc 3e31 09bd fe9e 8abc 2b5d c6bd
000001f0: 8b26 4b3d 8f1f 303d cf6d 053d b37e 813d
00000200: 6256 623d 8920 373d 7217 37bd 3164 b0bd
00000210: ceeb a73c 08e1 64bd f9d2 903c 4db5 6f3d
00000220: 415e 5a3d 98f9 b9bd fc07 e43b a7bc 873a
00000230: 01da aebc 65aa c43c 8505 37bd 58c6 3c3d
00000240: 9f21 62bc 560f 62bd 8e90 6a3c 64cd 81bc
00000250: 8d8c e9bd 39b9 64bc df00 5f3d ea9c f4bc
00000260: 45df 8cbd b871 803d 0393 b43d 7b88 c5bb
00000270: 7662 e3bd 358b 753c 0405 16bc 8eec c7bd
00000280: 40d9 1c3c 6788 56ba 248c 5fbd d275 bdbd
00000290: 395a a5bd e2fd a33c 5507 1f3d 8514 853d
000002a0: 0626 753c 1ea8 e7bc cd67 a4bd 84b4 db3c
000002b0: c2d4 c0bd 0710 7abd 2a62 a23c 68f7 f83b
000002c0: f395 093d 1259 46bc e11e bb3c eb26 d9bc
000002d0: eceb 943d 6a5e 6c3c ab24 11bd 30a5 7ebb
000002e0: 7c3b 40bd ce17 60bd ea5f e5ba a5c4 54bd
000002f0: 26eb 3fbd 738c 913d b346 8b3c 571c 3ebd
00000300: 941a 5c3c 5dbb e8bd 7126 643d 3571 e3bd
00000310: fda4 93bd 55d7 903b f2f4 aabc 6c8d c4bc
00000320: b866 1c3d 8245 03bc 9b1a 18bd 5b4a 60bc
00000330: 9ff9 813d f172 f23b 219f 87bd 51c3 7fbd
00000340: cf43 d8bd 1d2e 92bc 3c5e 503d ff23 b0bd
00000350: 7d3c bbbd e6da f4bc 9aa9 91bd d1f2 adbd
00000360: d195 91bd a917 143d b56e 48bd 52a0 d23c
00000370: 590e b8bd 907c a13d 9032 a03d f3be cebd
00000380: a02f 29bd a87f 903c 25cb 92bd d197 d9bd
00000390: 2a9a b3ba 40d5 813d d5c9 a9ba 04c7 a8bd
000003a0: d6b3 1d3d bcd6 8ebc c886 62bd 83f8 64bd
000003b0: 34d7 cb3c 346c 25bd d0c4 8a3d 47ee 67bd
000003c0: faca 593d f819 84bd 227a 6d3d ef85 b03c
000003d0: 0d69 983c f32d 70bd 871b 88bd 798f acbd
000003e0: bcfa bcbd 529d aa3c 2cca dabd 5392 e3bd
000003f0: ccb4 86bc fa68 e1bd e753 36bd 7b36 b6bd
-0.040458884 0.025737623 -0.04445285 0.07604039 -0.11240849 0.03999931 -0.087189764 -0.10222952
-0.0030938757 0.023751201 -0.056573387 -0.10352359 -0.010154629 -0.057240747 0.0076734126 -0.052212223
-0.054914434 -0.079047814 -0.09657853 -0.091133915 -0.08280205 0.012696938 -0.03845842 -0.09640339
-0.071068294 -0.08829565 -0.0864726 0.014455768 -0.09062023 -0.0070736026 -0.017621608 -0.02686097
-0.022244839 -0.08800338 -0.056212526 -0.08136236 -0.10263031 -0.05357601 0.003544781 -0.03235426
-0.035649862 -0.07550017 0.044698328 -0.111969836 0.0005841436 -0.012259582 -0.03762329 -0.10090348
-0.07430421 -0.07026356 -0.074175306 0.020075064 0.07053732 0.067875 -0.09971064 -0.08068565
-0.003718973 -0.031250875 0.03493647 -0.11406171 -0.107249744 0.073135085 0.002161251 -0.027328603
-0.061720174 0.047478687 -0.012330821 0.010245986 -0.018950352 0.05084452 -0.10797035 -0.025935616
0.014133751 0.05705926 0.04793701 -0.030257648 0.009779209 0.029906722 -0.04806748 -0.035603832
0.015241099 -0.09571031 -0.051595885 -0.025138456 -0.032341797 0.0635615 0.051960174 -0.057709727
-0.071747564 -0.011199829 0.032176353 0.04299848 -0.039840728 0.007554928 0.03245514 -0.108432755
-0.059738904 0.07698414 0.05873991 6.1897175e-05 0.060367078 -0.07816632 -0.008709901 -0.11100953
-0.035157036 0.037590083 -0.029607266 -0.04181354 -0.071789995 -0.09293143 0.031424932 0.04560377
0.027048314 -0.063534334 -0.028581126 -0.034297924 -0.055431668 -0.044735096 0.083283834 -0.043552615
-0.012688171 -0.033494227 -0.016921517 -0.09685739 0.049597304 0.042998847 0.032575425 0.06322994
0.055258162 0.044708762 -0.044700094 -0.0861286 0.020498183 -0.05587867 0.017678725 0.05852251
0.053312544 -0.09080809 0.0069589596 0.0010355905 -0.021344187 0.024007032 -0.044683 0.046087593
-0.013801961 -0.055190407 0.014316691 -0.015845008 -0.11403761 -0.013960176 0.05444419 -0.029859979
-0.06878523 0.0627169 0.08817103 -0.0060282326 -0.11102764 0.014986803 -0.009156469 -0.09761916
0.009573281 -0.00081837777 -0.054577008 -0.09250988 -0.08073849 0.020018522 0.03882535 0.064980544
0.014962679 -0.028278407 -0.08027611 0.026819475 -0.0941558 -0.06105044 0.019822199 0.0075978525
0.03359027 -0.012106197 0.022841873 -0.026507815 0.07271561 0.014426807 -0.03543536 -0.0038855784
-0.04693173 -0.054710202 -0.0017499898 -0.051945347 -0.046855114 0.07106867 0.017001485 -0.046413746
0.013434071 -0.11363862 0.055700723 -0.11105577 -0.072092034 0.004420201 -0.020868752 -0.023993216
0.038183898 -0.008012177 -0.037134748 -0.013689603 0.063464396 0.007398956 -0.06622148 -0.062442128
-0.105598085 -0.017844254 0.05087112 -0.08600616 -0.091423966 -0.029889535 -0.07112427 -0.08493579
-0.07108653 0.036155377 -0.048933703 0.025711212 -0.089871116 0.078850865 0.07822144 -0.100950144
-0.041305184 0.017638996 -0.07167653 -0.1062466 -0.0013702561 0.06339502 -0.0012953827 -0.08241084
0.038501583 -0.017436378 -0.05530432 -0.05590106 0.02488289 -0.040386394 0.0677582 -0.056623723
0.05317209 -0.06450266 0.057977803 0.02154824 0.01860478 -0.05863757 -0.066458754 -0.08425803
-0.09227511 0.02082697 -0.106830925 -0.111118935 -0.016443633 -0.11006351 -0.04451361 -0.0889711

decoder.2.bias f4 [784]
00000000: 0ef5 733d 03ac 48bd 5947 cfbd e707 dd3c
00000010: b27e 50bd fa22 06bd a0eb 85bd fc0d 11bd
00000020: e793 b5bd b93b 28bd 93d0 1fbc f4eb fe3c
00000030: 5aad e3bd 523e dbbd 896c 05bd 3bb3 f9bc
00000040: 6d35 4cbd e0bc 2dbd 168e 043c e18b c6bd
00000050: da84 4d3d fcb6 903c b3ae bbbb d703 0e3d
00000060: c36e 453d 81da 68bc 2d04 493d fcb6 293d
00000070: 0907 043d 39ee 303c 38dd 3ebd c687 78bc
00000080: 5cb3 21bd c452 c1bd 4c55 9cbd fe41 2f3d
00000090: 1e3f 05ba 336f 3a3d e6e1 6dbd c641 71bd
000000a0: 7269 083c d29a e73c 89e0 803d fa17 be3c
000000b0: de11 ebbc a777 a33c f7f8 b0bd 4b36 043d
000000c0: 2562 7ebd 2a85 753c 79bf 7cbd f4f9 babc
000000d0: 346e a2bd 9120 d7bd d9f6 98bd ba71 feba
000000e0: ff0c abbd 917c 16bd 9d8c 913c 3bc0 6c3d
000000f0: bac9 23bd 40e6 d4bd 20c4 4e3d 1afd 77bc
00000100: 0465 5a3d 4027 e9bc 2080 6abd f809 8fba
00000110: e386 a0bd 9b14 863d 17aa d8bb 2a07 6cbd
00000120: ad1b 7ebd fb93 3c3d a7e3 92bd 59b8 76bd
00000130: 007f 64bd 280f 58bc 91b1 67bd 11f1 84bc
00000140: a190 2f3d 0d14 c9bd 4ee0 8e3c 0c97 a7bd
00000150: 6903 22bd 0d56 b23c 8c0d 1dbc ca56 5dbb
00000160: 32d8 91bd 0b59 94bc 125b 863c 1329 4c3d
00000170: 5fc9 123d 6f45 7fbd 0da4 47bc f8b7 093d
00000180: 924e b6bc 54d5 163c 03e6 65bd c35f b5bd
00000190: e258 ebbd fd70 2c3d f430 5e3d 2bd0 1d3d
000001a0: 2b7f d33c 301d 673a 90f9 17bd e5d2 e4bd
000001b0: dc62 833c 568d d5bd ad23 a2bd 221b 5abd
000001c0: 3a9e 97bd 0f61 d9bd 92ba 94bd 2969 f3bc
000001d0: f33c 1cbd 70ff 4c3d fb5d b9bc 7a5f 1aba
000001e0: 8ed5 3a3d c69c afbd f3f1 10bc 68fe 6bbd
000001f0: b52e a0bd 2594 1bbd ecfd d5bc 518b d33c
00000200: d140 433d 9424 dbbd 0823 cabd c7f2 f4bb
00000210: 3ca9 7a3c b438 633d 7274 593d 18d2 adbd
00000220: 5220 9cbd 27b0 c93c 5673 64bd cfd6 873b
00000230: fb08 443d 3c35 2fbd 9276 77bd 19da 2c3d
00000240: 5aa6 dc3c eeb2 2ebb 466a c0bd ed48 b0bc
00000250: 1b0e 1cbd c787 363d 9b7a 12bd 6d0f fc3c
00000260: 7610 d3bd 3dd8 993c 617f abbc a395 1b3d
00000270: 487e 4fbd 77a9 c6bc c706 3e3d 868c 283d
00000280: 2a0a 56bd e0ba 9bbc 7c9b 1fbd 0dc9 813d
00000290: 3e39 873c 55f5 0a3d 20de 92bd db1a ee3c
000002a0: 3ebc dfbd 2f64 80bd 2b97 323c e010 70bd
000002b0: a8a5 333c a074 aabd 6d5f 87bd bff4 5d3d
000002c0: 8791 513d aa3d c4bc c646 523d 4b3a eabd
000002d0: a0bc 93bc be9d f3bd 2c14 8ebd 902f 71bd
000002e0: 81de 6ebd f1eb b4bd 94c4 79bd 3be0 f1bc
000002f0: 36ad c2bd 19f5 8ebd 3376 e2bc 82bd 9cbc
00000300: 331a adbd 8b97 90bc 3bb1 203d 345b e43c
00000310: f6a5 68bd c66a 93bd f13e ba3c e462 ba3c
00000320: 52f0 afbd 2947 513d dc03 34bd b67c a2bd
00000330: 6e06 2dbd c7b5 093d 4c44 b2bd 23d7 3f3d
00000340: d9f8 f1bc 890c f8bd 9ae0 32bc 8b73 f83b
00000350: e0f0 533d 17fc 063d 4cad dabd d2d0 dfbd
00000360: 9472 61bd 1e70 1b3c 34ae 033c 2de9 86bd
00000370: 5955 ddbd ed9e e6bc 3309 4d3d c151 51bc
00000380: ea5e 783d 30e5 8dbc fc86 803d 89fc 453c
00000390: 694c 813d 772d a1bd a22e 17bc 3812 91bd
000003a0: 491a ba3c 5409 bfbb 4a13 b9bd 431a b1bd
000003b0: bf09 9dbd 931a 0dbd b858 94bc a0e2 07bd
000003c0: 0f0a d5bd e238 96bc 338b d7bd 9733 d23c
000003d0: 0828 aabd 28ee a7bd 08bf 50bd 1640 c6bc
000003e0: f464 bd3c 358f babd 92a6 9c3c 3e0a b0bd
000003f0: 163e e7bc 6545 663d 392c b5bd 44b7 82bc
0.059559874 -0.04899217 -0.1012103 0.026981307 -0.050902076 -0.0327482 -0.065390825 -0.035413727
-0.08866101 -0.04107258 -0.009754318 0.03111837 -0.111170486 -0.10705246 -0.03257421 -0.030480972
-0.04985564 -0.042416453 0.008090517 -0.096946485 0.050175525 0.017665379 -0.005727613 0.03467163
0.048201334 -0.014212252 0.049076248 0.041434273 0.03223327 0.010798984 -0.04659769 -0.01516909
-0.03947769 -0.094396144 -0.076334566 0.042787544 -0.00050829526 0.045516204 -0.05807676 -0.058900617
0.008325921 0.028272066 0.06292827 0.023204792 -0.028695043 0.019954516 -0.08641236 0.03227834
-0.062105317 0.014985362 -0.06170604 -0.022824265 -0.07931176 -0.105042584 -0.074689575 -0.0019412555
-0.08352088 -0.03673989 0.017767245 0.057800513 -0.039987303 -0.10395479 0.050480008 -0.015136028
0.053318992 -0.028461099 -0.057251096 -0.0010913005 -0.078382276 0.06546899 -0.006612073 -0.05762402
-0.062038112 0.046039563 -0.071723275 -0.0602344 -0.05578518 -0.013187207 -0.056565825 -0.01622823
0.04286254 -0.098182775 0.017440941 -0.08183107 -0.039554033 0.021769548 -0.009585749 -0.0033773654
-0.07121314 -0.018108865 0.016400848 0.04984386 0.035836574 -0.062322076 -0.012185109 0.033622712
-0.022254262 0.009206135 -0.05612756 -0.08856156 -0.114915624 0.04209994 0.054245904 0.038528603
0.025817474 0.00088163 -0.037103236 -0.111730374 0.01603835 -0.10427348 -0.07916961 -0.053248532
-0.07403226 -0.106142156 -0.07262148 -0.02971323 -0.038144063 0.05004829 -0.022627821 -0.0005888861
0.045613818 -0.08574824 -0.008846748 -0.057615668 -0.07821409 -0.03798308 -0.026122056 0.025823267
0.047669236 -0.10700336 -0.09869963 -0.0074752304 0.015299138 0.055474 0.053089567 -0.08487338
-0.07623352 0.024620129 -0.055774055 0.00414548 0.047860127 -0.042775378 -0.06041581 0.04220018
0.026934791 -0.0026656943 -0.0939527 -0.021519149 -0.03809939 0.04456308 -0.035761457 0.030769074
-0.10305874 0.018779868 -0.020934762 0.0379845 -0.05065754 -0.024250729 0.046393182 0.04114964
-0.052255787 -0.019010007 -0.03896664 0.063371755 0.016506787 0.033925373 -0.07171273 0.02906554
-0.10924576 -0.062691085 0.010900299 -0.058609843 0.0109647885 -0.08323026 -0.06609998 0.054188486
0.051164176 -0.023955185 0.051337026 -0.114369 -0.01803428 -0.11895321 -0.06937441 -0.05888325
-0.058317665 -0.08834065 -0.060978487 -0.029525867 -0.095056936 -0.069803424 -0.027644252 -0.019133333
-0.08452263 -0.017650386 0.03923152 0.02787552 -0.056798898 -0.071981 0.02273509 0.022752233
-0.08590759 0.051093254 -0.043948993 -0.07933943 -0.04224246 0.033620622 -0.08704433 0.04683603
-0.029537605 -0.12111766 -0.010917807 0.007582133 0.05174339 0.032955255 -0.10677585 -0.10928501
-0.05504091 0.00948718 0.008037139 -0.065874435 -0.108072944 -0.028151954 0.0500576 -0.012775839
0.060637392 -0.0173212 0.06275746 0.012084135 0.06313402 -0.0787 -0.009227427 -0.07083553
0.022717612 -0.0058299694 -0.09036882 -0.08647587 -0.076678745 -0.03444917 -0.01810871 -0.03317511
-0.10402309 -0.01833767 -0.10524597 0.025659366 -0.083084166 -0.081997216 -0.05096343 -0.02420048
0.023119427 -0.09109346 0.019122396 -0.085957035 -0.028227847 0.056218524 -0.088463254 -0.015956528
