autoencoder_mpi/autoencoder_ddp.pth (torch, 843965 bytes, 8 tensors)

encoder_PIPE1.0.weight f4 [128, 784]
0.022004278 0.0040889555 0.008558849 -0.00041235346 -0.012688948 -0.032354917 -0.03550895 0.018219864
-0.017366044 0.017953753 0.0065409034 0.033792455 0.004230783 0.029902942 -0.009547072 -0.014803274
-0.034299403 0.00059340685 -0.026897827 -0.03222708 -0.0063284044 -0.021046104 0.020678291 0.01754771
0.02474492 0.014115296 0.02741798 0.008772893 -0.020786023 0.006590371 -0.019050922 -0.02801108
-0.029715683 0.02213347 -0.013899074 -0.015013685 -0.051151924 0.0234296 0.015863989 0.033273168
0.032535102 0.023944283 0.087096095 0.096222535 0.0923106 0.097767636 0.0500907 0.043591198
0.03627379 0.03558769 0.026562095 0.009985373 -0.021417363 0.011659052 0.02842839 0.02104308
0.025749732 -0.023212353 0.012914262 0.024327781 -0.03673616 -0.023260323 -0.0026513853 -0.024462253
-0.024102839 -0.03839365 0.033072617 0.012522739 0.048513666 0.084721334 0.104818024 0.10306768
0.13407315 0.11997618 0.13845004 0.124570884 0.039089978 0.023187125 0.038285982 0.014767835
0.022002822 0.013779215 0.021630527 -0.034599252 -0.03434345 0.028249823 -0.008721148 0.023364685
0.028939154 0.062006075 0.05245795 0.037931345 0.017144905 0.004440981 0.009657215 0.04707556
0.060381103 0.076731406 0.069548376 0.07905397 0.027926948 0.1119999 0.115541436 0.039242808
-0.011874302 -0.041526727 -0.035711933 0.0073573124 -0.05508345 0.012971464 -0.04943798 -0.003251774
0.0024971026 0.03930395 0.029951949 0.07641417 0.031325344 0.047356997 0.020564212 -0.020733332
-0.019145673 -0.05332825 -0.010196498 -0.027299838 -0.004328124 0.039093476 0.027736006 0.09315251
0.13925923 0.111091 0.05687962 0.087806225 0.053403847 0.06656124 0.06668643 0.03412815
0.04023772 0.0859618 0.003991173 0.033500273 0.035196595 -0.005756966 -0.030069258 0.06581632
0.060991287 -0.008166265 -0.014867036 -0.05805623 -0.076812126 -0.061996724 -0.07197524 -0.08718401
-0.035193305 -0.014692088 0.021078944 0.0042512557 0.0719198 0.013893075 -0.017394459 -0.020233888
-0.007543234 0.012043304 0.05292539 0.028362287 0.06833664 0.11462252 0.044298485 0.06847201
-0.003318659 -0.0028377129 0.03849968 0.05319085 0.019654596 0.034138627 -0.0036703444 -0.017873133
-0.06394346 -0.10325669 -0.08813073 -0.0993939 -0.10704828 -0.12687151 -0.020214597 0.012634344
-0.035025332 -0.04414421 -0.01749597 0.002880921 0.04045335 0.050140373 0.016251007 0.059925526
0.12083829 0.13153164 0.07584096 0.037692152 -0.029692821 -0.011157286 -0.0026091489 -0.0012569983
-0.006245975 0.050022263 0.0073335427 -0.019633166 -0.016172204 -0.10221115 -0.13756771 -0.12644027
-0.101018585 -0.054764107 -0.008820881 0.045685176 0.027278135 -0.05230115 -0.019525634 -0.046402693
-0.033077613 -0.007210811 0.015397914 0.034152754 0.13557075 0.13774759 0.064291365 0.04995672
-0.008759918 0.04410793 -0.010637722 0.04323765 0.053108484 -0.016692458 -0.022686504 -0.061452966
-0.0905915 -0.12691967 -0.16640303 -0.18935797 -0.1388156 0.018071473 0.028890312 0.06379278
0.115669094 -0.000861539 0.01132564 -0.04418356 0.004774971 0.01646658 0.0049777874 0.088457756
0.1655181 0.13780345 0.056212906 -0.0057601933 0.011813075 0.05585181 0.0016039845 0.02602614
00000000: 5142 b43c a5fc 853b 6a3a 0c3c 2531 d8b9
00000010: 4ee5 4fbc 9786 04bd d571 11bd d341 953c
00000020: 3c43 8ebc c013 933c 1355 d63b f569 0a3d
00000030: 61a2 8a3b 04f7 f43c 536b 1cbc 6e89 72bc
00000040: 887d 0cbd dc8e 1b3a d558 dcbc 8b00 04bd
00000050: 815e cfbb e168 acbc 8565 a93c 37c0 8f3c
00000060: dcb5 ca3c d843 673c ac9b e03c 2ebc 0f3c
00000070: 7347 aabc 0af4 d73b ae10 9cbc 7e77 e5bc
00000080: 4e6e f3bc 4051 b53c f1b8 63bc f6fb 75bc
00000090: ae84 51bd 6fef bf3c 32f5 813c 7249 083d
000000a0: 8743 053d cd26 c43c 705f b23d 5210 c53d
000000b0: 570d bd3d 663a c83d e82b 4d3d af8c 323d
000000c0: d393 143d 66c4 113d c098 d93c b199 233c
000000d0: 7773 afbc 9c05 3f3c a8e2 e83c 8a62 ac3c
000000e0: 1af1 d23c d527 bebc 5796 533c 0e4b c73c
000000f0: a878 16bd 6f8c bebc ddc2 2dbb 1065 c8bc
00000100: 5173 c5bc a942 1dbd 2777 073d 2d2c 4d3c
00000110: 44b6 463d 6182 ad3d d5aa d63d 2615 d33d
00000120: 794a 093e 12b6 f53d d9c5 0d3e 051f ff3d
00000130: d01c 203d edf2 bd3c c3d1 1c3d caf4 713c
00000140: 433f b43c 37c2 613c 8132 b13c f2b7 0dbd
00000150: b8ab 0cbd 2c6c e73c 25e3 0ebc 4c67 bf3c
00000160: ce11 ed3c 15fa 7d3d 26de 563d e65d 1b3d
00000170: 7973 8c3c a685 913b 4c39 1e3c 4dd2 403d
00000180: 2d52 773d 5b25 9d3d 616f 8e3d 0ce7 a13d
00000190: 0ec7 e43c 3460 e53d fda0 ec3d 11bd 203d
000001a0: 6f8c 42bc ee17 2abd ad46 12bd 9c15 f13b
000001b0: 2f9f 61bd 4386 543c 7b7f 4abd b71b 55bb
000001c0: 6ea6 233b 2efd 203d ca5d f53c 087f 9c3d
000001d0: 014f 003d 69f9 413d 4776 a83c f3d8 a9bc
000001e0: 63d7 9cbc b96e 5abd 360f 27bc e9a3 dfbc
000001f0: f0d2 8dbb 7b20 203d 9f36 e33c bec6 be3d
00000200: f999 0e3e ae83 e33d 9bfa 683d c0d3 b33d
00000210: febd 5a3d 4251 883d e592 883d f6c9 0b3d
00000220: 4fd0 243d bd0c b03d 63c8 823b 9537 093d
00000230: 4e2a 103d eea4 bcbb ce53 f6bc b5ca 863d
00000240: 00d2 793d cccb 05bc de94 73bc 5fcc 6dbd
00000250: ad4f 9dbd 47f0 7dbd c167 93bd 888d b2bd
00000260: db26 10bd 15b7 70bc c0ad ac3c 1e4e 8b3b
00000270: b04a 933d c89f 633c d37e 8ebc 8ac1 a5bc
00000280: 3c2d f7bb 4751 453c 4bc8 583d 0758 e83c
00000290: 15f4 8b3d 36bf ea3d 5472 353d 0e3b 8c3d
000002a0: dc7d 59bb ecf8 39bb d7b1 1d3d a6de 593d
000002b0: ad02 a13c f2d4 0b3d 298a 70bb ad6a 92bc
000002c0: caf4 82bd 3e78 d3bd e27d b4bd 078f cbbd
000002d0: 213c dbbd 9bea 01be 1599 a5bc 4800 4f3c
000002e0: b976 0fbd 8fd0 34bd b553 8fbc d5cd 3c3b
000002f0: 69b2 253d fe5f 4d3d d520 853c 7874 753d
00000300: 117a f73d 3bb0 063e 8152 9b3d 1663 1a3d
00000310: 5c3e f3bc 0dcd 36bc 41fe 2abb ddc1 a4ba
00000320: 09ab ccbb 25e4 4c3d 374e f03b bcd5 a0bc
00000330: 927b 84bc 1454 d1bd 8dde 0cbe 8f79 01be
00000340: d5e2 cebd 5450 60bd 7585 10bc 6120 3b3d
00000350: 6576 df3c bb39 56bd 39f4 9fbc c010 3ebd
00000360: 647c 07bd ab48 ecbb 8847 7c3c c2e3 0b3d
00000370: 0fd3 0a3e b40d 0d3e 31ab 833d 6b9f 4c3d
00000380: c285 0fbc 84aa 343d d749 2ebc f619 313d
00000390: 4888 593d 9fbe 88bc 0cd9 b9bc 1bb6 7bbd
000003a0: 0988 b9bd 3bf7 01be 8e65 2abe 0ee7 41be
000003b0: ad25 0ebe a00a 943c 60ab ec3c caa5 823d
000003c0: ebe3 ec3d e7d8 61ba 2d8f 393c d2f9 34bd
000003d0: 5c77 9c3b ece4 863c b51c a33b 5729 b53d
000003e0: 947d 293e 591c 0d3e 813f 663d 01c0 bcbb
000003f0: a18b 413c dec4 643d ca3c d23a c634 d53c

encoder_PIPE1.0.bias f4 [128]
0.26032376 0.06594679 0.039394453 0.01979145 -0.03770751 0.058243804 -0.035628073 -0.009088791
0.04713216 -0.016389973 0.0344481 0.06449772 0.029571692 0.021980131 0.0336155 0.048247196
0.056420214 0.22850524 0.022405773 0.019898325 0.016281646 0.07027296 0.21895906 0.00739728
0.076102555 0.23821963 0.022841366 0.053121593 0.068004146 0.020338794 0.022297582 0.053128652
0.03289768 0.020292824 0.07040023 0.0028216308 0.0017486417 0.0044998685 0.08134751 0.007996586
0.04767477 0.03803898 0.26903525 0.014177327 0.037480142 0.021931924 0.05002108 -0.022532236
0.07929791 0.051026896 0.05820541 0.052934844 0.051011365 0.07525312 0.2974803 0.084358975
-0.03713702 0.0119840065 0.026648022 0.04237926 0.058065265 0.048925247 0.039430607 0.045136213
0.015568259 0.0059561776 0.028756307 0.08737098 0.04959539 0.023686796 0.074391335 -0.022458749
-0.04370342 0.06494968 0.06917321 0.012380074 0.061652787 0.04183976 0.01248892 0.041524637
0.31081018 0.015873969 0.05210445 0.054022998 0.07572202 -0.026048038 -0.01848703 0.039870046
0.09464611 0.21046746 0.029210977 0.054176163 0.055973932 0.0044670254 0.19505067 0.043591432
0.07395103 0.07328035 0.33535045 -0.017816689 0.015612488 0.07317001 -0.0419578 0.037165012
0.015965695 0.24195682 0.022976737 0.04901492 -0.011860287 0.017835597 0.05275709 0.052523524
0.27666318 0.021948528 0.038261577 0.073978364 0.05968298 -0.040185977 0.020516813 -0.04308908
-0.019600723 0.04606199 0.21610089 0.08183564 0.057882678 -0.03869427 0.3049783 0.018985797
00000000: 2849 853e 1c0f 873d 145c 213d ae21 a23c
00000010: 3173 1abd 0e91 6e3d beee 11bd 27e9 14bc
00000020: a70d 413d 4444 86bc 7319 0d3d 6117 843d
00000030: 5540 f23c ad0f b43c 68b0 093d da9e 453d
00000040: e218 673d 47fd 693e 508c b73c d001 a33c
00000050: 1661 853c 45eb 8f3d ce36 603e e264 f23b
00000060: a8db 9b3d d9ef 733e d11d bb3c 0796 593d
00000070: c245 8b3d 8b9d a63c 6ba9 b63c 6e9d 593d
00000080: b8bf 063d 233d a63c ff2d 903d 1ceb 383b
00000090: ae32 e53a a273 933b 8699 a63d 1d04 033c
000000a0: 9f46 433d c3ce 1b3d fdbe 893e 0548 683c
000000b0: c784 193d 94aa b33c e7e2 4c3d 8695 b8bc
000000c0: f166 a23d 9401 513d cc68 6e3d 35d2 583d
000000d0: 4bf1 503d 4f1e 9a3d 564f 983e 66c4 ac3d
000000e0: fd1c 18bd 9158 443c f44c da3c e095 2d3d
000000f0: d8d5 6d3d d765 483d fd81 213d c0e0 383d
00000100: 0312 7f3c 0a2c c33b 5992 eb3c 8eef b23d
00000110: 8924 4b3d d00a c23c 7c5a 983d 69fb b7bc
00000120: 5b02 33bd 5604 853d afaa 8d3d cbd5 4a3c
00000130: a287 7c3d 2b60 2b3d 549e 4c3c bd15 2a3d
00000140: 8322 9f3e 200a 823c 7a6b 553d 3847 5d3d
00000150: 2514 9b3d b262 d5bc 1d72 97bc c64e 233d
00000160: d2d5 c13d c884 573e dc4b ef3c d3e7 5d3d
00000170: ec44 653d 2060 923b 5dbb 473e ee8c 323d
00000180: a373 973d 0214 963d 0eb3 ab3e 4ef4 91bc
00000190: 85cb 7f3c 28da 953d f1db 2bbd 573a 183d
000001a0: 7dca 823c 87c3 773e b639 bc3c dec3 483d
000001b0: a651 42bc f51b 923c d217 583d e822 573d
000001c0: cca6 8d3e 66cd b33c 2cb8 1c3d f881 973d
000001d0: 2476 743d 0d9a 24bd e012 a83c 2d7e 30bd
000001e0: b291 a0bc 7fab 3c3d 8d49 5d3e 7299 a73d
000001f0: 6316 6d3d e27d 1ebd 1e26 9c3e 1a88 9b3c

encoder_PIPE2.0.weight f4 [32, 128]
0.17853954 0.07934254 0.04670689 0.052263837 -0.07100582 -0.015233156 0.07921743 -0.020993164
0.089123465 0.032974847 0.09113379 0.03902618 0.07787701 -0.09203219 0.03909078 -0.014209232
0.066933505 0.057805926 0.053882286 -0.07903623 -0.004333884 0.03149384 0.12305473 -0.0715502
-0.07773742 0.2608552 -0.04314946 -0.024331465 0.01946289 -0.046487737 0.08588041 -0.0043401867
0.07488949 -0.022249784 -0.016500045 0.038445055 0.031481493 0.035202302 -0.050227962 0.04304285
0.01519197 -0.0062985616 0.26114374 -0.060341466 -0.025157388 0.1021427 0.017821932 0.061389137
-0.003004915 0.0021731802 0.042064384 0.08344826 0.008455791 0.04589504 -0.036274172 -0.00077249255
-0.06249416 -0.047959745 0.030027023 -0.073301755 -0.022837726 -0.06544195 -0.068496205 0.055649128
0.054835357 0.015635667 0.07707943 0.017908648 -0.050989747 0.044273958 -0.01677561 0.020648938
0.03788747 -0.070975535 0.05583842 -0.011207115 0.025785308 0.003466914 0.026632447 0.014231491
0.025625128 -0.067325264 0.06918675 -0.07797396 -0.00056833366 0.026425155 -0.07204877 0.066163175
0.10684876 0.042026844 -0.017097104 0.095179036 -0.06391015 0.07558246 0.12734213 0.027742984
0.022943571 0.008444911 0.14505386 -0.098821685 -0.01911533 0.038378894 -0.030247359 0.06648464
0.06181365 0.14147283 -0.035085164 -0.06483304 -0.040566634 0.080743596 0.05968109 0.04127482
0.24420358 -0.020520022 -0.035093285 0.08426328 0.031778608 -0.015816536 0.008747027 -0.07627078
0.08403664 -0.027919777 0.29588884 0.058946088 0.10204898 -0.0076832017 -0.17342709 -0.06934025
0.26727352 -0.053626504 0.06997071 -0.067149326 0.07839489 -0.11845587 -0.07758213 -0.0067622075
-0.07315382 -0.08968333 -0.00087667414 -0.09837432 -0.09463872 0.0035838063 -0.07203433 -0.058860656
0.059119016 0.10117223 -0.050595026 -0.0015066094 0.034104846 0.023582121 -0.03126328 -0.062058702
0.06674793 -0.07045269 -0.042758893 -0.09057936 -0.04647617 0.014957249 -0.08370497 -0.06552074
0.05402783 -0.089818664 0.008860333 0.055865422 -0.071444996 -0.07618856 0.06107161 -0.011211321
0.03221771 0.055761185 0.1716412 0.020134034 0.07040999 -0.10729907 0.017396204 -0.03821955
-0.06546781 -0.06350756 -0.04014752 0.04096747 -0.05968372 0.03981887 0.3005327 0.16912267
-0.037566543 0.06776217 0.06144396 -0.02974161 0.06920659 0.014903903 -0.09379121 0.10932116
-0.09615773 -0.06315046 0.039323866 0.041404396 -0.029498067 -0.012139167 0.08256089 0.043662727
-0.036221303 -0.0637913 -0.0957725 0.003493118 -0.020847153 0.010076438 -0.013595271 -0.015812473
-0.215006 0.0074213315 -0.06669355 0.08410033 0.051338434 -0.023339476 -0.08091046 -0.07646061
0.25974426 0.0853423 -0.12302607 -0.010534087 -0.015008693 -0.06164221 -0.1720739 0.04032235
-0.064440586 -0.06405259 0.15627307 -0.0023689538 -0.033873603 -0.07462963 0.06451328 -0.037714295
-0.071567416 -0.005461252 -0.101068355 -0.073376216 0.026137777 0.017205527 -0.069028005 0.032420952
0.067754656 0.047080994 -0.042946033 0.004178158 -0.03880853 0.06423913 -0.09232748 0.05032368
0.035565566 -0.028227802 0.15916373 -0.01743728 -0.1037576 0.06571641 -0.1477467 0.033807226
00000000: 12d3 363e 577e a23d b94f 3f3d 9b12 563d
00000010: 806b 91bd 7d94 79bc bf3c a23d dbf9 abbc
00000020: 5d86 b63d a210 073d 5aa4 ba3d ead9 1f3d
00000030: fb7d 9f3d 5f7b bcbd a71d 203d d7cd 68bc
00000040: 6f14 893d e8c5 6c3d acb3 5c3d bfdd a1bd
00000050: 4103 8ebb afff 003d 1e04 fc3d e988 92bd
00000060: cc34 9fbd d08e 853e 7dbd 30bd c852 c7bc
00000070: a470 9f3c ed69 3ebd 12e2 af3d 2038 8ebb
00000080: a95f 993d 2e45 b6bc 1a2b 87bc 9078 1d3d
00000090: bdf2 003d 4a30 103d d6bb 4dbd b34d 303d
000000a0: bee7 783c 2a64 cebb a2b4 853e 9d28 77bd
000000b0: de16 cebc 3130 d13d 4dff 913c 2d73 7b3d
000000c0: 1cee 44bb ea6b 0e3b b44b 2c3d ece6 aa3d
000000d0: 288a 0a3c 70fc 3b3d 3a94 14bd 1981 4aba
000000e0: e0f9 7fbd 7071 44bd 3bfb f53c 3b1f 96bd
000000f0: 2f16 bbbc 6e06 86bd bd47 8cbd 57f0 633d
00000100: 0a9b 603d 5f16 803c d2db 9d3d 28b5 923c
00000110: a0da 50bd 9c58 353d 016d 89bc f627 a93c
00000120: e42f 1b3d 9f5b 91bd d4b6 643d 0c9e 37bc
00000130: b63b d33c 2a35 633b 4a2c da3c 332b 693c
00000140: caeb d13c d4e1 89bd c8b1 8d3d d0b0 9fbd
00000150: 3afc 14ba 9179 d83c 4e8e 93bd 8f80 873d
00000160: 86d3 da3d 5724 2c3d 3a0f 8cbc 3aed c23d
00000170: 53e3 82bd faca 9a3d fa65 023e 4145 e33c
00000180: 28f4 bb3c 865c 0a3c 0089 143e 0663 cabd
00000190: c197 9cbc 3033 1d3d 4fc9 f7bc 1929 883d
000001a0: 4f30 7d3d 41de 103e 76b5 0fbd 2fc7 84bd
000001b0: 3329 26bd e65c a53d 2974 743d c90f 293d
000001c0: 8110 7a3e 9b19 a8bc fabd 0fbd 3a92 ac3d
000001d0: 492a 023d ae91 81bc b14f 0f3c db33 9cbd
000001e0: 671b ac3d 04b8 e4bc be7e 973e 7471 713d
000001f0: 0eff d03d 5ec3 fbbb df96 31be 4302 8ebd
00000200: 13d8 883e 77a7 5bbd ce4c 8f3d 9685 89bd
00000210: 808d a03d fe98 f2bd 61e3 9ebd 8295 ddbb
00000220: acd1 95bd e5ab b7bd 9bd0 65ba 7a78 c9bd
00000230: f2d1 c1bd 4bde 6a3b bc86 93bd df17 71bd
00000240: c826 723d 6333 cf3d bb3c 4fbd 6c79 c5ba
00000250: 86b1 0b3d 4b2f c13c ed0d 00bd 4431 7ebd
00000260: 24b3 883d 8049 90bd f323 2fbd ac81 b9bd
00000270: cc5d 3ebd 400f 753c 836d abbd bd2f 86bd
00000280: 494c 5d3d d9f2 b7bd ee2a 113c 24d3 643d
00000290: c151 92bd bf08 9cbd 3926 7a3d b0af 37bc
000002a0: b8f6 033d d765 643d b6c2 2f3e 21f0 a43c
000002b0: 1d33 903d 9dbf dbbd 7c82 8e3c 1a8c 1cbd
000002c0: fd13 86bd 4010 82bd ba71 24bd 81cd 273d
000002d0: eb76 74bd 1d19 233d 6cdf 993e 7e2e 2d3e
000002e0: 60df 19bd e5c6 8a3d a9ac 7b3d ada4 f3bc
000002f0: 2fbc 8d3d 802f 743c 9b15 c0bd c6e3 df3d
00000300: 58ee c4bd 0755 81bd 1012 213d a897 293d
00000310: eea5 f1bc 5be3 46bc af15 a93d b0d7 323d
00000320: ca5c 14bd 03a5 82bd 5f24 c4bd ccec 643b
00000330: a6c7 aabc a517 253c b3be 5ebc 2989 81bc
00000340: 882a 5cbe a42e f33b a196 88bd cb3c ac3d
00000350: 4048 523d 6e32 bfbc 62b4 a5bd 6197 9cbd
00000360: 33fd 843e f2c7 ae3d 18f5 fbbd 2a97 2cbc
00000370: 05e7 75bc 8b7c 7cbd 2434 30be 0c29 253d
00000380: 6df9 83bd 012e 83bd 0c06 203e 7340 1bbb
00000390: 0cbf 0abd 6bd7 98bd 8a1f 843d 4e7a 1abd
000003a0: f091 92bd 4df4 b2bb edfc cebd 4546 96bd
000003b0: e41e d63c 9bf2 8c3c 8e5e 8dbd d5cb 043d
000003c0: f4c2 8a3d 00d8 403d 2ee8 2fbd eee8 883b
000003d0: b1f5 1ebd ce8f 833d 3116 bdbd 3420 4e3d
000003e0: 33ad 113d fe3d e7bc d1fb 223e a0d8 8ebc
000003f0: dd7e d4bd 5396 863d e94a 17be 7279 0a3d

encoder_PIPE2.0.bias f4 [32]
0.045665085 -0.034588486 0.13153386 0.04817887 0.11743691 0.030330194 -0.009598304 0.040314417
0.116961606 -0.05126036 0.11570746 0.012959761 0.0049356967 0.0009735433 0.014721406 0.008316947
-0.0039663007 0.030053165 0.044800594 0.088575445 0.07924855 0.12857524 0.12994936 -0.038903408
0.11963387 0.13776731 0.045560397 0.08368319 0.047393814 0.09443931 -0.013621033 0.01884099
00000000: 500b 3b3d a8ac 0dbd d0b0 063e 3557 453d
00000010: c382 f03d 0777 f83c 3442 1dbc bb20 253d
00000020: 9189 ef3d 62f6 51bd 08f8 ec3d 2d55 543c
00000030: a0bb a13b 6335 7f3a 0d32 713c ce43 083c
00000040: bef7 81bb 0e32 f63c d480 373d 0b67 b53d
00000050: 104d a23d 3aa9 033e 7211 053e 2e59 1fbd
00000060: 9a02 f53d e012 0d3e 8a9d 3a3d 1862 ab3d
00000070: 0420 423d 6669 c13d c12a 5fbc 6b58 9a3c

decoder_PIPE1.0.weight f4 [128, 32]
0.15103005 0.20895089 0.12273303 0.01278584 -0.08946817 -0.12728752 -0.18898273 -0.11317349
-0.080979995 -0.033545855 -0.10306499 -0.09750439 -0.060962304 0.020034768 -0.06078656 -0.12809421
0.19768283 0.0610342 -0.13297828 0.12721813 -0.11019799 -0.07379602 -0.113653734 -0.06263459
-0.00759349 0.115894265 0.06305727 0.043590594 0.075651325 0.095260166 -0.019170942 0.012619953
0.1481062 0.25249344 0.0048971884 0.11724896 -0.09152268 0.11302314 0.085515745 -0.13385433
-0.07060663 -0.064315625 0.07758517 0.103634275 0.14117795 -0.058765665 0.1623916 0.18873262
0.21225138 0.09881523 -0.046834003 -0.13178885 -0.012968646 -0.12527432 -0.101505645 -0.017731728
-0.0667873 0.17094722 -0.070159055 -0.04999998 0.14040457 -0.016042886 -0.12066259 0.0066473414
0.009537334 -0.17544115 0.18377979 -0.10848644 0.17800066 -0.10424395 0.16259739 0.16759108
0.13574581 -0.16026175 0.008351779 0.19052254 -0.16958846 0.06457138 -0.042472042 0.00656183
-0.008466753 -0.06150122 -0.12697485 0.17318667 -0.049368974 -0.0933438 0.0046537025 -0.15227945
-0.06888866 0.0497161 -0.13088088 0.20214248 -0.075768106 0.17774047 0.085400626 0.049122322
0.13307768 0.1737613 0.15487498 0.17130622 -0.036642864 -0.059519198 -0.17251408 -0.10258436
0.059502367 -0.041736335 0.1388378 -0.06317203 0.019668752 -0.0771928 0.0779399 -0.0014453366
0.16409847 -0.047288854 -0.039986257 -0.14510177 -0.04875904 -0.09622373 0.12614469 -0.14715956
-0.16382755 0.17889607 -0.083085574 -0.11531691 0.16571456 -0.13783538 -0.15608008 0.14230724
-0.1872526 -0.17139202 -0.13692941 0.17457777 -0.021271544 -0.108983144 0.07959944 -0.15243307
0.026786339 0.17099252 0.16833831 -0.07027855 -0.03235848 -0.019420505 -0.15801887 -0.0035352067
0.14947045 -0.08080967 0.16764148 0.06353717 -0.07036327 -0.11534598 0.0250153 0.0065131197
0.0065068793 0.05380699 -0.21050885 0.06052489 0.1109297 0.097348034 0.02587207 0.14973314
0.0037048277 -0.047253378 0.022323444 0.058460135 -0.03921789 0.07826713 0.0035007547 0.030847369
-0.06645649 0.13230757 -0.033111226 -0.1056734 -0.00922572 -0.12926742 0.14705381 0.05331595
-0.06315566 0.12115588 -0.05948126 -0.075336084 -0.10796825 0.07145988 -0.08862795 0.057040025
0.05359312 0.028214317 0.09693878 0.09790067 0.08261979 -0.011578301 -0.15205863 -0.063152194
0.17586336 -0.04707375 0.17517902 0.13941896 -0.053149328 0.049962368 0.055861183 0.056279305
-0.05960493 0.08445361 -0.11186554 -0.040891226 0.11306816 -0.009967288 -0.049695775 0.18371135
-0.015618391 -0.028457552 0.040010273 0.023078166 0.06370462 0.08755432 0.037441168 -0.08667401
-0.11812254 0.1863835 0.07286025 0.12023686 0.16395286 0.124104366 -0.19680336 -0.08615715
-0.05049297 0.07298513 -0.11112967 0.09938697 0.054331712 0.069080256 -0.17936033 0.067667365
0.017817438 0.098051585 0.01177352 0.16619533 0.110523894 -0.084054545 0.118007004 -0.104731105
-0.043875277 0.1190102 0.028394425 -0.012676092 -0.11008863 -0.13735308 -0.037914507 0.039863147
-0.11113123 0.14778344 0.14363217 0.14758448 0.004211883 0.07968404 -0.065541066 -0.10076392
00000000: 9fa7 1a3e 39f7 553e 745b fb3d b37b 513c
00000010: 173b b7bd a957 02be b084 41be 81c7 e7bd
00000020: d7d8 a5bd 6167 09bd bd13 d3bd 62b0 c7bd
00000030: 9cb3 79bd f41f a43c 54fb 78bd 212b 03be
00000040: 5e6d 4a3e fffe 793d 752b 08be 7845 023e
00000050: 7caf e1bd 5e22 97bd 4ac3 e8bd 9046 80bd
00000060: d0d2 f8bb f959 ed3d 2c24 813d 0d8c 323d
00000070: 15ef 9a3d c317 c33d 610c 9dbc ebc3 4e3c
00000080: 27a9 173e d246 813e 9878 a03b 3920 f03d
00000090: 3e70 bbbd ad78 e73d e122 af3d 1c11 09be
000000a0: 359a 90bd e9b7 83bd f9e4 9e3d 353e d43d
000000b0: f490 103e 44b4 70bd fc49 263e 2043 413e
000000c0: 6d58 593e a45f ca3d 03d5 3fbd a8f3 06be
000000d0: 727a 54bc e947 00be 31e2 cfbd 2142 91bc
000000e0: c8c7 88bd ca0c 2f3e 8daf 8fbd c7cc 4cbd
000000f0: 37c6 0f3e 5f6c 83bc f31d f7bd f1d1 d93b
00000100: 7a42 1c3c d8a6 33be c530 3c3e 232e debd
00000110: ce45 363e da7d d5bd ee7f 263e ff9c 2b3e
00000120: f300 0b3e a81b 24be e6d5 083c 5718 433e
00000130: 99a8 2dbe 003e 843d 2af7 2dbd 9f04 d73b
00000140: 23b8 0abc b4e8 7bbd b205 02be d957 313e
00000150: 1f37 4abd 092b bfbd 167e 983b 25ef 1bbe
00000160: 7f15 8dbd 1ca3 4b3d a305 06be 70fe 4e3e
00000170: 4f2c 9bbd 9901 363e 86e6 ae3d 7d34 493d
00000180: 8445 083e 7bee 313e 8c97 1e3e e66a 2f3e
00000190: d416 16bd 67ca 73bd 88a7 30be c017 d2bd
000001a0: c1b8 733d b8f3 2abd 7f2b 0e3e 5660 81bd
000001b0: 5d20 a13c 4217 9ebd f49e 9f3d 7371 bdba
000001c0: 6e09 283e f5b1 41bd a1c8 23bd 8f95 14be
000001d0: 8fb7 47bd f210 c5bd 132c 013e ffb0 16be
000001e0: 69c2 27be 8830 373e c528 aabd 462b ecbd
000001f0: 14b1 293e b824 0dbe 75d3 1fbe fdb8 113e
00000200: 25bf 3fbe 6481 2fbe 3937 0cbe 84c4 323e
00000210: a941 aebc 8e32 dfbd 0805 a33d 6a17 1cbe
00000220: 066f db3c aa18 2f3e e160 2c3e 33ee 8fbd
00000230: 538a 04bd c017 9fbc b3cf 21be edae 67bb
00000240: c80e 193e 8a7f a5bd 35aa 2b3e c71f 823d
00000250: 9e1a 90bd 833a ecbd e3ec cc3c 026c d53b
00000260: a937 d53b b864 5c3d a28f 57be f2e8 773d
00000270: 1c2f e33d 685e c73d aaf1 d33c a553 193e
00000280: b2cc 723b c28c 41bd a8df b63c e573 6f3d
00000290: f0a2 20bd 844a a03d eb6c 653b 9fb3 fc3c
000002a0: 571a 88bd a37b 073e a39f 07bd 4c6b d8bd
000002b0: 7927 17bc ae5e 04be 4695 163e d361 5a3d
000002c0: c157 81bd 9320 f83d 9fa2 73bd ce49 9abd
000002d0: 751e ddbd 8f59 923d 9282 b5bd cda2 693d
000002e0: 7684 5b3d b621 e73c d787 c63d 2580 c83d
000002f0: 9134 a93d eab2 3dbc 42b5 1bbe f055 81bd
00000300: 8615 343e 68d0 40bd 2162 333e d8c3 0e3e
00000310: 1cb3 59bd 57a5 4c3d b2ce 643d 2185 663d
00000320: 4d24 74bd 04f6 ac3d c319 e5bd 8f7d 27bd
00000330: 4890 e73d d64d 23bc cc8d 4bbd d41e 3c3e
00000340: 48e4 7fbc d01f e9bc d0e1 233d 6c0e bd3c
00000350: 9177 823d ae4f b33d e95b 193d 2582 b1bd
00000360: 3bea f1bd 51db 3e3e c137 953d be3e f63d
00000370: 42e3 273e 6e2a fe3d d286 49be 2973 b0bd
00000380: b7d1 4ebd 3a79 953d f497 e3bd 658b cb3d
00000390: ee8a 5e3d f379 8d3d 3caa 37be 3095 8a3d
000003a0: e0f5 913c 45cf c83d b9e5 403c 1c2f 2a3e
000003b0: 5a5a e23d ca24 acbd a8ad f13d 437d d6bd
000003c0: 90b6 33bd 9fbb f33d 6d9b e83c 62af 4fbc
000003d0: 2676 e1bd 49a6 0cbe 3e4c 1bbd 8a47 233d
000003e0: c598 e3bd 8b54 173e 5014 133e 6320 173e
000003f0: d603 8a3b 6331 a33d 653a 86bd 505d cebd

decoder_PIPE1.0.bias f4 [128]
-0.0064647533 0.025452588 -0.08578399 -0.06379862 0.08120577 -0.099350326 -0.09487814 0.13631788
0.11748921 0.0755587 0.11062224 -0.06328697 -0.10067723 0.029279914 -0.0015056176 -0.020306524
-0.12654322 -0.009726062 0.08425606 0.13940354 0.18070735 -0.0071984553 0.22946393 0.038239535
-0.052688085 0.20344777 0.14548893 0.112078525 0.15931803 0.19681697 -0.1420603 0.03275193
0.0645587 -0.14735462 -0.12662068 0.060355525 0.039478384 0.049923304 -0.09420472 -0.12614062
0.016705014 0.19721521 -0.079078056 0.07747066 -0.1158432 -0.013977872 0.06767046 -0.001097967
-0.043818437 -0.012452354 -0.066082954 0.042028356 -0.024459453 -0.13718897 0.020973975 0.031817406
-0.07788883 0.038655102 -0.11547235 -0.06386649 0.018790191 0.14903623 -0.07360239 0.063574836
0.059611984 7.1747774e-05 -0.12995502 -0.11487078 -0.06264814 -0.110803634 0.107497044 0.1992835
0.054764964 0.16098393 0.052647803 -0.03732719 0.0363254 -0.048864875 -0.09123931 -0.13926828
0.063714586 -0.011596223 0.14282534 0.046178054 0.053918917 -0.024479378 0.054645024 0.17484713
-0.08748138 0.15962459 0.067786 -0.09509568 -0.059337307 -0.036817476 0.14815216 -0.0458927
0.1323685 0.04936426 0.038992323 0.0035959396 0.2197322 0.24316664 0.17830803 0.17251663
-0.09398904 0.18446374 0.14254135 -0.135556 0.1734155 -0.10691194 -0.13808374 -0.04298373
-0.04152194 0.07615541 0.06723859 0.16700692 0.034511507 0.19365506 0.1786592 0.18470989
-0.11886763 -0.07850816 0.083281025 -0.03643706 0.00093856547 0.15836665 0.16345362 0.19224818
00000000: 48d6 d3bb f281 d03c 84af afbd daa8 82bd
00000010: 364f a63d 2f78 cbbd 784f c2bd ea96 0b3e
00000020: 2f9e f03d 85be 9a3d ea8d e23d 999c 81bd
00000030: dd2f cebd 6edc ef3c 2558 c5ba de59 a6bc
00000040: 8c94 01be 105a 1fbc 718e ac3d cdbf 0e3e
00000050: 590b 393e 05e1 ebbb 98f8 6a3e 0fa1 1c3d
00000060: 76cf 57bd 9d54 503e 0dfb 143e 6d89 e53d
00000070: 4424 233e 638a 493e 4178 11be e326 063d
00000080: 5a37 843d 21e4 16be daa8 01be 5b37 773d
00000090: 16b4 213d 617c 4c3d 67ee c0bd 022b 01be
000000a0: f4d8 883c c9f2 493e adf3 a1bd f0a8 9e3d
000000b0: 333f edbd 7203 65bc cf96 8a3d a9e9 8fba
000000c0: f67a 33bd f504 4cbc 8056 87bd ed25 2c3d
000000d0: 315f c8bc 447b 0cbe 9dd1 ab3c f852 023d
000000e0: 2e84 9fbd d054 1e3d c47c ecbd 6fcc 82bd
000000f0: e3ed 993c f49c 183e dabc 96bd 8633 823d
00000100: b22b 743d 4b77 9638 ee12 05be 5f41 ebbd
00000110: ab4d 80bd 04ed e2bd 6927 dc3d f910 4c3e
00000120: 3a51 603d f9d8 243e 39a5 573d 65e4 18bd
00000130: f1c9 143d 8926 48bd addb babd 589c 0ebe
00000140: cb7c 823d 16fe 3dbc ce40 123e 3325 3d3d
00000150: 15da 5c3d fa88 c8bc 76d3 5f3d 200b 333e
00000160: 7029 b3bd a174 233e 63d3 8a3d 86c1 c2bd
00000170: ad0b 73bd eccd 16bd 33b5 173e fcf9 3bbd
00000180: 9c8b 073e 2e32 4a3d 6ab6 1f3d dba9 6b3b
00000190: 7a01 613e ad00 793e 6196 363e 33a8 303e
000001a0: 537d c0bd 10e4 3c3e 5cf6 113e 31cf 0abe
000001b0: d593 313e a6f4 dabd d365 0dbe b50f 30bd
000001c0: e912 2abd 5ef7 9b3d 63b4 893d dd03 2b3e
000001d0: f05b 0d3d 834d 463e 70f2 363e 9724 3d3e
000001e0: df70 f3bd e3c8 a0bd 3e8f aa3d 073f 15bd
000001f0: 100a 763a de2a 223e 6360 273e b5dc 443e

decoder_PIPE2.0.weight f4 [784, 128]
-0.108285524 -0.03396109 -0.044613373 -0.08915706 -0.1300815 0.002199447 -0.086168006 -0.054713696
0.03940953 -0.020409632 -0.046320323 -0.033230573 -0.018676888 -0.00020487857 -0.033407863 -0.10616597
-0.0567794 -0.01929637 0.024768466 0.010409679 -0.08846329 -0.117833726 -0.073762804 -0.021448513
-0.022080963 0.01704473 -0.02163854 -0.09582854 -0.06277351 -0.051854674 0.0154900635 -0.032742612
-0.097140424 -0.028256776 -0.004084877 -0.0734587 -0.0347544 -0.05251663 -0.096433334 -0.01505208
-0.08206304 -0.05201672 -0.00870858 -0.023040093 -0.102872714 -0.03979052 -0.049165774 -0.13125104
-0.05309374 -0.12858576 -0.026825288 -0.09834706 -0.07108414 -0.002795186 0.021273693 -0.0054446305
-0.106459014 -0.11562578 -0.121531464 -0.13058801 0.0133295385 -0.045723066 -0.12181006 -0.04216505
0.011541168 -0.08293623 -0.021661688 -0.009304465 -0.11267273 -0.075527795 -0.088920675 -0.10611956
-0.078655936 -0.008569105 -0.054394342 0.028537113 -0.12855613 0.012610041 0.045029353 -0.062818356
-0.061614778 -0.082070656 -0.11447712 -0.04366595 -0.032180056 -0.105665945 -0.096462704 -0.021454062
-0.008680296 0.0061157313 -0.07875651 0.040699087 -0.04324995 -0.053524222 -0.0027030776 0.037179746
-0.061353356 -0.11841615 -0.07185104 0.027716035 -0.0973207 -0.11282537 -0.007655833 -0.06380612
-0.06608876 -0.027783588 -0.09966095 -0.029333733 -0.10813419 0.020626534 -0.021800088 -0.026033795
0.023693187 -0.032701742 -0.023219792 -0.00038525526 -0.1028052 -0.049773954 0.006594225 -0.012632839
-0.12183648 -0.020832399 -0.04144863 -0.078430414 -0.040244944 0.020239597 -0.102661364 -0.025652934
-0.009738578 -0.029786104 0.010692882 -0.023487108 -0.10447741 -0.040575147 -0.010889535 -0.07030059
-0.106787756 -0.09705648 -0.054021668 -0.100699775 -0.13237692 -0.047908768 -0.06335729 -0.03788187
-0.02366505 0.026214678 -0.07424347 -0.12622716 -0.11034219 -0.07569601 -0.12985234 -0.03652931
-0.11025849 -0.0954524 -0.07375495 0.010038073 -0.04239366 -0.08371115 -0.11048266 -0.10289201
0.044909947 -0.12520565 -0.119529925 0.04024487 0.02605562 -0.05482259 -0.06648116 -0.0058117555
-0.05429563 -0.0016415503 -0.059845183 -0.1268136 -0.10858562 -0.03620936 -0.019072328 -0.03907075
-0.084806964 -0.12142964 -0.053049725 -0.11571231 -0.0974756 -0.061491325 0.005534641 -0.11158457
-0.05146922 -0.055339362 -0.039095268 0.016751457 -0.0994787 -0.018232442 -0.047666844 0.015495985
-0.10924029 -0.089161746 0.022650687 -0.04019435 -0.07216334 -0.09834994 -0.031039577 -0.13490333
-0.07498175 -0.1085233 -0.054206066 -0.096402675 0.008003976 0.034295384 -0.013759793 -0.049548037
-0.1080842 -0.00743627 -0.057309102 -0.07087427 -0.117878504 0.02922437 -0.080258034 -0.055144936
-0.027634919 -0.036514025 0.02791613 -0.022606773 0.005537455 0.024408646 -0.08551024 -0.039125867
-0.06949346 -0.008419597 -0.043301363 -0.07678839 -0.13004898 -0.11784622 -0.0016467541 -0.09288601
-0.015681552 -0.11302887 0.004052734 0.025939725 -0.11143032 -0.11488488 -0.06832307 -0.13014714
-0.010883833 0.015806707 -0.025386225 -0.07221484 0.03924223 -0.046770778 -0.0648706 0.028487062
0.012102603 -0.09496718 -0.12075148 -0.09449044 0.04353959 -0.11480636 -0.022652185 -0.03863278
00000000: cdc4 ddbd c91a 0bbd 83bc 36bd fa97 b6bd
00000010: 1634 05be 9924 103b da78 b0bd 781b 60bd
00000020: e36b 213d 1a32 a7bc 61ba 3dbd c81c 08bd
00000030: 4600 99bc acd4 56b9 afd6 08bd 8b6d d9bd
00000040: 8491 68bd 6c13 9ebc 3de7 ca3c 5c8d 2a3c
00000050: 3e2c b5bd cf52 f1bd f410 97bd cbb4 afbc
00000060: 23e3 b4bc 64a1 8b3c 4f43 b1bc c141 c4bd
00000070: 668f 80bd 9165 54bd 09ca 7d3c 1e1d 06bd
00000080: 8ff1 c6bd c17a e7bc 6fda 85bb 8471 96bd
00000090: a15a 0ebd ae1b 57bd d77e c5bd 009d 76bc
000000a0: ab10 a8bd 7c0f 55bd 6fae 0ebc 94be bcbc
000000b0: eeae d2bd 62fb 22bd 0d62 49bd ac66 06be
000000c0: d278 59bd fcab 03be b5c0 dbbc 2f6a c9bd
000000d0: 9094 91bd 702f 37bb 2b46 ae3c df68 b2bb
000000e0: 2f07 dabd 35cd ecbd 7de5 f8bd ddb8 05be
000000f0: 2364 5a3c 1c48 3bbd 8e77 f9bd 42b5 2cbd
00000100: 2b17 3d3c 78da a9bd da73 b1bc c171 18bc
00000110: f6c0 e6bd 51ae 9abd 0b1c b6bd 3655 d9bd
00000120: 5d16 a1bd 6e65 0cbc 9acc 5ebd aac6 e93c
00000130: 38a4 03be 589a 4e3c b370 383d e9a6 80bd
00000140: c75f 7cbd a914 a8bd fb72 eabd 11db 32bd
00000150: 3ccf 03bd 6367 d8bd 3d8e c5bd 6ec0 afbc
00000160: cd37 0ebc 7966 c83b 184b a1bd 16b4 263d
00000170: dc26 31bd 373c 5bbd 1e26 31bb ca49 183d
00000180: a84d 7bbd 2b84 f2bd a326 93bd bd0c e33c
00000190: 1350 c7bd fd10 e7bd c8dd fabb c8ac 82bd
000001a0: 8b59 87bd 689a e3bc 0a1b ccbd 4c4d f0bc
000001b0: 7575 ddbd faf8 a83c 1996 b2bc d344 d5bc
000001c0: 3718 c23c 43f2 05bd 6f37 bebc 16fc c9b9
000001d0: 888b d2bd c6df 4bbd 5e14 d83b f8f9 4ebc
000001e0: 6885 f9bd b5a8 aabc 0ac6 29bd 20a0 a0bd
000001f0: e2d7 24bd 83cd a53c 1f40 d2bd 1a26 d2bc
00000200: 8f8e 1fbc fd01 f4bc 3331 2f3c 0968 c0bc
00000210: 41f8 d5bd 2032 26bd 056a 32bc c1f9 8fbd
00000220: 8ab3 dabd 8cc5 c6bd d345 5dbd af3b cebd
00000230: d18d 07be fc3b 44bd 78c1 81bd 052a 1bbd
00000240: 35dd c1bc 2ac0 d63c f60c 98bd b141 01be
00000250: 16fb e1bd 8206 9bbd 03f8 04be c29f 15bd
00000260: 34cf e1bd 8c7c c3bd d60c 97bd bb76 243c
00000270: f9a4 2dbd c070 abbd bc44 e2bd 0cb9 d2bd
00000280: 7ef3 373d e935 00be 1bcc f4bd ced7 243d
00000290: 9872 d53c a78d 60bd 4627 88bd 8a70 bebb
000002a0: 1865 5ebd 4a29 d7ba 3920 75bd 6ddb 01be
000002b0: 2362 debd 4450 14bd 923d 9cbc a708 20bd
000002c0: 46af adbd 1ab0 f8bd ab4a 59bd 93fa ecbd
000002d0: 4aa1 c7bd 54de 7bbd ef5b b53b 7386 e4bd
000002e0: 64d1 52bd 87ab 62bd 5c22 20bd 5a3a 893c
000002f0: 7dbb cbbd 345c 95bc 4f3e 43bd dfe2 7d3c
00000300: 60b9 dfbd 6f9a b6bd ef8d b93c d5a2 24bd
00000310: 60ca 93bd b16b c9bd b646 febc 1924 0abe
00000320: 0890 99bd 7741 debd 2e07 5ebd c46e c5bd
00000330: 1c23 033c 5179 0c3d c170 61bc e2f2 4abd
00000340: 405b ddbd f4ab f3bb f3bc 6abd 8726 91bd
00000350: 496a f1bd f267 ef3c 535e a4bd a8df 61bd
00000360: a062 e2bc bb8f 15bd 5eb0 e43c d731 b9bc
00000370: 8a73 b53b a4f4 c73c fe1f afbd 7242 20bd
00000380: 9652 8ebd 59f2 09bc c55c 31bd 3b43 9dbd
00000390: 8f2b 05be 5c59 f1bd e6d7 d7ba 053b bebd
000003a0: 9976 80bc ae7b e7bd cccc 843b 8c7f d43c
000003b0: 9435 e4bd c448 ebbd f7ec 8bbd 4b45 05be
000003c0: 1b52 32bc 117d 813c c6f6 cfbc 60e5 93bd
000003d0: 76bc 203d b792 3fbd e1da 84bd b35d e93c
000003e0: ff49 463c 277e c2bd 8d4c f7bd 3484 c1bd
000003f0: 9256 323d 991f ebbd 1391 b9bc 683d 1ebd

decoder_PIPE2.0.bias f4 [784]
0.040708203 -0.0770402 0.027516441 0.050126817 -0.024099603 -0.0075257784 -0.07484274 0.009185328
-0.03460175 0.03660716 0.023445189 0.023625454 -0.10174747 -0.11331339 -0.08119002 -0.10768271
-0.107647575 -0.056822766 -0.025437975 -0.031910725 -0.11251602 0.04732511 -0.056562472 0.009367569
-0.11478877 -0.064114265 0.052889075 0.05818218 0.015681306 -0.07573773 -0.048643436 0.018405601
-0.020651633 -0.036860723 -0.041221134 -0.058055237 -0.01784966 0.021109404 0.049267624 -0.10620919
0.02929089 -0.071338184 -0.07507237 0.042679477 -0.036986798 0.045120087 0.005657282 -0.05439613
0.00394707 -0.114275776 0.025580222 0.04154945 0.05455303 0.03463385 -0.010280892 -0.036371414
-0.00034577117 -0.016890492 -0.013451737 0.027763145 -0.00019215673 0.047730405 -0.067710385 -0.07508681
-0.008992972 0.036611013 0.046250027 -0.03787192 0.015367742 -0.08246635 -0.033272848 -0.005382089
-0.011526516 -0.020071995 0.029378593 -0.023444701 -0.021845158 -0.09468374 -0.085060224 -0.07786988
-0.041692346 0.039041746 -0.027190384 -0.041580975 0.017464174 -0.02103107 0.04184991 0.05507968
0.052452408 -0.028071905 -0.06832289 0.046831343 -0.103836976 -0.06597901 -0.06299638 0.057937782
-0.03971639 -0.04199547 -0.0021262614 -0.019273471 -0.11409529 -0.0808085 -0.04330425 -0.06502444
0.029797595 -0.02831943 -0.06885322 0.02438462 0.050433345 -0.04752228 -0.097193256 0.013716273
-0.021125928 -0.04887892 0.052120037 0.033329736 -0.10994359 0.011329364 -0.094036214 -0.009626947
0.031647347 0.04961026 -0.045625705 -0.08121065 -0.09928338 -0.12948598 0.03843186 0.008216677
-0.059025005 -0.051966276 0.017812207 -0.011585025 0.010281322 -0.097804315 0.0035450521 -0.005111386
-0.018825462 -0.036093686 -0.014121773 -0.07857478 0.005375494 0.0068756784 0.05695301 -0.04107362
-0.031188704 -0.10813483 -0.0324113 0.036036063 -0.041948922 -0.08066793 -0.07143269 -0.113041565
-0.0030455291 0.006595478 -0.03784723 0.02164533 -0.04534926 -0.07732011 -0.024392946 -0.032416202
-0.086495444 0.00081345596 -0.0209187 0.02168292 -0.047606677 0.052469116 0.031258572 0.01728993
-0.037217543 -0.06458724 -0.074349634 -0.02009207 -0.039372995 0.05471287 0.039159324 0.05855843
-0.11029669 -0.080634214 -0.056060433 0.011487923 -0.027921114 -0.046630085 -0.13144365 -0.02301388
-0.06183742 -0.03245176 -0.069809616 -0.05524952 -0.036649443 -0.06656652 -0.06705405 -0.11536307
0.01744258 0.02271057 -0.07014261 -0.08402012 -0.0436082 0.023545088 -0.1065921 -0.113161564
0.047511 -0.014060508 0.0061832364 0.023225008 -0.007584634 0.020174913 0.030501734 -0.07631548
-0.1929887 -0.09446438 -0.15382797 -0.161779 -0.11780844 -0.1206874 -0.15555845 -0.0049330853
0.0146287745 -0.04596843 0.013800075 -0.094482414 0.032438535 0.032896224 -0.08647105 0.025917996
-0.068259396 -0.11755515 -0.050992027 -0.10212738 0.04340842 -0.07534963 0.022605896 0.0118920375
0.02077255 0.02223674 -0.076435015 -0.11317773 -0.24095997 -0.21403661 -0.33989897 -0.26202103
-0.25094786 -0.30105513 -0.049860343 -0.104287185 0.047528405 0.042609125 -0.07759854 0.045804735
-0.090968 -0.10819092 -0.07014729 -5.253881e-05 -0.05816747 0.05364007 -0.0061814873 0.0046369396
00000000: a5bd 263d 41c7 9dbd 296a e13c c751 4d3d
00000010: 886c c5bc ce9a f6bb 2747 99bd 0f7e 163c
00000020: 91ba 0dbd 64f1 153d 2010 c03c 2b8a c13c
00000030: fa60 d0bd da10 e8bd f446 a6bd c188 dcbd
00000040: 5576 dcbd fdbe 68bd 4d63 d0bc d2b4 02bd
00000050: cd6e e6bd f9d7 413d 0dae 67bd 6f7a 193c
00000060: 6016 ebbd 574e 83bd 37a2 583d 7050 6e3d
00000070: 1576 803c 621c 9bbd 573e 47bd 58c7 963c
00000080: 9d2d a9bc 45fb 16bd 7ed7 28bd 54cb 6dbd
00000090: 7339 92bc a1ed ac3c d9cc 493d 3484 d9bd
000000a0: 73f3 ef3c c119 92bd 8bbf 99bd add0 2e3d
000000b0: 787f 17bd d7cf 383d b960 b93b 7ace 5ebd
000000c0: 6c56 813b 6b09 eabd 9d8d d13c c22f 2a3d
000000d0: ff72 5f3d 39dc 0d3d 3071 28bc 31fa 14bd
000000e0: 9f48 b5b9 ee5d 8abc ad64 5cbc 896f e33c
000000f0: ae7d 49b9 f580 433d beab 8abd 1dc7 99bd
00000100: 4257 13bc 6ef5 153d ab70 3d3d 961f 1bbd
00000110: fbc8 7b3c 1ee4 a8bd 1c49 08bd 3c5c b0bb
00000120: b6d9 3cbc 066e a4bc 60ab f03c 1a0f c0bc
00000130: 9ef4 b2bc 8ce9 c1bd 0e34 aebd 3e7a 9fbd
00000140: 98c5 2abd 3dea 1f3d 5ebe debc d050 2abd
00000150: 0711 8f3c 5a49 acbc d06a 2b3d 3b9b 613d
00000160: 56d8 563d 0df7 e5bc dfec 8bbd 39d2 3f3d
00000170: 7ba8 d4bd 0120 87bd 3f04 81bd 2b50 6d3d
00000180: a7ad 22bd 7103 2cbd bf58 0bbb 66e3 9dbc
00000190: cbaa e9bd ed7e a5bd cc5f 31bd 892b 85bd
000001a0: 161a f43c 26fe e7bc eb02 8dbd 41c2 c73c
000001b0: 3293 4e3d b9a6 42bd 420d c7bd 38ba 603c
000001c0: 4810 adbc 4335 48bd d27b 553d c384 083d
000001d0: 1b2a e1bd cc9e 393c 0f96 c0bd 58ba 1dbc
000001e0: a6a0 013d 2134 4b3d 05e2 3abd c551 a6bd
000001f0: 1655 cbbd f997 04be ba6a 1d3d 3e9f 063c
00000200: 34c4 71bd 97da 54bd e8ea 913c 1ecf 3dbc
00000210: fd72 283c a14d c8bd 1b54 683b 6a7d a7bb
00000220: db37 9abc f9d6 13bd 025f 67bc d0eb a0bd
00000230: e924 b03b 5f4d e13b 8f47 693d d03c 28bd
00000240: 747f ffbc cb75 ddbd b6c1 04bd 8d9a 133d
00000250: a2d2 2bbd 3a35 a5bd 4d4b 92bd 5682 e7bd
00000260: 8097 47bb e11e d83b b205 1bbd 8c51 b13c
00000270: 25c0 39bd 015a 9ebd b7d3 c7bc dac6 04bd
00000280: 8624 b1bd 1b3e 553a b25d abbc 61a0 b13c
00000290: 38ff 42bd dbe9 563d fd08 003d 9ca3 8d3c
000002a0: 6c71 18bd 5146 84bd 9f44 98bd 2098 a4bc
000002b0: 9445 21bd 9a1a 603d 8765 203d f7da 6f3d
000002c0: 3be3 e1bd 8d23 a5bd a09f 65bd d737 3c3c
000002d0: d2ba e4bc 30ff 3ebd 2a99 06be 9b87 bcbc
000002e0: 3c49 7dbd 23ec 04bd 58f8 8ebd 524d 62bd
000002f0: ba1d 16bd 0754 88bd a253 89bd 7943 ecbd
00000300: bee3 8e3c 840b ba3c eea6 8fbd be12 acbd
00000310: 839e 32bd a1e1 c03c f54c dabd 40c1 e7bd
00000320: e59a 423d 0c5e 66bc bf9c ca3b 5f42 be3c
00000330: 8588 f8bb dc45 a53c c6de f93c 4a4b 9cbd
00000340: d49e 45be 8a76 c1bd 1485 1dbe 65a9 25be
00000350: 8d45 f1bd f52a f7bd b74a 1fbe b8a5 a1bb
00000360: 87ad 6f3c 6449 3cbd b619 623c ff7f c1bd
00000370: 45de 043d 31be 063d bc17 b1bd fa51 d43c
00000380: 95cb 8bbd c1c0 f0bd 04dd 50bd 2928 d1bd
00000390: 07cd 313d e850 9abd 0030 b93c d2d6 423c
000003a0: 322b aa3c d329 b63c f689 9cbd bac9 e7bd
000003b0: 36be 76be 6a2c 5bbe 3d07 aebe 9f27 86be
000003c0: 3d7c 80be e623 9abe 5c3a 4cbd 8594 d5bd
000003d0: 25ad 423d e886 2e3d fceb 9ebd bf9d 3b3d
000003e0: 6e4d babd 3393 ddbd 62a9 8fbd 1e5d 5cb8
000003f0: 0341 6ebd b1b5 5b3d 138e cabb 78f1 973b
