autoencoder_mpi/autoencoder_ddp.pth (torch, 843965 bytes, 8 tensors)

encoder_PIPE1.0.weight f4 [128, 784]
00000000: 534c c63b ae55 d93c 017f 703b f716 b83c
00000010: caca 6a3c 0a40 c6bc a5c6 bb3b f0be 9a3c
00000020: 21b0 623c 9cef 9bbc ba21 8cbc 4ebe c63c
00000030: ff05 10bd 65bb 34bc c310 0e3d 1365 c73c
00000040: 9309 b13a 2e36 11bc f31d f9bc 1320 393c
00000050: 0a5f f8bb 211d 65bc 655d 943b 6a9f ed3c
00000060: 0ad0 83bc e529 1dbc 3d71 063d 81fd fc3c
00000070: 8ec0 d63c 1f4d 08bd 5867 6a3c e308 a0bc
00000080: f880 613c e83e 0c3d 1ba2 0b3c 963e e7bb
00000090: 1e14 6aba 649b fbbc edc9 083c 500a 813b
000000a0: 2c29 153d f13f 8b3c 5edd 18bd a5e5 753c
000000b0: 3d26 c2bc 7a72 1cbc 773c e0bb 829c df3b
000000c0: 20cc deba 1ee8 023d 6c77 713c 4a00 4e3a
000000d0: 9c6a b8bb 53d6 13bc 5c8b 07bd 809e a73c
000000e0: 2e24 3cbc 93f4 96ba b761 b839 3e53 f93c
000000f0: 9587 70bc 1d56 2e3b f613 62bc ebc4 623c
00000100: c949 f5bc 7a12 8e3c 1c16 cd3c 97a6 9cb9
00000110: ff66 ecbc db71 9fbc c05f 10bd 26cd 853b
00000120: 5a4c 26bd c278 12bd 56d6 3fbc bbaa 6cbc
00000130: 2c55 afbc 2d9c 373c fea9 a1bc 4e57 ad3c
00000140: 3f65 493c 6016 a4bc eafe 883c be1a e83c
00000150: 95c6 c6bc 0710 cb3c cf4a 83bc 6eaf 293b
00000160: 642b 03bd c427 2d3c 35ce 803c 6412 f8bc
00000170: 33ec 03bd efbd 36bd fb78 0b3b 84b3 0abd
00000180: 21d9 92bb 8ce8 323c 5afe 3f3c f802 eabc
00000190: a963 cbbc 1683 a23c 9d6a 803c 7b4b d9bb
000001a0: 0ead 863c 1a5d 9d3c 1621 d5bc a738 02bb
000001b0: 6fae 7bbc 11dc b63c d58a 013c 3ee1 86bc
000001c0: 0ecc 04bd 3780 3ebc 0d30 ffbc 9cfd a1bb
000001d0: 3f7c caba 57e5 8cbc 31ce abbc 99b9 f4bc
000001e0: 4e73 493c 2344 4dbd bad6 4bbd 0680 11bd
000001f0: 0bbf 04bd 08a7 1fbd 6554 a13c e7cf 05bd
00000200: 27cf fbbc 4bc7 b1bb cc34 fb3c 6a48 233d
00000210: a287 c13c b025 2e3c c766 b8ba a0ce c83c
00000220: f317 0f3d d6c6 5e3c 48e6 98bc fc94 82bb
00000230: 01a8 6239 b7ce 423c a6c4 1a3d a357 cdbb
00000240: c244 823c fd4f 67bd 75dd fabc 6987 a5bd
00000250: b73e a0bd b046 72bc 2283 973c 171f f6bc
00000260: 4e47 f9bb c5e6 d7bb 3985 703a 6584 ffbc
00000270: 2d8c 36bd fb27 22bc f236 35bc 006c 94bc
00000280: df34 e03c 275c 65bd 12aa e93b 2425 dcbc
00000290: 37fc 20bd 5a87 24bd 0299 29bc 5f7c 09bd
000002a0: 5752 ba3c fc86 9dbc 5c50 743d b034 1d3d
000002b0: 79e8 733d 6b18 103d 431f 193d ee67 d2bc
000002c0: f2da a1bc dc6e 4ebd ed61 14bd 11bf 653c
000002d0: 8197 4d39 7177 46bd 2e71 c1bc 4245 d43c
000002e0: 6c2e ac3c e59e b3bc 1063 8cbb e1a7 9bbc
000002f0: 2446 b3bc 304d 0ebb 7b61 02bd f7a5 87bd
00000300: b033 75bd 98e6 3d3c 27f6 17bc 456a d4bb
00000310: 1138 0dbd 98b4 3bbd 5702 8d3d 2d1c 7e3d
00000320: 3ccf 41bd 0190 b0bd 6e8b fabc 048f c3bb
00000330: 32e7 b0bc ec33 563c 67c1 04bd 7ee9 09bb
00000340: e8fe 633c 3720 f1bc 2f10 11bc 0480 893c
00000350: 711c c63b 4766 163c 6cc8 febc a1df 05bc
00000360: 909a 57bc 0b11 b43c b412 25bd 5b00 13bd
00000370: 3708 573b ded8 85bc 25eb e23c 659f c6bc
00000380: e39b a03c 0c01 883b f2ed 213d 590e 633c
00000390: cea1 79bd 93d9 0dbd c852 cf3b 019a 43bc
000003a0: 297d a8bc a4f4 da3b d226 72bc 8a32 023d
000003b0: 3f7b 3c3d 5e41 b93c 808a 443b 401b 90bc
000003c0: 54a3 edba 0631 12bd 1c92 15bd 679c 08bd
000003d0: 690e 903c 5db4 763b 75af 2fbc b380 1ebc
000003e0: 2951 64ba c751 d6bc 1fa6 b5bb 7ea7 21bc
000003f0: 8768 6abc 9536 97bc 2574 58bc 597b efbc
0.006051579 0.026530113 0.0036696794 0.022471888 0.014330575 -0.024200458 0.0057304674 0.018889874
0.013835938 -0.019035153 -0.017105926 0.024260666 -0.03516197 -0.011031006 0.034683954 0.024340188
0.0013506882 -0.008863015 -0.030409789 0.011299151 -0.007579689 -0.013983996 0.004527735 0.029006679
-0.016090412 -0.009592508 0.032822836 0.030882599 0.026214864 -0.033276673 0.014306866 -0.019535488
0.013763659 0.03423968 0.008522536 -0.0070570214 -0.00089293893 -0.030713744 0.008348924 0.003937997
0.036416218 0.016998263 -0.037320487 0.015008365 -0.023699874 -0.009548778 -0.0068431455 0.006824077
-0.001699809 0.031959645 0.014737945 0.00078583194 -0.005627943 -0.009023267 -0.033091888 0.02046132
-0.011483235 -0.0011516981 0.00035168018 0.0304352 -0.014680763 0.002660162 -0.013798704 0.013840894
-0.02994241 0.017342795 0.025034957 -0.00029878758 -0.028857706 -0.01946347 -0.035247564 0.0040832935
-0.04060016 -0.035759695 -0.0117088165 -0.014445002 -0.021402918 0.011206669 -0.019734379 0.021159794
0.012292205 -0.0200302 0.016723115 0.028333064 -0.024264613 0.024787916 -0.016026882 0.0025891918
-0.032023802 0.010568563 0.015723327 -0.030282207 -0.03220768 -0.04461473 0.0021281827 -0.033862606
-0.00448145 0.010919701 0.011718357 -0.028565869 -0.024827795 0.019837897 0.015675837 -0.0066313124
0.01643994 0.019209433 -0.026016753 -0.0019870193 -0.015361412 0.022321733 0.007906635 -0.016464826
-0.032421164 -0.0116272485 -0.031150842 -0.0049435627 -0.0015448405 -0.017199202 -0.020972343 -0.029873656
0.012295557 -0.05011381 -0.049765326 -0.035522483 -0.032408755 -0.038977653 0.019693563 -0.032668974
-0.030738426 -0.005425369 0.030664824 0.03986398 0.023624245 0.010629103 -0.0014068716 0.024512589
0.03493495 0.013597211 -0.018664494 -0.0039850455 0.00021615626 0.011890105 0.037785195 -0.0062665506
0.015901927 -0.056472767 -0.030623177 -0.08082468 -0.07824462 -0.014787361 0.018495146 -0.030044122
-0.007607377 -0.006588789 0.0009175125 -0.03119106 -0.044567276 -0.009897227 -0.011060463 -0.018117905
0.02736896 -0.055996086 0.0071308697 -0.026873179 -0.03930303 -0.040168144 -0.010351421 -0.033565875
0.02274434 -0.019229405 0.05964695 0.038380325 0.059547875 0.035179537 0.03738333 -0.025684323
-0.019757722 -0.050398692 -0.0362262 0.014022605 0.00019606763 -0.048453752 -0.023613539 0.025911931
0.02101823 -0.021926353 -0.00428427 -0.01900095 -0.021884032 -0.0021713488 -0.031831246 -0.06623452
-0.059863746 0.011590622 -0.009274996 -0.006482395 -0.034477297 -0.045826524 0.06885212 0.06203859
-0.047316775 -0.086212166 -0.030584063 -0.0059679765 -0.021594618 0.013073903 -0.032411005 -0.0021043713
0.013915755 -0.029434307 -0.008853956 0.016784675 0.006045871 0.009179658 -0.031101428 -0.008170993
-0.013159409 0.021980783 -0.04030104 -0.03588901 0.0032811293 -0.016338762 0.027700016 -0.024245927
0.019605583 0.0041505154 0.039533563 0.013858401 -0.060945325 -0.034631323 0.006327007 -0.011938573
-0.020567494 0.0066819955 -0.014779763 0.03178648 0.046015974 0.022614177 0.002998978 -0.017591119
-0.0018130341 -0.035691284 -0.036516294 -0.033352282 0.017584996 0.0037644126 -0.010722985 -0.009674239
-0.00087096036 -0.026162041 -0.005543485 -0.009866593 -0.014307148 -0.018458644 -0.013211285 -0.029233621

encoder_PIPE1.0.bias f4 [128]
00000000: 8879 da3b e1c2 c43b eaf0 823b 6c63 5cbc
00000010: 4a1e e23b a12c f93c c343 88bb 591a 193c
00000020: cdb9 eabb 3800 2cbd 4bff 9f3c 717e 26bd
00000030: 624d ec3c 00d7 14bd 0ea2 d73c b0d2 07bd
00000040: 85b3 b73b f0ea 8fbc de17 2f3c 8813 883c
00000050: dae8 04bd 506f 39bc dd54 04bd 63e2 873d
00000060: 9df5 943c 1ae2 253d 4e3e c0bc e39f 44bd
00000070: b0bc 093d e0e7 8bbc 4007 bf3c 34b9 523d
00000080: 5f50 27bd 4b97 973c 3a6f 08ba 4716 d83c
00000090: c0d8 81bc cdb2 23bd a0a3 49bc 1044 303d
000000a0: 2b3e fa3a f6c6 543c 6828 763d 8f20 163e
000000b0: 334d b03b ff1c e23c eb77 ab3c 27ce 9a3c
000000c0: 2424 a73c 21d8 58bc 75fa 8c3a b3ea 1bbc
000000d0: 54d7 773c c900 82bc 3c89 a63c 7ef1 18bd
000000e0: 6b2f 1b3c aa35 d23c 7c29 dfbc 007d 6b3d
000000f0: c6c9 943a c684 08bc 001e 95bc 3d85 67bc
00000100: 1160 d93c a132 32bd 1098 1ebd f1e8 ae3c
00000110: 615b bcbc f76d 5a3c fed1 513b 3a4d b23c
00000120: 1425 95bc 0055 0e3d 752b 513c 8e4e bebc
00000130: 918a acbc 9315 28bd 67bc cc3c 5e4b 743c
00000140: a5cf e13c d328 4a3c 7acc 12bd 06cc d6bc
00000150: ca37 a13c 1463 8a3b aeca 5ebc 8d37 f03b
00000160: 1e51 823c 982a 25bd cb96 dd3c 524b 593c
00000170: 545f e73a 3bcf 1d3d 2809 1dbd 3657 253c
00000180: f82f a03c ae67 39ba 7ca6 9abc f1d2 03bd
00000190: f6e4 45bc 7efb 2c3d 024b 81bc ee75 c0bb
000001a0: 3b3b f33c 22a2 e83c f1ad 413c b2af 613d
000001b0: 35c0 173d ae43 a8bc c8d8 9f3b 1841 10bd
000001c0: 8e93 053d 53c2 103c b3fc b9b7 3d2c cd3c
000001d0: 7018 273d fa9e 503d 6d77 b3bc 1e62 373d
000001e0: e6ba 913c f4ec c8bc 0fa2 e9bb 3964 75b9
000001f0: 0bb0 1dbc 64f9 ddbc 2ae5 143c 3073 223c
0.0066673197 0.0060046767 0.0039960044 -0.013451438 0.0069005834 0.030416789 -0.0041584685 0.009344661
-0.0071632625 -0.041992396 0.019530913 -0.040647928 0.028845493 -0.036337852 0.02632239 -0.03315991
0.005606117 -0.017568082 0.010686843 0.016610876 -0.032448627 -0.011318043 -0.032307494 0.06634977
0.018183524 0.04049883 -0.02346721 -0.048004042 0.033627212 -0.01707834 0.023318887 0.051446155
-0.040848132 0.01850476 -0.00052045623 0.02637781 -0.015850425 -0.03996544 -0.012307078 0.04303366
0.0019092014 0.012986889 0.06009713 0.14660858 0.0053802966 0.027601717 0.020931205 0.01889713
0.020402975 -0.013235123 0.0010755794 -0.009516406 0.015127022 -0.015869515 0.02032911 -0.03733968
0.009471755 0.025660355 -0.027241461 0.057492256 0.0011351637 -0.008332437 -0.018202782 -0.014130888
0.026535066 -0.043505315 -0.038719237 0.02135131 -0.022992792 0.013331882 0.0032016034 0.02176534
-0.018206157 0.03474903 0.012766709 -0.023230817 -0.021062167 -0.0410362 0.024992181 0.014910547
0.027564833 0.012338835 -0.035839535 -0.026220333 0.019679923 0.004223237 -0.013598127 0.007330841
0.01590782 -0.040323824 0.027049443 0.013262587 0.0017652311 0.03852771 -0.03833881 0.0100915935
0.019554123 -0.00070726394 -0.018878214 -0.03218359 -0.012078514 0.04223203 -0.015782837 -0.0058734333
0.02969133 0.028397623 0.011821256 0.055099197 0.037048537 -0.020540085 0.0048781373 -0.03521833
0.032611422 0.008835393 -2.217139e-05 0.025045509 0.04079479 0.050932862 -0.021907533 0.044771306
0.017789315 -0.02452705 -0.0071299146 -0.00023402357 -0.009624491 -0.027096458 0.00908784 0.009915158

encoder_PIPE2.0.weight f4 [32, 128]
00000000: 670a 21bd 360b af3c 70c8 9e3d b579 25bb
00000010: c844 ae3d 223f a83d d5eb 50bc 8410 2fbd
00000020: 8928 57bd d659 b73b 6833 55bd 0771 00bd
00000030: eb5e 91bd 5c92 373c 65f9 8fbd 0999 28bd
00000040: e25f 04bd 0449 e23c bb13 53bd ca47 82bd
00000050: 9f70 8c3d 4ded a2bd 3952 263d 5a3e 603d
00000060: d50e 083d 8c85 323d 82cc 113d ffc6 d43c
00000070: b5df babc 2fad d5bc 1d24 a53d 4832 6ebd
00000080: 8856 0bbc 361c cb3b 1f0c 13bd 4df6 c03b
00000090: 98cf 9b3d 2620 983c 1fd3 bcbc 2217 afbd
000000a0: fa21 9dbc 98aa 0abd 44de 2cbd cac3 a9bd
000000b0: 5d1c a2bc 2873 ab3c 018f 023d 08bd 943d
000000c0: 0dcb 803d 1755 b13d 694a 893c a656 0abc
000000d0: 6d7d 8a3d 940a 25bd 5a3e b3bd 73a1 84bd
000000e0: 6ea4 0abc cc7b 163c 63df 68bd 827f 66bd
000000f0: 144a fbbc e8c1 6bbc 97e8 a83d a0b6 04bd
00000100: 6d69 4e3d c42b bf3c 83be 37bd 086f b6bc
00000110: e9d3 a1bd fe8b 843d 9504 e23c f96f 3c3d
00000120: bf0d 433d 7506 c5bc cbeb 21bd 8235 88bd
00000130: 7741 fabc 2c16 2bbd ffd3 573d d69b a33d
00000140: 48b7 3e3d c1ed 763d 46d6 03bd b4bb 9fbd
00000150: 859f 8bbd 995e cebb 4b33 493d 9c27 f2bc
00000160: aec2 303c 368d a6bd f8fa 90bd 9080 813d
00000170: c514 ad3c ee7f 68bd edc5 023c f938 a3bd
00000180: db99 91bd c702 1dbd 429d 75bd 1e43 423d
00000190: 47aa 16bd 231a 853d d9d7 433d 387d 3e3d
000001a0: 5034 e63c 4ac6 d4bb 375f 843d 47d3 60bd
000001b0: 7adf 703d ae41 6abc 2b4e 8d3d abc4 9d3d
000001c0: eeb9 603d 33dd 7f3d 5ed1 1cbd 24a5 6e3c
000001d0: e2a2 12ba 3aaf f5bc 6828 193c e5a5 e13c
000001e0: 397c 1f3d 682e 803d 47a1 6dbb 0d43 afbc
000001f0: eb0e 82bc 7c1c 913d 54e5 a0bd 01ec 1a3d
00000200: 78d1 af3b 8b16 ef3b b639 6dbd f8e2 0dbc
00000210: d3e0 183d c0f5 c83c 4ad8 adbd c642 033b
00000220: 8d99 223d 04d2 21bd 16f7 babc 8527 b3bc
00000230: cb93 18bd d311 7abc 1974 8bbd 46de 1abd
00000240: 3c25 a4bc f8a1 3c3d 7ab2 db3b b504 023d
00000250: 34ee 823d 89d2 71bc ac15 943c b858 0fbb
00000260: ea90 7e3d 1b0b 903d 6d55 1abd e83d 973d
00000270: 4f4c 013d 0af3 a5bd 4ea9 90bc 707e 5fbd
00000280: a1a9 4ebd 4b38 a9bd 4afc 77bd 0551 95bc
00000290: 3911 223c 1bbc af3d ea61 743d fb43 9cbd
000002a0: ff54 b23d 332c 77bc e3f7 afbd 19bb 653d
000002b0: 2616 40bc 1a06 aebd 301b 313d 1c44 81bc
000002c0: e71d b23d 9511 0c3d 4549 81bd a5d1 89bd
000002d0: 5719 4d3d 5c50 b0bd 7d2c 383d 52e8 7ebd
000002e0: 64c0 80bd 9dc4 62bd 7882 b13d 0134 abbc
000002f0: 0e5d 9fbd 42c4 d03c 404e 453d ffaa 0d3d
00000300: 4043 79bd 4897 c1bc 1fd2 8bbd 6fdb 09bd
00000310: 1783 873d bc76 513c c0b5 4e3d eeb1 363d
00000320: 580f 51bd b55c f6bc 0238 82bd 70c3 09bc
00000330: 10b0 2cbd a3c8 dc3c e0f0 8ebd b43b 573b
00000340: a12e afbd f3c3 7e3c e82b 8c3d b843 e5bc
00000350: b79a 94bd e42c a03d acb4 473d 17ab b23c
00000360: 9ca6 183d b262 a3bd 1a49 a23d 9eed 9abb
00000370: 537d 0dbd af45 a0bd 5301 b1bd cc97 bb3c
00000380: 540a 05bd 632c 4fbd 0511 8e3c dc7e 95bd
00000390: d8ec 6a39 72e8 01bd 6b5e 5b3c 0e64 8ebd
000003a0: 669a 75bd 648f 4e3d 67f4 9e3b 4ca4 73bd
000003b0: 386c 573d d41f 873d f791 86bd c0a9 a43d
000003c0: 1dcf 3e3c 1462 0bbd 45ce b2bc 86f7 993d
000003d0: 3428 6abd 690b 853c d763 cdbc 1512 513d
000003e0: 5d81 29bd 55c4 a4bb 24e6 c63c d0d3 153d
000003f0: eda8 a43d 101e 0dbd 7697 843d 83d4 973b
-0.03931656 0.02136765 0.07753074 -0.0025249545 0.08509213 0.08215167 -0.012751539 -0.04274036
-0.05252889 0.005595426 -0.052050978 -0.03135779 -0.07098182 0.011204328 -0.0702999 -0.04116157
-0.032318003 0.027622707 -0.05153249 -0.06361349 0.06857418 -0.07955418 0.040605757 0.054746963
0.03321727 0.04358439 0.035595424 0.025973795 -0.02281175 -0.026083557 0.08063529 -0.05815342
-0.008504517 0.0061984314 -0.03590023 0.0058887363 0.07607955 0.018570017 -0.02304989 -0.08549334
-0.01918124 -0.033854097 -0.042204157 -0.08289297 -0.019788915 0.020928934 0.03187466 0.07262617
0.06288729 0.08658808 0.016759114 -0.00844351 0.06762204 -0.04029329 -0.08752127 -0.064761065
-0.008462055 0.009184789 -0.056853663 -0.056273945 -0.030674972 -0.014389493 0.08247488 -0.032400727
0.05039351 0.023336299 -0.04485942 -0.02226974 -0.07901747 0.06472014 0.027590076 0.046005223
0.04762053 -0.02405093 -0.03953151 -0.06650831 -0.030548794 -0.04176919 0.05269241 0.07988708
0.04656151 0.060285334 -0.03218677 -0.077994734 -0.06817535 -0.006297898 0.049121182 -0.029559903
0.010788603 -0.081324026 -0.070791185 0.063233495 0.021128068 -0.05676263 0.0079817595 -0.07969851
-0.07109424 -0.038332727 -0.059964426 0.04742729 -0.036783483 0.06499126 0.04781327 0.046506137
0.028101116 -0.0064933645 0.06463473 -0.05488899 0.058806874 -0.014297886 0.06899675 0.07703527
0.054864816 0.06246681 -0.038285606 0.01456574 -0.00055937294 -0.029990781 0.0093480125 0.027544925
0.038936827 0.06258851 -0.003625946 -0.021394277 -0.015876254 0.07085511 -0.07856241 0.037822727
0.005365547 0.0072963885 -0.057916366 -0.008660071 0.037323784 0.024531245 -0.084885195 0.0020028814
0.03969722 -0.039506927 -0.022822898 -0.02186943 -0.03725032 -0.015263039 -0.06809253 -0.037809633
-0.020037286 0.046052903 0.0067046257 0.03174277 0.0639309 -0.014759668 0.01807674 -0.002187295
0.06214992 0.07033368 -0.037679125 0.073848546 0.031566914 -0.08102997 -0.017658856 -0.05456394
-0.05045474 -0.0826269 -0.060543336 -0.01822711 0.0098918015 0.085808 0.05966369 -0.07630154
0.08707618 -0.0150862215 -0.085922025 0.056086633 -0.011724031 -0.084972575 0.04323882 -0.015779547
0.0869711 0.034196455 -0.06312803 -0.0672944 0.050072994 -0.08609077 0.044964302 -0.062233277
-0.062866956 -0.055363286 0.08667463 -0.02089882 -0.07781421 0.025484208 0.04817033 0.034586903
-0.06085515 -0.023631707 -0.06827187 -0.033656534 0.066168 0.012784656 0.0504663 0.04460328
-0.051040024 -0.030073503 -0.06358339 -0.008408412 -0.042160094 0.02695114 -0.06979537 0.0032841982
-0.08553816 0.015549648 0.06844312 -0.027986392 -0.07256072 0.07821062 0.048756287 0.021810098
0.037268266 -0.07977809 0.07924099 -0.004728033 -0.034543347 -0.07825791 -0.08642831 0.02289953
-0.032480553 -0.05057944 0.0173421 -0.07299587 0.0002240421 -0.031715818 0.01338921 -0.06952678
-0.0599617 0.050429717 0.0048509124 -0.059482858 0.05259344 0.065978676 -0.06570809 0.0804019
0.011646059 -0.03402908 -0.021826873 0.075179145 -0.057167247 0.016240792 -0.025072021 0.051042635
-0.041383136 -0.0050282874 0.024279661 0.036578953 0.080400325 -0.034452498 0.064742014 0.0046334877

encoder_PIPE2.0.bias f4 [32]
00000000: 02df ebbc 0065 6d3d e724 a4bd 250f ee3b
00000010: e2ce 613d 6283 c33c 769d 03bb d685 753d
00000020: 81b2 82bd 70dd 9fbc c813 56bc 11c8 133c
00000030: 0666 d63c 3a08 913d d1df 34bd e65d 883d
00000040: 9f97 883d bab9 9e3d 7116 11bd 50cd bc3c
00000050: 2b83 22bd 1e17 c53c f3c5 5e3d 546a af3d
00000060: ce32 2cbd 1254 91bc 29b1 853c 604c a43d
00000070: ebed aebd c4a0 893d 171a 1b3d c6e0 76bd
-0.028792862 0.05795765 -0.08014851 0.007264989 0.05512894 0.02386636 -0.0020082868 0.05994209
-0.06381703 -0.01951477 -0.01306624 0.0090198675 0.026171695 0.07081647 -0.04415876 0.06658535
0.066695444 0.07750268 -0.035421792 0.02304712 -0.039675873 0.024058875 0.054387998 0.08565202
-0.04204064 -0.017740283 0.016319828 0.0802238 -0.08541473 0.06720117 0.037866678 -0.060272954

decoder_PIPE1.0.weight f4 [128, 32]
00000000: 0fbb 853c 6163 59bd 1d33 bbbd b3b9 28be
00000010: df56 96bd 893e 743d 0e55 00be 9d82 703a
00000020: f32a 693d 81d3 7abd 0d0e 533d 64eb 7a3d
00000030: c2af 98bd c322 b43c 851c 6dbd 5a8b 873d
00000040: aba5 0cbe c8bb d23d bc99 1bbd f378 0c3e
00000050: 2d42 b23d a0c6 c7bd 3bb9 d8bc a48a 0cbe
00000060: 1984 01be 9bf7 2f3d 5c17 1a3e bb89 dbbd
00000070: 97b2 03be 62c7 63bd a6eb cdbd fae5 cebd
00000080: d515 bbbd 7db5 083e 118c 54bd 26bb 3c3d
00000090: dd02 82bd 5888 0ebd 122b d63d 0917 7fbd
000000a0: 701f 243e 78e5 ae3d b51d ab3c 9ac7 35bd
000000b0: f65f 9dbd 650d ed3d 0c2f 283e 5e5a 343e
000000c0: 7c8c 9dbd 0c82 cf3d 4dca fa3d c124 02be
000000d0: f887 1dbe ee9c c23c 1233 2bbe 8c14 313e
000000e0: d9b8 31be bf4d 083e e1e8 ab3d 2d42 8c3a
000000f0: 4205 1a3e eedf ca3c a299 2ebd dfa5 eebd
00000100: 930c 0f3d 78f4 d73d 2ba1 543d 9736 0dbe
00000110: ae8e 893d 0187 9b3d d51b 283e 2b07 3cbd
00000120: 3dc7 093d 7a1c 2ebd 1e8f b8bd 0bcd 97bd
00000130: 4c04 44bd 3bc9 023e 97c0 b2bc c72b 973d
00000140: 1d4c a83d 7336 c5bc ed20 f439 6e78 d23c
00000150: e568 a23d 6686 2c3e 4014 02be 4bf9 cf3d
00000160: 9192 233e 35de d93d 0981 233e 309b 1cbe
00000170: a214 cfbc ee3b d03d 84e2 87bc a9ab ad3d
00000180: 512b e03d f63d 293e eb3a c0bd 64c7 343e
00000190: d147 133e 16e8 db3c d25e 25be 4eff 36bd
000001a0: 9d3c ddbd 03fe 1dbe b6a3 753b 7994 45bd
000001b0: 6784 3e3d 3450 febd 96bb 17be c8d7 2cbe
000001c0: 22a9 953d 20d8 da3d be1a e03d 3882 17bd
000001d0: 9056 13be 5c99 b8bc 418e eb3d 270d 323e
000001e0: 0f38 013e 4d58 34be 0c19 323e a4d4 803d
000001f0: 8555 06be 8fc2 1b3e 5259 82bd 9ad1 113d
00000200: dd72 30bd 614a a8bc 1779 5b3d d5a5 323e
00000210: 2cb2 2c3c e145 163d 64b6 2b3e 2253 17be
00000220: c14f 8c3d fd84 093c 9a6b f6bc f115 b9bc
00000230: c6d8 293e 249c 933d 611f 4e3d a8ba 01be
00000240: f351 d0bd b9c8 dabd f681 06be 31b9 ab3d
00000250: 3d01 0f3e 3316 323d 7285 24be 0fb7 c0bc
00000260: c3c9 d6bd 2ae5 f9bd c7b1 d5bd 9d10 603d
00000270: d7e5 afbd bd63 803c dea8 d03d ec39 513b
00000280: 2e42 0b3e c917 d5bd 11d0 e7bd 09cc ed3d
00000290: 4e65 0c3e 92d2 e8bd a813 80bc e752 ed3d
000002a0: 051e ca3d eb22 6f3c 3b96 953d b52a 0ebe
000002b0: 4749 aebd a092 293e a485 073d c099 2fbe
000002c0: 9eac f7bd db25 bfbd cc23 a63d 5a4b f4ba
000002d0: 9c40 6c3b a00c 2cbe fd29 7c3c ebe1 533d
000002e0: 1a77 203e 171a 043d 16cf 69bd b58f afb9
000002f0: c245 6cbd 753f cf3d e34b f5bd db0c 3ebd
00000300: e8b2 9abd 1e04 7fbd f553 cebd 377a ab3d
00000310: b26a 113d 0bc9 5a3d c314 a2bc 62c7 33be
00000320: ff05 babd d4e0 fabc 4637 1d3e 9285 1a3e
00000330: 6137 c7bd ac8c a8bd 9ed6 22be 09ec 273e
00000340: 2426 ddbd 123c c6bd e366 a83b e234 41bc
00000350: a882 a33d 9338 f73d 0adf 293e d8a2 20be
00000360: a555 25bb d99b c6bd 2857 8cbd 2e26 cf3d
00000370: 3e8f 28be 6897 bcbd b18c f8bc 663c bc3c
00000380: 03e6 993d 0bb7 1b3e 639d e7bd 004e 313d
00000390: 1037 2d3e 2309 33be 94bc 26be b273 26be
000003a0: f167 2d3d 3537 073e 853e 7f3d 5aa0 6dbd
000003b0: 53f7 2abe 8199 a3bd 63a8 1a3d 5c9b 023e
000003c0: d689 313e 5e4b 133e b729 8c3d b276 15bc
000003d0: f297 343d 1de0 8a3d 3d21 6f3d 8a41 5bbd
000003e0: 34d4 1b3e 4707 90bd f953 e03d db44 a8bc
000003f0: 8639 90bd a025 19bc 13ca e6bd 0b7c 103e
0.016324548 -0.05307329 -0.091406085 -0.16477089 -0.07340788 0.05962995 -0.12532446 0.00091747363
0.056925725 -0.061236862 0.05152707 0.061259642 -0.07455398 0.021989232 -0.057888526 0.06618376
-0.13735072 0.10289723 -0.03798841 0.13718013 0.08704028 -0.097546816 -0.026455512 -0.13724762
-0.12648048 0.042960744 0.15047973 -0.107196294 -0.12861095 -0.05561007 -0.10054712 -0.10102458
-0.091350235 0.13350482 -0.05189139 0.046076916 -0.063482024 -0.034797996 0.10457434 -0.062277827
0.16027617 0.085398614 0.020888189 -0.044379808 -0.07684319 0.115748204 0.16424197 0.17612597
-0.07692811 0.10132226 0.12245617 -0.12709333 -0.15383899 0.02375647 -0.167187 0.17292994
-0.1735567 0.13310908 0.083940275 0.0010700874 0.15041068 0.024764981 -0.042626984 -0.11652731
0.0349241 0.105446756 0.051911514 -0.13790356 0.06716667 0.07594109 0.16416867 -0.045905273
0.033637274 -0.042507626 -0.090116724 -0.07412156 -0.04785566 0.12772076 -0.02182035 0.07381397
0.082176425 -0.024073815 0.00046563838 0.025692191 0.07930163 0.16848144 -0.12703037 0.10154971
0.1597388 0.10638086 0.15967192 -0.15293574 -0.025278393 0.10167681 -0.016587503 0.08480007
0.10945762 0.16527542 -0.09386238 0.17654186 0.14382865 0.026844066 -0.16149452 -0.04467707
-0.10802577 -0.15428929 0.0037481613 -0.048237298 0.046512987 -0.12417641 -0.14817652 -0.16879189
0.0730765 0.10685754 0.10942601 -0.03698942 -0.1438849 -0.022534065 0.11501742 0.1738783
0.12619041 -0.17611809 0.17392367 0.06290558 -0.1311856 0.15210937 -0.06364693 0.035600282
-0.043078292 -0.02054328 0.053582277 0.17446072 0.010540526 0.036687735 0.16768795 -0.14777806
0.06851149 0.008393523 -0.030080605 -0.02259347 0.16586599 0.07207516 0.050322894 -0.1266886
-0.101718806 -0.10682816 -0.13135514 0.08384932 0.13965316 0.043478202 -0.1606653 -0.02352479
-0.10487702 -0.12201913 -0.10434299 0.054703344 -0.0858876 0.015672559 0.10188459 0.0031925393
0.13599464 -0.10404927 -0.113189824 0.11611182 0.1371052 -0.11368288 -0.015634373 0.11588078
0.09869007 0.014595727 0.07304045 -0.13883479 -0.0851007 0.16559839 0.033086434 -0.17148495
-0.12093471 -0.09333392 0.081122965 -0.0018638179 0.0036049252 -0.16801691 0.01539087 0.051729124
0.15670434 0.032251444 -0.05708226 -0.0003348567 -0.057683714 0.10119525 -0.11977365 -0.04639898
-0.07553655 -0.062259786 -0.10074607 0.0837292 0.035502143 0.053414386 -0.01978529 -0.17556527
-0.09083175 -0.030624785 0.15353116 0.15090016 -0.097273596 -0.08229956 -0.15902182 0.16398634
-0.1079829 -0.09679426 0.005139218 -0.011792393 0.07983905 0.120713376 0.16588989 -0.1568712
-0.002522805 -0.09697694 -0.06852561 0.10114704 -0.16460893 -0.09208566 -0.030340524 0.022978019
0.075145744 0.15206544 -0.11309316 0.043287277 0.16915536 -0.17483954 -0.16282874 -0.16255072
0.042335454 0.13204654 0.062315483 -0.05801425 -0.16695909 -0.07988263 0.037758242 0.12754577
0.17337736 0.14384219 0.06843894 -0.009122537 0.04409022 0.067810275 0.058381308 -0.0535293
0.15217668 -0.07032638 0.109535165 -0.020540645 -0.07042222 -0.009347349 -0.11269011 0.14109819

decoder_PIPE1.0.bias f4 [128]
00000000: 788d 18be df3a 2cbe 6e70 283c 7dc0 e33c
00000010: 9576 22bd ec75 e53c 5c03 9ebd 05ac f7bd
00000020: 0dc7 343e 43b8 1bbe f49c 29bd 5ce3 c7bd
00000030: 5904 bc3d 2ee8 b6bd d85a e33c a6b8 f5bd
00000040: c520 07be 9f06 18be 80d5 df3d 1bbc 213e
00000050: 830a 8e3d 6cd6 9dbc e355 bebd 32ce d9bd
00000060: a7f8 1bbe 566d d7bc e904 77bc 2163 80bd
00000070: 8ff2 393d af5e 073d f711 073d 4c17 16be
00000080: beb3 c9bd 7d0b 3e3d b634 dbbd 6cd5 db3d
00000090: 46f7 05be 496d eb3d 6965 66bd 8f19 2a3d
000000a0: af43 143e 7dc4 c1bd b761 d4bd c2b2 17be
000000b0: 9e81 02be 1577 cebc 0003 a53d c0bf d4bd
000000c0: b358 2abe 06c2 113e 1bf1 203e 3e5e 683c
000000d0: 357a 89bc ea03 123e 4cf7 063e 6bdb 75bd
000000e0: 2d9e 2f3e 84f9 14bd 59d1 0d3e c8df 1fbe
000000f0: bb52 193e d8c9 9a3d 7015 efbd f2ea bebd
00000100: 4371 da3d 1685 e83d 7c3a 2cbe 097e cdbd
00000110: b3f9 023e a969 503d 58fc 213e b64e 043e
00000120: 90d3 9f3d 4824 89bd c979 c0bd a41d b1bd
00000130: 4a6e 2dbe e009 a93d 5eb7 cdbb d9a4 16be
00000140: 4acc 133e 47f7 20be 83f4 e4bd 7158 b1bd
00000150: 7b1f 333e b550 92bd 7e02 94bb 7cef a53d
00000160: d3b6 8a3d 763a b23d acd1 88bd 2651 bebd
00000170: edc5 acbc 067a c7bd a2ab 24be ed2c eb3c
00000180: 021c 0ebe e379 893d c8e0 85bd dca3 9a3c
00000190: 2058 783d 2508 2bbe edc5 78bb 717a 17be
000001a0: 1657 17bd e251 a4bd 56f7 7c3d 5a25 263e
000001b0: 3c88 e0bd 17e9 ddbd c430 46bd 7cfc 2fbe
000001c0: e2bc c23c a1d4 223d ad6a 803d 95d6 db3d
000001d0: 4bf3 493d 9fb1 623d 5bd6 82bd 2e30 ab3b
000001e0: d459 453d 8f11 b2bd db2a b13d 7cca 023e
000001f0: 640a 06bc ca61 9c3d 8ac5 3f3c 3f90 ec3d
-0.14897716 -0.16819333 0.010280712 0.027801747 -0.03966387 0.028010331 -0.077154845 -0.12093357
0.17654057 -0.15207009 -0.041409448 -0.09760162 0.09180517 -0.089310035 0.027753279 -0.119981095
-0.13196094 -0.14846276 0.10929394 0.15794413 0.06935599 -0.019267283 -0.09293725 -0.10635032
-0.15231572 -0.026297253 -0.015076854 -0.06268907 0.045397338 0.03304928 0.032976117 -0.14657325
-0.09848736 0.046397675 -0.10703413 0.10734066 -0.13082609 0.11495454 -0.056249056 0.04152828
0.14478944 -0.09461305 -0.103702 -0.14814284 -0.12744758 -0.025203267 0.08057213 -0.10388136
-0.16635399 0.1423417 0.15716974 0.014182625 -0.016781906 0.14259306 0.13180274 -0.060023706
0.17150183 -0.03637077 0.13849391 -0.1561271 0.14972965 0.0755803 -0.11674011 -0.09322156
0.10666134 0.11353509 -0.16819185 -0.10033805 0.12790565 0.050882015 0.15818918 0.12920651
0.07804024 -0.06696373 -0.09398229 -0.086482316 -0.16936603 0.08253837 -0.0062779626 -0.14711322
0.14433399 -0.15719329 -0.111794494 -0.08659447 0.17492478 -0.071443 -0.0045168987 0.08102319
0.06773152 0.08702557 -0.06680617 -0.092928216 -0.021090472 -0.09740071 -0.16081098 0.028707946
-0.13877872 0.06712701 -0.06537014 0.018876962 0.060630918 -0.16702326 -0.003795977 -0.14792801
-0.036948286 -0.080234304 0.061759315 0.16225186 -0.10963485 -0.10835474 -0.04838635 -0.17186159
0.023771707 0.03975356 0.06270347 0.10734288 0.049304288 0.055345174 -0.06388541 0.0052242493
0.04818137 -0.08694755 0.08650752 0.12772554 -0.008181188 0.07635839 0.011704812 0.1155095

decoder_PIPE2.0.weight f4 [784, 128]
00000000: 5469 883c 8f5f 443d f9cf d3bc fa6f 0dbd
00000010: d334 fa3c 2f19 7e3d 0389 afbc 97c8 9a3d
00000020: ccaa 7b3c 3d23 4b3d 7034 00bd 8748 5e3d
00000030: 943f 083d 7d5c a8bd a268 493c cbb3 a1bd
00000040: 5ab4 253c 5c5d 44bd e357 923c c09a 8abc
00000050: 4f84 813d 67e9 913d d937 2f3d b37a 8b3d
00000060: 7b9d 73bd f27a acbd d089 69bd e550 b13d
00000070: f426 8d3d 9dbf ea3c 2e59 423c cdef 9f3d
00000080: 4885 97bd 039c 10bd 9da8 a6bd 43ee 0b3d
00000090: d314 6a3c a457 86bd 32ae 1bbd c253 8a3d
000000a0: edd1 8dbd 89e2 913d 15a2 9c3b a4e7 ab3d
000000b0: aa23 6c3c e4a9 c83b 8d4d b7bc 5d7b 273d
000000c0: 626d d23c 0e36 a5bd 1944 6dbd 85d0 783d
000000d0: 0e29 9b3d d964 863d 82de fa3c 9ecb 9dbd
000000e0: 994b 953d c2f0 0bbd 39ea 6fbd b573 973d
000000f0: 0872 46bd a617 90bd f68e 49bd 722f 9f3d
00000100: 0fa8 8dbd f666 9fbd 238d d23c d9a5 adbd
00000110: 7b0f 613d ee77 483d 5cfe a93d dee9 afbd
00000120: 6d1f 36bd ba00 a0bd d8a8 9ebd 0451 913d
00000130: 2e1f b5bc d832 70bd 82c7 4b38 fdd8 793b
00000140: 074c 95bc 09a8 a0bd c603 8cbb e9fa a1bd
00000150: 556a 933c 3734 86bd 1972 4abd a035 98bc
00000160: aa19 9f3d 1a9d bfbc 84ac c9bc 3173 6ebd
00000170: d216 9a3d ee43 9e3d b592 413d 3041 99bd
00000180: 5f83 73bc 39ff e3bc 0f30 a03d 4ed7 913d
00000190: b5ef 8cbd 094c 5bba e259 ed3c e95c a7bd
000001a0: 877d c3bc f8dd 67bd f2fa 1e3c 8b7f ad3c
000001b0: cd6d db3c 9e0a 13bd b862 b0bd f28e 1ebd
000001c0: 1f5a 72bd 1367 873d 03d2 8dbd b837 2abc
000001d0: d02a 9aba 501e 27bd 1117 4fbc 622f 85bc
000001e0: 0cd5 88bd d7b5 b33d c80d 02bd 1001 26bd
000001f0: ed08 a3bd 1204 58bd 8c94 a3bd 36ac ee3c
00000200: 76d3 aa3d 8f46 ac3d 7afd 5fbd 04eb 953c
00000210: 5386 533d efa5 a23d 456f 333d 8c00 21ba
00000220: 2d8c 88bc 33d5 983d 23a8 0b3d 503d 8bbd
00000230: cf92 943d 8bf9 52bd c46b 743d 1660 98bd
00000240: 8f87 98bd de94 a0bd d955 5bbd d906 833b
00000250: 6fe5 a03c d0d1 70bb 87c6 a6bd b68f 883d
00000260: fd00 27bd d6e4 84bd 13df 5cbd f6ce 9fbd
00000270: 5edb b0bd 2fed 36bd e852 aabd 9ff7 043d
00000280: 990a 7ebc 0227 383d 518f b1bd 9268 423d
00000290: fd49 2dbd 9cfc 29bd 0ba9 c63c 82ea c33c
000002a0: 3f00 a83d 152f 6fbd 51f7 77bc 3d1c 07bd
000002b0: c2d4 553d 29a1 943d 0c36 573c 146c 13bd
000002c0: cb72 c6b9 b1a1 a63d c971 51ba 17eb afbd
000002d0: bda2 17bd a8ac aabb 258c 5a3c 3075 603d
000002e0: b9e4 be3c daeb 96bd a91a 48bc 8bad 7e3d
000002f0: bf8e 8dbd 0a98 1e3c 81e1 9dbd 5bf8 233d
00000300: 5e9b 9bbc 4862 b0bd 57d1 6dbd bf95 1d3d
00000310: 50c6 b13d 55dc 2e3d 936e 4abd 2709 b13d
00000320: 5d87 843d 9c3b febc 0b18 393d 8319 24bd
00000330: f757 92bd 99e5 4a3d 64ca c939 156b dbbc
00000340: b546 a63d 02b7 93bd 36cb a43d 3bc0 e2bc
00000350: 2fbc 4fbd 10ab c4bb 7a90 773c f907 ad3d
00000360: da91 f2bc 3d0e acbd a8c4 dcbb 4bcc 143d
00000370: 5d07 e2bc 53c8 b0bd f5ec 61bd ff62 283b
00000380: 5d68 8fbc decd 0bbd 2c80 b43d 422d c5bb
00000390: 8e63 adbd 2ad8 3bbd 4039 513d 9b2e af3d
000003a0: 933a 3cbd f47a b4bd e98e 86bd 88c1 0c3d
000003b0: 7e76 683d 1c99 dbba 7a07 403b 09b3 06bc
000003c0: 8a42 9cbd 4a7d 6ebd b482 a4bc 8ba6 88bd
000003d0: ca03 42bd e868 283d 6ce5 873d 6a09 ca3b
000003e0: ced0 5f3d b6ac 5f3c d21d 953c aee1 c1bb
000003f0: 2f9b 66bd 22ea c73c 2ead 99bd 444a 6c3d
0.016651787 0.047942694 -0.025856005 -0.034530617 0.030542767 0.062035736 -0.021427637 0.07557791
0.015360545 0.049594153 -0.03130001 0.054268386 0.033263758 -0.08220766 0.012293013 -0.07895621
0.0101138 -0.047940597 0.017864173 -0.016919494 0.06324064 0.07124596 0.04277787 0.068105124
-0.059476357 -0.084218875 -0.057016194 0.086580075 0.06892195 0.028655821 0.011862082 0.0780941
-0.07398468 -0.035305034 -0.08137629 0.03416277 0.014287191 -0.06559685 -0.038007922 0.06754257
-0.06924806 0.07123286 0.004780064 0.08393791 0.0144128 0.006123768 -0.022375846 0.040889133
0.025686923 -0.08066951 -0.05792627 0.060745735 0.0757619 0.06562204 0.030623678 -0.077048525
0.0728981 -0.03416515 -0.05857298 0.07395116 -0.048448592 -0.070357606 -0.049208604 0.07772721
-0.0691682 -0.0778331 0.025702065 -0.084788986 0.054946404 0.0489425 0.08300468 -0.085895285
-0.044463564 -0.078126386 -0.07747048 0.07095531 -0.022109594 -0.05864224 4.8584778e-05 0.003812372
-0.01822473 -0.0784455 -0.0042729108 -0.079091854 0.017995039 -0.06552928 -0.04942522 -0.018580258
0.07768567 -0.023390342 -0.024618395 -0.058215324 0.07523884 0.077278 0.04725905 -0.07483137
-0.014862864 -0.02783166 0.078216664 0.07121144 -0.06881658 -0.0008365517 0.028973524 -0.08172018
-0.023863567 -0.05660817 0.009703385 0.021178981 0.026785756 -0.035898797 -0.08612579 -0.038710542
-0.059167977 0.06611457 -0.06924822 -0.010389261 -0.0011762027 -0.040800393 -0.012639777 -0.016257945
-0.066812605 0.087749176 -0.031751424 -0.040528357 -0.07960687 -0.052738257 -0.079873174 0.029134851
0.08341114 0.084118955 -0.054685093 0.01830054 0.051641773 0.079418056 0.043807287 -0.0006141744
-0.016668404 0.074625395 0.034095895 -0.06798804 0.07254564 -0.051507514 0.059673086 -0.07440202
-0.07447731 -0.07840894 -0.053548668 0.003998619 0.019640652 -0.0036746152 -0.08143335 0.06668036
-0.040772427 -0.064889595 -0.053923678 -0.078031465 -0.08635591 -0.04465979 -0.08316594 0.032462712
-0.015505456 0.044959076 -0.086699136 0.047463007 -0.04230689 -0.041500673 0.024250528 0.023915533
0.08203172 -0.05839451 -0.015134648 -0.032985914 0.052204855 0.07257301 0.013135444 -0.035991743
-0.0003785103 0.08136309 -0.00079896726 -0.08589762 -0.037020434 -0.0052085705 0.013339077 0.05479926
0.023302423 -0.07369204 -0.0122133875 0.062177222 -0.06911992 0.009679804 -0.07709027 0.040031772
-0.018994983 -0.08612496 -0.05806097 0.038472887 0.08680403 0.042690594 -0.049421858 0.08644324
0.06471131 -0.031034283 0.045188945 -0.040063392 -0.07145684 0.049535368 0.000384885 -0.02678446
0.08118955 -0.0721264 0.08046572 -0.027679553 -0.050716575 -0.0060018376 0.0151101295 0.08448786
-0.029610563 -0.08401153 -0.0067373104 0.03632764 -0.027591402 -0.08631959 -0.05515762 0.0025693772
-0.017505819 -0.034131877 0.08813509 -0.006017358 -0.08466254 -0.045860447 0.05107999 0.08553811
-0.0459543 -0.08812514 -0.06570227 0.034364253 0.056753628 -0.0016754004 0.0029301331 -0.008221396
-0.07629879 -0.058224954 -0.020081855 -0.066723906 -0.047366895 0.04111567 0.066355556 0.006165673
0.05464249 0.013652017 0.018202696 -0.0059167957 -0.05630034 0.024403635 -0.075037345 0.057688013

decoder_PIPE2.0.bias f4 [784]
00000000: a0b3 073d 49c0 ad3d 5863 643d e1a7 b8bc
00000010: ca81 433d 0446 11bc 199f afbd 89d2 36bd
00000020: f545 b2bd 798d 6cbd d5d0 43bc 55a9 523d
00000030: 9770 323d 5dee 2cbd e91a 863d d9a1 ae3d
00000040: 4362 60bd 57b4 25bd 7c31 afbb 1e1b 023d
00000050: c77d f83c 0289 a33c 69a6 1cbc 68c3 673d
00000060: 91f6 3a3d 89c5 223d d6af 4cbd aecd 953d
00000070: dfc4 2d3d 576e 813d f704 433d 9185 bbbb
00000080: 6706 14bd 7e8a 903d b552 8b3d 729a 293d
00000090: 8ddf b23c d468 113d fa12 62bd 6314 fa3b
000000a0: bf73 1bbc 7900 853c eba7 f83c ac9f 9dbd
000000b0: b8c9 be3c 68ea 7cbd 97be b23d 6552 943b
000000c0: e7df 3fbd 50c6 39bd 0ba0 0cbd 9186 343d
000000d0: ed69 993c 6d6e 803d afe2 aa3c 68bb 41bb
000000e0: 70fa d0bc dd91 743d a52b fcbc 377f 99bd
000000f0: 4947 dfbc 56f9 06bd 41da f8bc c19a a83d
00000100: a7a7 50bd a118 4c3d 8e96 fb3b ee89 373d
00000110: 7181 a9bd b763 81bd 8968 edbb fcbc 333c
00000120: 5ac5 89bd b7db 193d ea16 3b3d 22ab 9a3d
00000130: 60c2 8bbd ddfc 273c 2576 a63d 34d0 9f3c
00000140: 156e 8ebd 7411 79bd 1d56 28bd 2deb 85bd
00000150: a87d 4ebd 7c81 a6bd 79cb 453c 850e ceba
00000160: 6210 85bd 4f0a 393d 6ab3 833d cfa5 823d
00000170: 0d54 56bd b67c 963d 92fd 83bd 80d6 883d
00000180: 5ff6 9c3d e88e 713d f652 14bd 58e5 01bd
00000190: 013d 2eba ae8f 6b3d 4473 e6bc bee2 873d
000001a0: 2d85 fd3c 667d abbd b3be a33d 7fae 3e3d
000001b0: ea4d b43d a9fd 593d cedd 4fbd fa7e 75bd
000001c0: 0ce8 0a3b bcf0 533d 0d53 073d a278 b1bd
000001d0: a0e1 0a3d c988 9dbd 7bc8 383d a8dc 663d
000001e0: c1df b5bc 2878 673d 76ff 7dbd 2ee6 8bbd
000001f0: af6f 8abc 3bde 11bd 90fc 813d 2efd c33c
00000200: b7ba 0a3d 81ed c93c f6d8 353d 429d 8e3d
00000210: 2c8f 6dbd 3785 823d 43f8 84bd 64e6 b43d
00000220: 0b18 8fbd 3026 eb3c 785d 85bd 77ca 1e3d
00000230: ddfa 01bd fe3c e23c 1ad1 5b3c 69a6 ad3d
00000240: 8085 94bd 372b 023d 3be5 2bbd 358d de3c
00000250: 4571 a33d 2f9d 6c3d 12cf b4bd 889c e43c
00000260: 21f8 723d d9bd ccbb 2341 793b 3a90 ec3c
00000270: 09d1 c23b 4299 b13d 74e0 acbd 98c7 80bc
00000280: 4a3d e5bc 2e01 a0bd 69e6 54bd f548 08bc
00000290: 1b11 91bd 26e8 59bd 3a73 fa3c 5699 8a3c
000002a0: f501 ae3b 922b 6f3d 4695 7b3d 1897 103c
000002b0: 0a88 96bc bec5 8cbd 3428 89bc 7c51 193d
000002c0: ad15 9dbd 979a 98bc 2285 293d 44de 24bd
000002d0: 1ebc debb 2d5d 52bd 2c7a 68bd 058e 393b
000002e0: 970d 8d3d a2c0 a23c 21ad 073c bfd0 b63b
000002f0: 4c02 adbd 1f50 8abd 4f00 6c3c 04b5 3abd
00000300: cddf af3d 8820 623c d88c 18bc 6de2 683d
00000310: 647f a83d 7b06 a8bd a244 a0bd f2eb edbc
00000320: 9aa3 1dbd c218 16bd fb60 e83c b819 313d
00000330: 3ddd 9b3c 1950 603c fd56 aebc 714b 9c3d
00000340: 0b51 283d 27e3 a53d 1f08 a03d 1457 cb3a
00000350: 3ce5 2d3c d7b0 1abd e8cd 7bbd d46f 96bd
00000360: 9b0c 093d f5a7 1e3d 4b51 ca3c c2d3 963d
00000370: 4dce b0bc 3804 6ebd 94e4 9f3d 8ab6 a13b
00000380: 14b0 aebd 4735 a9bd eb9a 913d 52fc edb9
00000390: efcd e53c bf0a 923d 081e 0fbb 2f6b 6bbd
000003a0: 0dc9 22bd 3c56 9e3d 1cf4 81bd de0e 86bd
000003b0: 1a12 69bd 2fe4 5d3c 2b9c 9a3d b2ae ac3d
000003c0: 65b6 c5bc 189b 513d 3666 543b 65ab ab3c
000003d0: 821e 3d3d f324 bd3c e2e4 963d 01db 0d3d
000003e0: e935 adbd 4247 53bd ed41 76bd 2c06 a23d
000003f0: 8e7b afba 832d 69bd 754f 053d 1837 813d
0.033130288 0.08483941 0.055758804 -0.022540988 0.0477312 -0.008866791 -0.08575267 -0.044634376
-0.087047495 -0.057752106 -0.011951645 0.05143102 0.043564405 -0.04221951 0.065481015 0.08526964
-0.05478121 -0.04045519 -0.005346475 0.031764142 0.030333413 0.019962791 -0.00956116 0.05658284
0.0456453 0.039739165 -0.049972378 0.07314621 0.04242408 0.06319874 0.047612157 -0.0057227095
-0.03613892 0.07057665 0.068028845 0.041407056 0.021835113 0.035500363 -0.05519388 0.007631825
-0.009488045 0.016235577 0.030353507 -0.076964706 0.023289546 -0.061746985 0.087277584 0.0045264238
-0.04684439 -0.04535514 -0.034332316 0.044073645 0.018727267 0.06271062 0.020860044 -0.0029561166
-0.025510043 0.05970942 -0.03078253 -0.074949674 -0.027255671 -0.03295263 -0.03037751 0.08232642
-0.050941136 0.049828175 0.0076778596 0.044809274 -0.08276642 -0.06317847 -0.0072451276 0.01097035
-0.06727095 0.037563052 0.04567615 0.07552172 -0.068241835 0.010253158 0.08128003 0.019508459
-0.0695459 -0.06080766 -0.04109775 -0.06538997 -0.050412804 -0.08130166 0.012072437 -0.001572088
-0.064972654 0.045175847 0.06430705 0.06379282 -0.05232625 0.073480055 -0.06444849 0.06681538
0.07664179 0.058974177 -0.03621193 -0.03171286 -0.00066466635 0.05751007 -0.028131135 0.066350445
0.030947292 -0.08373527 0.07995357 0.04655313 0.088039234 0.053220425 -0.05074864 -0.059935547
0.002119544 0.051743254 0.033038188 -0.08665587 0.03390658 -0.07692105 0.045113068 0.056362778
-0.02220142 0.056511074 -0.062011205 -0.06831013 -0.016898958 -0.035612326 0.063470006 0.023924436
0.03386947 0.024649384 0.044396363 0.06963588 -0.057997867 0.06373065 -0.06492665 0.08833006
-0.06987008 0.028704733 -0.065119684 0.038767304 -0.031733382 0.027616974 0.013416553 0.08479006
-0.072520256 0.031779494 -0.041966658 0.027166942 0.07980589 0.05776709 -0.08828558 0.027906671
0.059318665 -0.0062482175 0.003803321 0.028877366 0.005945329 0.0867181 -0.084412485 -0.015720174
-0.027983326 -0.07812725 -0.05197755 -0.008318176 -0.07083341 -0.05319991 0.030572522 0.01691882
0.005310292 0.05839116 0.061421655 0.008825086 -0.018375415 -0.06873654 -0.016742803 0.037431225
-0.0767015 -0.018628402 0.04138673 -0.04025103 -0.0067973277 -0.05135839 -0.056757137 0.002831341
0.06887358 0.019867245 0.008281023 0.0055790837 -0.08447704 -0.06753563 0.01440437 -0.045582786
0.085876085 0.013801701 -0.0093109235 0.05685656 0.08227423 -0.08204361 -0.07825591 -0.029043172
-0.0384861 -0.036644705 0.028366556 0.043237418 0.019026393 0.013690972 -0.021281714 0.07631577
0.041092914 0.080999665 0.07814049 0.0015513622 0.010613736 -0.037766304 -0.061475664 -0.07345548
0.033459287 0.038734395 0.024696967 0.07364608 -0.021582747 -0.058109492 0.0780727 0.0049350904
-0.08529678 -0.08262115 0.071096264 -0.00045392156 0.028052298 0.07130956 -0.0021837968 -0.057475265
-0.03974252 0.07731292 -0.06345388 -0.065458044 -0.05690203 0.013543173 0.07549318 0.08431758
-0.024134824 0.0511733 0.0032409555 0.02095575 0.046171673 0.023088908 0.07367875 0.034632687
-0.08457548 -0.05158163 -0.060121465 0.079113334 -0.0013388263 -0.05692817 0.03254648 0.063093364
